Q_network_weights_episode_1.pth (torch, 321915 bytes, 14 tensors)

rnn1.weight_ih_l0 f4 [128, 32]
0	0xbdab0aa6	-0.083516404
1	0x3d9f4bd8	0.07778138
2	0xbd596f77	-0.053084817
3	0x3dbb16b0	0.09135187
4	0xbf7c8f0f	-0.9865579
5	0xbe14eb81	-0.14542963
6	0xbe4820aa	-0.1954371
7	0xbded481f	-0.11586022
8	0xbdaea6fe	-0.08527945
9	0xbd6b331d	-0.057421792
10	0xbd994626	-0.07484083
11	0xbe2bb919	-0.16769828
12	0x3eaea42b	0.34109625
13	0x3e21d3a4	0.1580339
14	0x3dcf77e9	0.10130293
15	0x3d21385b	0.039360385
16	0xbdf3758c	-0.11887655
17	0xbdd280c0	-0.10278463
18	0xbd13d283	-0.03608943
19	0x3e12a710	0.14321542
20	0x3d60a690	0.054846346
21	0xbe0417ed	-0.12899752
22	0xbe9482fe	-0.2900619
23	0xbd1d6ca5	-0.03843369
24	0x3f12a3bd	0.57281095
25	0x3e51e0aa	0.20495859
26	0x3f4a944b	0.7913253
27	0x3eec2854	0.46124518
28	0x3e231917	0.1592754
29	0x3e37275f	0.17886113
30	0x3ef0d92f	0.47040698
31	0xbebd965c	-0.37028778
32	0x3e35c221	0.17749836
33	0x3e96c26b	0.29445204
34	0x3e40eafb	0.18839638
35	0x3e34c60b	0.17653672
36	0xbdae62ae	-0.085149154
37	0x3e241e8e	0.1602728
38	0x3e4e1544	0.201253
39	0x3e224ca3	0.15849547
40	0x3e479b18	0.19492757
41	0x3e5fe2cd	0.21863861
42	0x3e6d2958	0.23160303
43	0x3e730cfd	0.23735423
44	0x3e52b1a0	0.20575571
45	0xbd4ea326	-0.05044856
46	0x3c88e19a	0.016709138
47	0x3dc26a3e	0.0949292
48	0x3e4d7fe0	0.20068312
49	0x3e5f95d6	0.21834502
50	0x3e99a821	0.30011085
51	0xbe0fbc62	-0.14036706
52	0x3d2987be	0.04138922
53	0x3f03496a	0.51283896
54	0xbda1a152	-0.078920975
55	0x3db901e8	0.09033567
56	0x3e81ea33	0.25373992
57	0x3e3e8a53	0.18607454
58	0x3e414dd6	0.18877348
59	0x3e93b049	0.28845432
60	0x3d757fe4	0.05993642
61	0x3e4c8bf2	0.1997526
62	0x3e366742	0.17812827
63	0xbc6bf77d	-0.0144022675
64	0xbe5f9653	-0.21834688
65	0xbef283ae	-0.4736609
66	0xbe6dfeb1	-0.23241688
67	0xbeb8dd5d	-0.36106387
68	0x3cd29843	0.02570737
69	0x3ec96c39	0.3934038
70	0x3ec7bab8	0.39009643
71	0x3ec315c7	0.38102552
72	0x3e983377	0.29726765
73	0x3e9b11e8	0.302871
74	0x3ea7436d	0.3266863
75	0xbe688a3b	-0.2270898
76	0xbe8ead67	-0.2786667
77	0xbdcb129e	-0.0991566
78	0xbcf21aa2	-0.029553715
79	0xbd46c62b	-0.04852883
80	0xbe9d5778	-0.30730796
81	0xbec74670	-0.38920927
82	0xbeb96820	-0.36212254
83	0x3d9afaa6	0.07567339
84	0xbe5281cc	-0.20557326
85	0x3d14dae6	0.03634157
86	0xbded1cf3	-0.11577787
87	0xbe237872	-0.15963915
88	0xbecf31d8	-0.40467715
89	0xbdd25440	-0.10269976
90	0xbf5d5d4f	-0.864705
91	0xbe8d9df0	-0.2765956
92	0x3e54df94	0.20788413
93	0x3b498184	0.0030747363
94	0xbf02678a	-0.5093924
95	0x3ecb72d1	0.39736035
96	0xbda22df0	-0.07918918
97	0xbd6f53b6	-0.058429442
98	0x3dafefb8	0.085906446
99	0xbd7614f6	-0.060078584
100	0xbe847725	-0.2587215
101	0xbc74393e	-0.014906226
102	0x3e0d0725	0.13772257
103	0x3d11944a	0.03554181
104	0x3acaadc9	0.0015463169
105	0xba150c84	-0.0005685764
106	0x3d362777	0.04447123
107	0xbdaea31c	-0.085272044
108	0xbccb8471	-0.024843426
109	0xbd8c7710	-0.06858647
110	0xbda74bb3	-0.08168735
111	0x3d9c08ce	0.07618867
112	0xbc4718f1	-0.012151943
113	0xbd2978b8	-0.041374892
114	0xbd86ceda	-0.065824226
115	0xbdad374f	-0.08457815
116	0xbc47b431	-0.012188957
117	0xbe252aeb	-0.16129653
118	0xbdea2a02	-0.114337936
119	0xbddb6994	-0.10713497
120	0x3d1530f8	0.036423653
121	0x3dd4d4f7	0.10392182
122	0x3d09b877	0.033623185
123	0x3d062cd0	0.03275758
124	0x3e81aee4	0.25328743
125	0x3ea49d52	0.32151276
126	0x3e9c27c4	0.3049909
127	0xbe2421da	-0.16028538
128	0xbe1d9f47	-0.1539279
129	0x3d18f87e	0.037346356
130	0xbe2c92ad	-0.16852827
131	0xbd2ec3a3	-0.042667042
132	0xbfa3c116	-1.27933
133	0xbe2ad5e3	-0.16683154
134	0xbe7947b4	-0.24343759
135	0xbe25a896	-0.16177592
136	0xbe8d8015	-0.2763678
137	0xbe862eed	-0.26207677
138	0xbe3c17a2	-0.1836839
139	0xbe223c7d	-0.15843387
140	0xbc2edfac	-0.010673445
141	0xbe3bad80	-0.18327904
142	0xbde88fc1	-0.11355544
143	0xbdbf2e3c	-0.093349904
144	0xbe165a09	-0.14682783
145	0xbd8c0999	-0.06837768
146	0xbd80f105	-0.06295971
147	0xbe718943	-0.23587517
148	0xbe1490ea	-0.14508405
149	0xbee2bb02	-0.442833
150	0xbe8c762a	-0.27433902
151	0xbe1c30ea	-0.15253034
152	0xbce7ae0d	-0.028281236
153	0xbe35039b	-0.17677157
154	0x3e850a5c	0.25984466
155	0x3c5a3dd8	0.013320409
156	0xbe042bb1	-0.12907292
157	0xbe843d88	-0.25828195
158	0xbef81537	-0.48453686
159	0xbd39b3ac	-0.045337364
160	0xbd0b88ac	-0.034065887
161	0xbecbbd2b	-0.3979276
162	0x3b97d3f1	0.0046334197
163	0xbd3cfa55	-0.046137173
164	0xbf0ab952	-0.54189026
165	0x3e0ca731	0.13735653
166	0x3defef60	0.11715579
167	0xbcb55593	-0.022135532
168	0xbca6e984	-0.02037502
169	0x3e4bd69a	0.19906083
170	0x3e57a1c8	0.21057808
171	0xbeae6395	-0.3406035
172	0xbd2fabc6	-0.042888425
173	0x3e4ae690	0.19814515
174	0x3e5141ee	0.20435306
175	0x3d5736e2	0.052542575
176	0xbe9ff6e2	-0.31243044
177	0xbe261ecb	-0.16222684
178	0xbe4eac01	-0.20182802
179	0x3e3ab64e	0.18233606
180	0x3e2a68d7	0.16641556
181	0x3dc92a0f	0.09822475
182	0xbe9c3510	-0.30509233
183	0x3da30bca	0.07961233
184	0x3dd52860	0.104080915
185	0x3e1065ff	0.14101408
186	0xbe2183a5	-0.15772875
187	0x3d6b7a49	0.057489667
188	0xbe828281	-0.25490192
189	0xbe65b99a	-0.22434083
190	0x3f44bf98	0.7685485
191	0xbebe21b8	-0.371351
192	0x3e1213c1	0.14265348
193	0x3eb08aca	0.34480888
194	0x3e596ce8	0.2123295
195	0x3e66a697	0.22524486
196	0xbddc7a9c	-0.107655734
197	0x3eb63fb0	0.35595465
198	0x3eacf158	0.3377788
199	0x3eb446f6	0.3521039
200	0x3ea51f91	0.32250646
201	0x3e92b7a7	0.2865574
202	0x3ecd3e9c	0.4008683
203	0x3e9508a3	0.29108152
204	0x3e6f891c	0.23392147
205	0x3d891f62	0.06695439
206	0x3e1e2b9e	0.15446326
207	0x3d776a53	0.060404133
208	0x3ec79e61	0.3898802
209	0x3eb75f36	0.35814828
210	0x3eda6d47	0.42661497
211	0xbddf5583	-0.10904982
212	0x3d89ad8c	0.067225546
213	0x3e875484	0.26431668
214	0xbd7a65a3	-0.061132085
215	0x3da5586e	0.08073507
216	0x3e12901a	0.14312783
217	0x3e37b004	0.17938238
218	0x3e4e7bd2	0.20164421
219	0x3e202ed8	0.1564287
220	0x3da52825	0.080642976
221	0x3de87420	0.11350274
222	0xbedb4c17	-0.4283149
223	0x3ec8b983	0.39204034
224	0x3e29e622	0.16591695
225	0x3dc79d56	0.09746806
226	0x3dd730f9	0.10507388
227	0x3d4cd249	0.05000523
228	0xbe845d01	-0.25852206
229	0xbe79a77a	-0.24380293
230	0xbec51b06	-0.3849718
231	0xbea25070	-0.31701994
232	0xbeaac279	-0.33351496
233	0xbec3d8d9	-0.3825138
234	0xbeb86e61	-0.36021712
235	0xbd9bf611	-0.07615293
236	0x3e496a4e	0.19669458
237	0x3d83d0d2	0.06436314
238	0x3bb29f55	0.0054511228
239	0x3cefe27f	0.029282806
240	0xbd0fe6cf	-0.035132226
241	0x3dc32d31	0.09530104
242	0x3b3e91c0	0.0029078573
243	0xbd792fbd	-0.060836542
244	0xbba2a892	-0.004963943
245	0xbe3af956	-0.18259177
246	0xbd08b301	-0.033373836
247	0xbc7e1186	-0.015507108
248	0x3ebd2bf4	0.36947596
249	0x3e134440	0.14381504
250	0x3f5411f9	0.82839924
251	0x3ecc510a	0.39905578
252	0x3e60a879	0.21939267
253	0x3dd87faf	0.10571229
254	0x3db4cff3	0.08828726
255	0xbe9d4860	-0.3071928

rnn1.weight_hh_l0 f4 [128, 128]
0	0xbf042540	-0.5161934
1	0x3e4ca21d	0.19983716
2	0xbc864b3f	-0.016393302
3	0xbe00b9fc	-0.12570947
4	0x3bab955f	0.0052363123
5	0x3e0229bf	0.12711237
6	0xbd42423f	-0.04742646
7	0xbd1449d8	-0.036203235
8	0x3da6bcf3	0.08141508
9	0xbe4e196e	-0.20126888
10	0x3ddcc44c	0.10779628
11	0x3e0e6d5d	0.13908906
12	0x3d8db6ad	0.06919608
13	0x3de9a9b9	0.11409325
14	0x3e3cc181	0.18433191
15	0x3dcaac35	0.09896127
16	0xbe095875	-0.1341265
17	0xbd9832b0	-0.07431543
18	0x3e309d9c	0.17247623
19	0xbe11878b	-0.14211862
20	0xbd3f6278	-0.046724766
21	0x3db8da90	0.090260625
22	0x3b9b437f	0.004738271
23	0xbddcb884	-0.10777381
24	0xbdf75772	-0.12077226
25	0x3d7bf3ce	0.061511807
26	0x3e5fd443	0.21858315
27	0x3c51845c	0.012787905
28	0xbc392872	-0.011301147
29	0xbe629322	-0.22126439
30	0x3dac1aa1	0.084035166
31	0x3df6fe83	0.12060263
32	0x3d1def3a	0.038558222
33	0xbe8a8441	-0.27054027
34	0x3e07663d	0.13222595
35	0xbe450e27	-0.1924368
36	0xbdca6716	-0.09882943
37	0xbdd60871	-0.10450829
38	0xb9b98d88	-0.000353914
39	0x3e0ae5f7	0.13564287
40	0xbd780ec7	-0.060560968
41	0xbd01d13f	-0.031693693
42	0xbdc49981	-0.09599591
43	0xbe1ca3bd	-0.15296836
44	0x3e8f5350	0.2799325
45	0xbd68363b	-0.056692343
46	0xbdf5653b	-0.11982199
47	0x3d2dc80c	0.042427108
48	0x3d747f40	0.059691668
49	0x3d6a529f	0.0572077
50	0x3e132df9	0.14373006
51	0x3d178fb7	0.03700229
52	0xbe079d3c	-0.13243574
53	0xbd9a650c	-0.075388044
54	0x3c06b609	0.0082221115
55	0x3d8262e4	0.06366518
56	0x3ca3dfac	0.020004116
57	0x3e0df1cd	0.13861771
58	0x3de1fac5	0.110341586
59	0xbe32336c	-0.17402428
60	0xbda84e94	-0.082181126
61	0xbcd52be2	-0.026021902
62	0xbdbd017b	-0.09228798
63	0x3ddf3864	0.108994275
64	0xbe130162	-0.14355996
65	0x3d88d9e0	0.06682181
66	0x3da5f2b1	0.0810293
67	0x3dd278c2	0.10276939
68	0xbcea1658	-0.028575107
69	0xbd4718a2	-0.048607476
70	0x3dd1e056	0.10247867
71	0x3cff2ec8	0.031150237
72	0xbeb2742f	-0.34854266
73	0x3de2caeb	0.1107386
74	0x3c897cdc	0.01678317
75	0xbe6252b9	-0.22101869
76	0xbd0de71f	-0.034644242
77	0xbc59881b	-0.013277079
78	0xbc86edfa	-0.016470898
79	0x3d3aa7a0	0.045570016
80	0x3dc2a9ca	0.09505041
81	0xbdc5582f	-0.0963596
82	0x3d3d520b	0.04622082
83	0x3df096a8	0.117474854
84	0x3d55847e	0.052128308
85	0xbe680e72	-0.2266176
86	0x3dcabfad	0.098998405
87	0xbd1a81e0	-0.037721515
88	0xbdb9d3d7	-0.09073608
89	0xbda7ed08	-0.08199507
90	0x3e1f45e7	0.1555401
91	0xbc97b96d	-0.018521035
92	0xbd565406	-0.052326225
93	0xbe52a582	-0.20570949
94	0xbccc1e55	-0.024916807
95	0xbe2bfc90	-0.16795564
96	0x3dd019ce	0.10161172
97	0x3dc26ff8	0.094940126
98	0xbd366ac7	-0.044535425
99	0x3dba974e	0.0911089
100	0x3ce37247	0.027764453
101	0x3c1e7682	0.009671809
102	0x3c8ffc66	0.017576408
103	0x3defb067	0.11703568
104	0xbe170199	-0.14746703
105	0xbc362319	-0.011116766
106	0xbe07bd1c	-0.13255733
107	0xbd00ab68	-0.031413466
108	0x3e5c927e	0.21540257
109	0xbb2da15b	-0.002649388
110	0x3e049199	0.12946166
111	0xbc8b27a5	-0.016986677
112	0x3e1144b7	0.14186369
113	0x3b648f0d	0.0034875304
114	0x3d96158b	0.07328328
115	0xbda3511c	-0.07974455
116	0x3e84aa2e	0.25911087
117	0x3dbd47da	0.0924222
118	0xbd66d8e0	-0.056359172
119	0x3b3b361e	0.0028566192
120	0x3ddd20e1	0.10797287
121	0x3e1230e4	0.14276463
122	0xbb876218	-0.0041315667
123	0xbd08f0b3	-0.033432674
124	0x3e267928	0.16257155
125	0xbd1814cd	-0.037129212
126	0x3dbc008e	0.09179793
127	0x3ba74511	0.005104669
128	0xbdfc7ef4	-0.12328902
129	0xbe40995c	-0.18808502
130	0x3d3952fa	0.04524515
131	0xbc945c4a	-0.018110413
132	0xbbf6965a	-0.0075252475
133	0x3da0f3e1	0.07859016
134	0xbc631cfd	-0.013861892
135	0xbce8f18d	-0.028435493
136	0xbd922a9d	-0.07137034
137	0xbdc9d8d5	-0.098558106
138	0x3da20464	0.07910994
139	0xbdefbb3f	-0.11705636
140	0x3e015042	0.12628272
141	0x3e98be5a	0.29832727
142	0x3bd9a24e	0.0066416627
143	0x3e572a2b	0.2101218
144	0x3d7663bf	0.06015372
145	0x3d07e5c9	0.033178125
146	0xbdcfdecc	-0.10149917
147	0x3ca0253c	0.019549005
148	0xbc45982a	-0.0120602045
149	0x3e36b2ba	0.17841616
150	0x3eae3aa4	0.34029114
151	0xbdada4be	-0.08478688
152	0x3bd6191e	0.006533756
153	0x3d6ec95a	0.058297493
154	0xbdf6dd83	-0.12053969
155	0x3b922ff2	0.004461282
156	0x3e860ee0	0.26183224
157	0x3e9a18a0	0.30096912
158	0x3b3990c6	0.0028315051
159	0xbd80e072	-0.062928095
160	0xbe5077d8	-0.20358217
161	0xbd5e8f85	-0.05433609
162	0x3daeb44d	0.085304834
163	0xbe02aa58	-0.12760293
164	0x3d8a534b	0.06754168
165	0x3db3eae8	0.08785039
166	0x3e24f671	0.16109635
167	0xbe1e54a1	-0.15461971
168	0x3e3f39a5	0.18674333
169	0x3d7df198	0.06199798
170	0xbc38e352	-0.011284666
171	0x3e2ad484	0.16682631
172	0x3cd156bf	0.02555406
173	0xbdb2f8fa	-0.08738895
174	0x3beb4394	0.007179687
175	0xbcf690ac	-0.030098282
176	0x3d7098cf	0.05873948
177	0x3d74d0e3	0.059769522
178	0xbdb649fb	-0.089008294
179	0x3975c469	0.00023438189
180	0x3e5a683d	0.21328826
181	0xbe3f0a1b	-0.18656199
182	0xbb8b291e	-0.004246845
183	0x3e1b9bde	0.15196177
184	0x3c4454ce	0.01198311
185	0xbe0140b7	-0.12622343
186	0xbe602e20	-0.21892595
187	0xbeb1fa96	-0.34761494
188	0x3b564e8d	0.0032700629
189	0x3db43d66	0.08800773
190	0xbd331dd6	-0.043729626
191	0x3e2393fc	0.1597442
192	0xbdb1bb0a	-0.08678253
193	0x3e1afd5e	0.15135714
194	0xbdfb9748	-0.12284714
195	0x3e814c38	0.25253463
196	0x3d59cbdb	0.053172927
197	0x3db8b938	0.09019703
198	0x3d941be4	0.07231882
199	0xbe862559	-0.2620037
200	0xbcb4c862	-0.022068206
201	0x3c1c0f1b	0.009525086
202	0xbe1059f0	-0.14096808
203	0xbe827770	-0.2548175
204	0x3e4a9a57	0.19785438
205	0xbe93cd19	-0.28867415
206	0x3e74449f	0.23854302
207	0xbd9d6777	-0.0768575
208	0x3e146ff0	0.14495826
209	0x3cb068ac	0.021534286
210	0xbd92d710	-0.07169926
211	0x3df7f160	0.121065855
212	0x3e214502	0.1574898
213	0xbd8c6e34	-0.06856957
214	0xbd88d40b	-0.06681069
215	0xbe765d3d	-0.24059005
216	0xbe6b99ee	-0.23007938
217	0xbe828597	-0.25492546
218	0x3e156200	0.14588165
219	0x3d89d663	0.06730344
220	0xbd2ef922	-0.04271806
221	0xbe850328	-0.2597897
222	0x3d8216b9	0.0635199
223	0x3e042db2	0.12908056
224	0xbc94aa8d	-0.018147731
225	0xbc1f5bf7	-0.009726516
226	0xbd227145	-0.039658803
227	0xbd4d133d	-0.050067175
228	0xbe606fe9	-0.2191769
229	0x3da854d6	0.08219306
230	0xbe6a3766	-0.22872695
231	0x3da21586	0.079142615
232	0x3e7e48fe	0.24832532
233	0x3d862ab9	0.065511174
234	0xbe6e588e	-0.23275968
235	0xbe16ccab	-0.14726512
236	0x3d958b06	0.07301907
237	0xbd1b5e19	-0.037931535
238	0xbd58d7dd	-0.05294024
239	0x3cc6d978	0.024273619
240	0xbd6ab7a4	-0.05730404
241	0xbc937551	-0.018000277
242	0xbd91896e	-0.07106291
243	0x3e0b1e6f	0.13585828
244	0xbdf0a66c	-0.117504925
245	0xbccfcd9c	-0.025366597
246	0xbda03c9f	-0.078240626
247	0x3e4450c3	0.19171433
248	0xbeb86769	-0.36016396
249	0xbdda7b64	-0.10668066
250	0x3eaee8df	0.34162042
251	0x3c51e47c	0.012810823
252	0xbdad0e2e	-0.0844997
253	0xbc9fa86a	-0.019489486
254	0x3dbeb171	0.09311188
255	0xbd2205b7	-0.03955623

rnn1.bias_ih_l0 f4 [128]
0	0xbd20eba9	-0.039287243
1	0xbd4943a7	-0.049136784
2	0x3d5d3d76	0.05401369
3	0x3da93751	0.08262504
4	0xbe7112fa	-0.23542395
5	0x3e2d168b	0.1690313
6	0x3d654013	0.05596931
7	0xbd975956	-0.07390086
8	0x3e0313c7	0.12800513
9	0xbd3fab4c	-0.04679422
10	0x3c6ea9a4	0.014566813
11	0x3d6df91f	0.05809891
12	0xbba1bb74	-0.004935676
13	0xbbdc7167	-0.006727386
14	0x3c79ede7	0.015254474
15	0x3d895b28	0.0670684
16	0x3d7c0551	0.061528508
17	0x3c0579a5	0.008146678
18	0xbdc01fd4	-0.09381071
19	0xbda5ab39	-0.08089299
20	0x3c81f6c2	0.015864734
21	0xbd9a431e	-0.07532333
22	0xb9b69a17	-0.0003482855
23	0x3d5fd87b	0.05464981
24	0x3d0f9f9f	0.035064336
25	0xbe1feb7d	-0.15617175
26	0x3d3962b8	0.04526016
27	0x3dbeb7ea	0.093124226
28	0x3e10eec2	0.14153579
29	0xbe037c13	-0.128403
30	0xbda73c99	-0.08165855
31	0xbdaa2d7d	-0.083094575
32	0x3d9c061e	0.07618354
33	0x3bcc9d4a	0.0062443363
34	0xbd9506be	-0.072766766
35	0xbd96525f	-0.0733993
36	0x3d60f8b0	0.054924667
37	0xbd2e7710	-0.042594016
38	0x3dd58a8a	0.10426815
39	0xbd26fc4c	-0.040767953
40	0xbc797e41	-0.015227855
41	0xbc0b8484	-0.008515481
42	0x3e04ca9b	0.12967913
43	0xbd82187b	-0.063523255
44	0xbd11a60e	-0.035558753
45	0x3c8ad765	0.016948411
46	0x3cf44def	0.029822318
47	0x3e3bf491	0.18355013
48	0x3e383ff8	0.17993152
49	0x3c772978	0.0150855705
50	0xbcc3df85	-0.023910293
51	0xbd7534ce	-0.05986481
52	0xbb659f30	-0.003503751
53	0xbdd7836d	-0.10523114
54	0x3d05dc0e	0.032680564
55	0x3d119e4f	0.035551365
56	0x3e0b2bf0	0.1359098
57	0x3d85d9c0	0.06535673
58	0x3d5f245b	0.05447803
59	0x3d8bbe9a	0.06823464
60	0x3d903074	0.07040492
61	0xbda41e43	-0.080135845
62	0x3d92bf74	0.07165423
63	0x3cfa29e6	0.030537557
64	0x3da6bc5e	0.08141397
65	0xbe0c02f8	-0.13673007
66	0xbd024b09	-0.03180984
67	0x3d81529a	0.06314583
68	0xbc3957a9	-0.011312404
69	0x3e041bd2	0.12901238
70	0x3d590c4d	0.052990247
71	0xbca785fe	-0.020449635
72	0xbdcdb0d9	-0.10043497
73	0xbd8e656e	-0.0695294
74	0xbb7161d8	-0.0036832
75	0x3d75cf12	0.06001193
76	0x3dfa899d	0.12233279
77	0xbc6cbb50	-0.014448956
78	0x3df81ac7	0.121144824
79	0x3ab030c5	0.0013442269
80	0xbd12bcd9	-0.03582463
81	0x3d98dbb2	0.074637786
82	0x3e0d1be5	0.13780172
83	0x3a902e82	0.0011000189
84	0xbd74b102	-0.05973912
85	0xbbb522dc	-0.005527837
86	0xbde04b23	-0.10951831
87	0x3c4d505f	0.012531369
88	0x3d6e26f0	0.058142602
89	0x3d8753dc	0.06607792
90	0xbb7999df	-0.00380861
91	0xbd0bc48d	-0.034122992
92	0x3e32bf2c	0.17455739
93	0x3d112a2f	0.03544062
94	0x3cc6b7f8	0.024257645
95	0x3d6e1bd6	0.058132015
96	0xbd96d402	-0.07364656
97	0x3d64c46e	0.055851392
98	0x3d779ec6	0.060454153
99	0xbd13e6c7	-0.03610876
100	0x3da55786	0.080733344
101	0xbcd14154	-0.025543846
102	0x3dac7e91	0.08422578
103	0xbb033c24	-0.002002486
104	0xbdfaa888	-0.12239176
105	0x3c4d13ea	0.012516955
106	0xbda32499	-0.07965965
107	0x3d3329c3	0.043741
108	0x3d681fc1	0.056670908
109	0x3d4cadac	0.049970314
110	0x3dd39496	0.10331075
111	0xbca16999	-0.019703673
112	0x3d8879d1	0.0666386
113	0xbe2411db	-0.16022436
114	0x3cb1316e	0.021630015
115	0xbd5053d0	-0.05086118
116	0x3c8b18b2	0.01697955
117	0x3c27924c	0.010227751
118	0xbc002441	-0.007821144
119	0x3c25c7ca	0.010118434
120	0x3ded44e6	0.11585407
121	0xbc74ef89	-0.014949688
122	0x3c9a2028	0.018814161
123	0xba934205	-0.0011234885
124	0x3dd73e0d	0.10509882
125	0xbd40f710	-0.047110617
126	0xbd44f02c	-0.04808061
127	0xbe1018f0	-0.14072013

rnn1.bias_hh_l0 f4 [128]
0	0xbc8ac3e6	-0.016939115
1	0xbc3de182	-0.01158941
2	0x3d892790	0.06696999
3	0x3d1302df	0.03589141
4	0xbe1f9771	-0.15585114
5	0x3e171e3d	0.14757629
6	0x3c80a804	0.015705116
7	0xbd81755f	-0.06321215
8	0x3cc0ee4a	0.023551125
9	0xbd0b81ba	-0.034059264
10	0xbd7cfc96	-0.061764322
11	0x3d24e03c	0.04025291
12	0x3ca2ed57	0.019888563
13	0x3d0cf7c7	0.034415986
14	0xbccd9780	-0.025096655
15	0x3de397f9	0.11112971
16	0x3c175f4b	0.009239028
17	0xbda8b837	-0.08238261
18	0xbd923ee6	-0.07140903
19	0xbb804b56	-0.0039152307
20	0x3d9ab6a6	0.07554369
21	0xbe55ebc9	-0.20890726
22	0x3dcc60ce	0.099794015
23	0x3e2c3ff4	0.16821271
24	0x3c6915bf	0.014226376
25	0xbdaa95dd	-0.083293654
26	0xbcc3c389	-0.02389695
27	0x3deeb441	0.116554745
28	0xbbdbdaa3	-0.006709413
29	0xbdd1b5db	-0.10239764
30	0xbd356aa2	-0.044291146
31	0xbe0f6c97	-0.14006267
32	0xbc450fc3	-0.012027684
33	0x3d2e8dfb	0.042615872
34	0xbddeab4e	-0.108725175
35	0x3d1fd902	0.039025314
36	0xbdbc24e8	-0.09186727
37	0xbda3689e	-0.079789385
38	0x3ddbc673	0.107312106
39	0x3b0229bc	0.0019861301
40	0x3bc0ca2d	0.005883476
41	0x3e15dd65	0.14635237
42	0x3adf6dab	0.0017046233
43	0x3bf5a718	0.007496726
44	0x3dab9c99	0.08379478
45	0x3da0dd99	0.078547664
46	0x3cd45244	0.025918134
47	0x3dfba0b7	0.12286513
48	0x3e32151f	0.1739087
49	0xbe08cc78	-0.13359249
50	0xbcf4d69f	-0.029887496
51	0xbd65d168	-0.05610791
52	0x3c427cf6	0.011870613
53	0xbc6469f3	-0.013941276
54	0x3d329f0e	0.043608718
55	0x3dac586a	0.08415301
56	0x3e49e6be	0.19716927
57	0x3daf3cfe	0.08556555
58	0x3d9f74c7	0.077859454
59	0x38a6a5b2	7.94636e-05
60	0x3ddf49a4	0.10902718
61	0xbe0cfee6	-0.13769111
62	0xbb3d2314	-0.002886002
63	0xbd7c863a	-0.061651446
64	0x3de3b368	0.111182034
65	0xbd8e9da2	-0.0696366
66	0xbd1f05e6	-0.038823985
67	0xbd4574d5	-0.048207123
68	0xbd0035df	-0.031301375
69	0x3daed54a	0.085367754
70	0x3df08d6c	0.11745724
71	0xbd01a4b9	-0.031651232
72	0xbd0625e3	-0.032750975
73	0x3bc5e480	0.006039202
74	0xbd1640ba	-0.03668282
75	0x3db66863	0.08906629
76	0x3c6302e6	0.0138556715
77	0xbdd0bcb9	-0.10192246
78	0xbaf60392	-0.0018769375
79	0x3d84f4ca	0.06492002
80	0x3c4b71e1	0.012417288
81	0xbd698524	-0.05701174
82	0x3d8f1224	0.06985882
83	0x3d0cf9cf	0.034417924
84	0xbd03833e	-0.032107584
85	0xbdc26901	-0.09492684
86	0xbd771a07	-0.060327556
87	0xbd8d392d	-0.06895671
88	0x3d28f077	0.04124495
89	0xbdb35f49	-0.087584086
90	0x3d53e91d	0.051735986
91	0xbdfe1401	-0.12406159
92	0x3ddd9442	0.108192936
93	0x3d35c958	0.04438147
94	0xbbc4d5fb	-0.006006954
95	0xbcfe14cd	-0.031015778
96	0xbda1429c	-0.07874033
97	0x3d850584	0.06495193
98	0x3de9c4b5	0.11414472
99	0x3d941247	0.072300486
100	0x3db78751	0.089613564
101	0x3cf44b97	0.0298212
102	0x3d40eed3	0.04710276
103	0xbdd1e107	-0.10247999
104	0xbca03866	-0.019558143
105	0xbc9dab98	-0.019246861
106	0xbdfb4e8a	-0.122708395
107	0xbce85293	-0.028359687
108	0x3d3f82c2	0.04675556
109	0xbd740065	-0.05957069
110	0x3dd48958	0.10377759
111	0xbd449342	-0.047992
112	0x3d14c5e6	0.036321543
113	0xbe14de63	-0.14537959
114	0x3d8fb88f	0.07017624
115	0xbd98c49a	-0.07459374
116	0x3df57ba8	0.11986476
117	0x3deed5f5	0.11661903
118	0xbd335307	-0.043780353
119	0xbdf4bdcd	-0.11950264
120	0x3d935377	0.07193654
121	0x3d2b8442	0.041874178
122	0xbd949973	-0.072558306
123	0xbd5088b8	-0.050911635
124	0xbcbfd4aa	-0.023416836
125	0x3d776b25	0.060404915
126	0xbdb1b1af	-0.086764686
127	0xbc394f62	-0.01131043

rnn2.weight_ih_l0 f4 [128, 128]
0	0x3d981964	0.07426718
1	0xbd3bb82b	-0.045829933
2	0xbcaad9ae	-0.02085575
3	0xbe51d9bb	-0.20493214
4	0x3d3fd07b	0.04682968
5	0x3e4e7345	0.2016116
6	0xbdab1f0f	-0.08355533
7	0xbd19a49c	-0.0375105
8	0xbb98a47c	-0.00465828
9	0xbc287bff	-0.010283469
10	0x3ddd2b4d	0.107992746
11	0xbdd4ffb7	-0.10400336
12	0xbcdf2b92	-0.027242456
13	0xbc64f18d	-0.013973606
14	0xbe4432ed	-0.19160052
15	0x3cb8dbc8	0.022565737
16	0xbdc3e450	-0.095650315
17	0x3dd143ad	0.10217986
18	0x3d881b85	0.06645874
19	0x3de0787b	0.1096048
20	0x3d5e5c56	0.054287277
21	0x3d822811	0.06355298
22	0xbdf6822b	-0.12036546
23	0x3ccd5206	0.025063526
24	0x3de28270	0.11060035
25	0xbc707b4a	-0.014677832
26	0xbe614be6	-0.22001609
27	0x3cef86ab	0.02923902
28	0xbd2c903a	-0.042129733
29	0x3d2ccfc5	0.042190332
30	0xbc2cbff8	-0.010543816
31	0xbdc1e652	-0.09467758
32	0x3beeca14	0.007287273
33	0x3ee56ea5	0.44810978
34	0x3d533dee	0.051572733
35	0x3e5b9647	0.21444045
36	0xbe1c003c	-0.15234464
37	0x3dbe6f60	0.09298587
38	0xbe3b06e6	-0.1826435
39	0x3d4eeea5	0.050520558
40	0xbdc4b7df	-0.09605383
41	0xbdc2bcec	-0.0950869
42	0xbe302932	-0.17203215
43	0x3e401856	0.18759283
44	0xbda9d038	-0.08291668
45	0x3da8695c	0.08223221
46	0xbcc6bf59	-0.024261164
47	0xbcb3d8da	-0.021953989
48	0x3dbddd7b	0.0927076
49	0xbc9e3f90	-0.019317418
50	0xbe494609	-0.19655623
51	0x39338c6c	0.00017123081
52	0xbdbcabdf	-0.09212469
53	0x3dfe2bfc	0.12410733
54	0xbe46c5f2	-0.19411448
55	0x3c985e8c	0.018599771
56	0x3c5ee072	0.013603317
57	0xbd742d54	-0.05961354
58	0xbd9f2d25	-0.077722825
59	0xbdd7996e	-0.10527311
60	0xbe4bed78	-0.19914806
61	0x3cdc8d84	0.026922949
62	0xbd9601d4	-0.073245674
63	0x3e6c61b9	0.23084153
64	0xbe2255cd	-0.15853043
65	0xbcc7c833	-0.024387455
66	0xbdcb3fb1	-0.099242575
67	0x3d18f4e5	0.037342925
68	0xbd5ae03b	-0.0534365
69	0x3dd72f18	0.10507029
70	0x3cb40512	0.021975074
71	0xba39125b	-0.0007059925
72	0xbcfe4b61	-0.031041803
73	0x3dcd335f	0.10019564
74	0xbce9b85a	-0.028530288
75	0xbe3bb2c6	-0.18329915
76	0x3d99945b	0.07499
77	0x3cb8257a	0.022478808
78	0xbdc90062	-0.09814526
79	0xbc098479	-0.0083934
80	0x3e987edf	0.29784295
81	0x3dd053d7	0.10172241
82	0xbde53066	-0.11190872
83	0xbdd9576d	-0.10612378
84	0x3e6f16d9	0.2334856
85	0x3c9def8b	0.019279262
86	0xbe3cae2a	-0.18425813
87	0x3d8aa206	0.06769185
88	0xbd25ff12	-0.040526457
89	0x3d12cf05	0.03584196
90	0x3c5ce5f9	0.013482564
91	0x3e070333	0.13184814
92	0x3dc3a314	0.09552589
93	0xbe30cc66	-0.17265472
94	0x3e1fa91c	0.15591854
95	0x3e584fb1	0.2112415
96	0x3e4ebf49	0.20190157
97	0xbcc0bcea	-0.023527581
98	0x3d808dd1	0.06277049
99	0x3e3a05fa	0.18166342
100	0x3dbe2ad8	0.092855155
101	0xbdba954c	-0.09110507
102	0xbdb3f064	-0.08786085
103	0xbe8b971d	-0.27263728
104	0x3e2ecae8	0.1706959
105	0x399581a9	0.000285161
106	0xbe8acfcd	-0.27111664
107	0x3ca49480	0.020090342
108	0xbbdf40b6	-0.006813134
109	0xbdf70a7d	-0.12062547
110	0xbcce9b39	-0.0252205
111	0x3e82ad02	0.2552262
112	0xbd30633a	-0.04306338
113	0xbda869cd	-0.08223305
114	0xbe3745d4	-0.17897731
115	0x3e29ee3d	0.16594787
116	0xbc55b21f	-0.013042956
117	0xbdb6c229	-0.08923752
118	0x3d93e1ff	0.0722084
119	0x3e74bc14	0.23899871
120	0x3d2e9f10	0.042632163
121	0xbe3a5233	-0.18195419
122	0xbdbec9cc	-0.093158334
123	0x3e28f123	0.16498236
124	0x3de65bbd	0.112479664
125	0x3c927d69	0.017882066
126	0xbda16d8e	-0.07882224
127	0x3dc0500d	0.093902685
128	0x3e8bb61d	0.2728738
129	0x3d693ae0	0.056940913
130	0xbf2493db	-0.6428811
131	0x3e0315bb	0.12801258
132	0x3d212adc	0.039347515
133	0x3da840e6	0.082155034
134	0x3d1e1431	0.038593475
135	0x3e223bdd	0.15843149
136	0x3dc9152c	0.09818491
137	0x3e07c94b	0.13260381
138	0x3b932f0a	0.0044916915
139	0xbeedcc2e	-0.4644484
140	0x3e1673e1	0.14692642
141	0x3d8c2c9e	0.068444476
142	0xbe45f36d	-0.19331141
143	0x3d437951	0.04772312
144	0xbc8e6bbe	-0.01738536
145	0x3e0747f2	0.13211039
146	0xbdbfeff8	-0.09371942
147	0x3e47926c	0.1948945
148	0xbd9bd08c	-0.076081365
149	0xbd7e22af	-0.062044796
150	0x3d518b27	0.051158097
151	0x3e495a33	0.19663315
152	0x3c73f853	0.014890748
153	0xbcab111f	-0.020882187
154	0xbe63246b	-0.22181861
155	0x3c5298a4	0.012853775
156	0x3cabb0a4	0.020958252
157	0x3d63652b	0.055516403
158	0xbd8b85c5	-0.06812624
159	0x3ba3397d	0.0049812184
160	0x3e3c312c	0.18378133
161	0x3f1c3fd1	0.61034876
162	0xbe410099	-0.18847884
163	0x3e59cfcd	0.21270676
164	0xbb03454c	-0.0020030318
165	0x3eb8e280	0.36110306
166	0xbebaa366	-0.36452788
167	0x3e0f50bc	0.13995641
168	0x3db23a89	0.08702571
169	0x3c2fd1bb	0.010731156
170	0xbd8cf561	-0.0688274
171	0x3cdc5a30	0.026898474
172	0xbd1ceb4a	-0.038310327
173	0x3c9e19d9	0.019299434
174	0xbe2fa114	-0.1715129
175	0xbb6bf59b	-0.0036004547
176	0xbd715aff	-0.05892467
177	0xbdfe1831	-0.12406958
178	0xbe68ca07	-0.22733317
179	0xbd1c48cc	-0.038155362
180	0x3ca68f15	0.020331899
181	0xbbfd9b93	-0.007739493
182	0xbea421d1	-0.3205705
183	0x3dadaf44	0.08480695
184	0xbc40d701	-0.011770011
185	0x3d9b83a1	0.075934656
186	0x3e218138	0.1577195
187	0x3e63cfd8	0.22247255
188	0x3db6282e	0.088943824
189	0xbe4e8b36	-0.20170292
190	0xbe513a28	-0.20432341
191	0xbc72daff	-0.014822721
192	0xbe1c579d	-0.15267797
193	0xbcce9328	-0.025216654
194	0xbdc4ff38	-0.096189916
195	0xbdb3da30	-0.0878185
196	0x3e42fe9e	0.19042441
197	0xbd4f2e7b	-0.050581437
198	0xbd3e651e	-0.04648315
199	0xbd8b9492	-0.06815447
200	0x3d6bbb6e	0.057551794
201	0x3c36d934	0.011160184
202	0xbe3d5edb	-0.18493216
203	0xbd123eb2	-0.035704322
204	0xbe45e98d	-0.19327374
205	0x3d8a1620	0.06742501
206	0xbe1de566	-0.1541954
207	0xbd50a888	-0.050941974
208	0x3ca7f106	0.020500671
209	0x3e8418bc	0.2580012
210	0x3d961342	0.07327892
211	0x3dca819e	0.09888004
212	0x3e2c63a2	0.16834882
213	0x3e97d1ee	0.2965235
214	0xbd92cbbb	-0.07167765
215	0x3f206ed9	0.6266914
216	0x3cb6fc38	0.022337064
217	0xbe2cca80	-0.16874123
218	0xbdd8b3fd	-0.10581205
219	0xbc36f060	-0.011165708
220	0x3dc26a7c	0.094929665
221	0xbeaba951	-0.33527616
222	0x3dbffa1e	0.09373878
223	0x3d36362a	0.04448525
224	0x3e534049	0.20629992
225	0x3d4979e5	0.049188513
226	0x3d30c8c4	0.043160215
227	0x3e322a4e	0.1739895
228	0x3e9694ec	0.29410493
229	0x3cf16790	0.029468328
230	0x3d5d06c4	0.05396153
231	0xbe095d92	-0.134146
232	0xbd6dc9d2	-0.0580538
233	0xbd92522c	-0.07144579
234	0xbe92cbce	-0.28671116
235	0xbe63019c	-0.22168583
236	0xbe32b54d	-0.17451973
237	0x3bd6ca8c	0.006554907
238	0xbe7d6a04	-0.24747473
239	0xbca25a0c	-0.019818328
240	0xbd89a48c	-0.06720838
241	0x3d9ae4ea	0.07563193
242	0x3d3e23fe	0.046421044
243	0x3e88ab16	0.26693028
244	0x3e376df9	0.17913045
245	0x3ecec96b	0.40388045
246	0x3dc9f3d7	0.09860962
247	0xbe1382fb	-0.14405434
248	0x3da78a95	0.08180729
249	0x3c960984	0.018315084
250	0x3dd763c1	0.105170734
251	0x3d445936	0.04793664
252	0xbd432b79	-0.04764888
253	0xbd32fd47	-0.043698575
254	0xbe1b6884	-0.15176588
255	0xbd3eb27a	-0.046556927

rnn2.weight_hh_l0 f4 [128, 128]
0	0x3ddf957b	0.10917183
1	0xbda08506	-0.07837872
2	0xbdbd1e87	-0.09234338
3	0x3ce9b03e	0.028526422
4	0x3e875c2c	0.2643751
5	0xbd7fe520	-0.06247437
6	0xbe5508d4	-0.20804149
7	0x3e2e4f27	0.17022382
8	0xbc956016	-0.018234294
9	0xbdeff081	-0.11715794
10	0x3be8fbf5	0.0071101137
11	0xbcf69f63	-0.030105298
12	0xbd23414e	-0.0398572
13	0x3d07fb61	0.033198718
14	0xbdc0ee19	-0.094204135
15	0x3e2263d5	0.15858395
16	0x3d151378	0.03639552
17	0xbbb4ac3e	-0.005513697
18	0xbd421b90	-0.047389567
19	0xbd5bbab6	-0.05364486
20	0xbd8f3119	-0.069917865
21	0x3b8722d9	0.004124027
22	0xbe9257cc	-0.2858261
23	0x3dd38225	0.103275575
24	0x3d1c51b3	0.038163852
25	0x3e462d59	0.19353236
26	0xbe8f9d41	-0.28049663
27	0xbd7ac6c1	-0.061224703
28	0xbe014d5a	-0.12627164
29	0xbebb8e2b	-0.36631903
30	0x3d4dc94c	0.0502408
31	0xbcc455a0	-0.02396661
32	0x3d580e34	0.05274792
33	0xbdeccd04	-0.11562541
34	0xbe751e3e	-0.23937318
35	0x3d6f1fb3	0.05837984
36	0xbd80367d	-0.06260393
37	0xbe318e76	-0.17339501
38	0x3c67069e	0.014100699
39	0x3e135089	0.1438619
40	0x3d21a351	0.03946239
41	0x3d90916f	0.07058989
42	0x3c89cba6	0.01682074
43	0x3e25ce3b	0.16191952
44	0xbd25e9c1	-0.04050613
45	0x3db21a28	0.08696395
46	0xbd8a1238	-0.06741756
47	0xbe71d896	-0.23617777
48	0xbe3acce0	-0.18242216
49	0x3dab7da7	0.08373576
50	0xba463e54	-0.0007562388
51	0x3b0c25b3	0.0021384775
52	0x3cb38401	0.02191353
53	0x3da6fa53	0.08153214
54	0x3e306c6f	0.17228864
55	0x3d6ac224	0.057314053
56	0xbb695e18	-0.0035609063
57	0x3dba8744	0.09107831
58	0xbeab37ed	-0.33441105
59	0xbe0c0305	-0.13673027
60	0x3e366b12	0.17814282
61	0xbe219771	-0.15780427
62	0xbd7c72a8	-0.061632782
63	0x3de769db	0.11299487
64	0x3eaef84c	0.3417381
65	0xbd69ee50	-0.057112038
66	0x3e79a3d8	0.24378908
67	0x3e13de5a	0.14440289
68	0x3c6b945f	0.014378636
69	0xbc389e7a	-0.0112682525
70	0xbee5cbd9	-0.44882086
71	0x3d8a034e	0.067389116
72	0x3d27bc62	0.04095114
73	0xbe28027b	-0.16407196
74	0xbd217597	-0.039418783
75	0x3db94608	0.090465605
76	0xbd01c11c	-0.031678304
77	0xbea5a4ec	-0.32352388
78	0x3ba196e3	0.004931317
79	0x3c837660	0.016047657
80	0xbddecf55	-0.10879389
81	0x3ea64b8a	0.32479507
82	0xbd826e8e	-0.06368743
83	0xbd07cd9c	-0.03315507
84	0x3b77f4e9	0.0037835187
85	0x3e6ac3ea	0.22926298
86	0x3eae7483	0.34073266
87	0xbe833daa	-0.25632983
88	0xbe9b94e3	-0.3038703
89	0xbd8ca739	-0.06867833
90	0xbdf98315	-0.12183205
91	0x3d8bbb33	0.06822815
92	0x3e8b6872	0.27228123
93	0xbd742ac6	-0.059611104
94	0xbdb8f107	-0.09030347
95	0xbd62d867	-0.05538216
96	0x3e1bbed1	0.1520951
97	0xbd42720b	-0.04747204
98	0x3e0bd37d	0.13654895
99	0xbe232ddf	-0.15935467
100	0xbe07d5f7	-0.13265215
101	0x3d4dddb3	0.050260257
102	0x3b3b96be	0.0028623785
103	0x3e4a8a1e	0.1977925
104	0xbd908d20	-0.070581675
105	0xbd85588d	-0.0651103
106	0x3d851fe8	0.06500226
107	0x3daa6ca2	0.08321501
108	0xbde8ef6f	-0.11373793
109	0xbc7dbd5c	-0.015487041
110	0x3c11fa22	0.008909734
111	0xbd9156de	-0.07096647
112	0x3bec6a67	0.0072148326
113	0x3cfa8525	0.030581066
114	0x3d15fe2a	0.036619343
115	0xbd238174	-0.039918378
116	0xbe651a0f	-0.22373222
117	0x3b4beace	0.0031115296
118	0x3d8e4122	0.06946017
119	0xbe5718a7	-0.21005498
120	0xbd44ce76	-0.04804846
121	0xbe2907dc	-0.16506904
122	0xbde2a251	-0.11066116
123	0x3d081f0a	0.033232726
124	0x3dd641f8	0.10461801
125	0xbe1eb2d2	-0.15497902
126	0xbd1d7a9d	-0.03844701
127	0x3d5c64e9	0.053807173
128	0x3dff17f8	0.124557436
129	0x3e152182	0.14563563
130	0x3ccf7688	0.025325075
131	0x3d74185a	0.059593536
132	0x3b4a78fa	0.0030894862
133	0xbd55807d	-0.05212449
134	0x3cb48791	0.0220373
135	0x3dff010d	0.12451372
136	0x3e0ba950	0.13638806
137	0x3ab0a842	0.0013477879
138	0x3d237dd7	0.039914932
139	0x3d8cacad	0.06868873
140	0x3d9439cc	0.072375864
141	0x3d704e31	0.05866832
142	0x377700c4	1.47225255e-05
143	0xbda1af46	-0.07894759
144	0xbd0158ed	-0.031578947
145	0x3d3a4a2c	0.045480892
146	0xbd9baa80	-0.0760088
147	0xbc97a791	-0.01851252
148	0x3dc0aea2	0.094083086
149	0x3b855ffb	0.0040702797
150	0xbe2aaf76	-0.16668496
151	0x3d69deae	0.05709713
152	0x3c2387ff	0.009981154
153	0x3d87bd62	0.06627919
154	0xbe0e5df4	-0.13903028
155	0xbdfbf2ab	-0.123021446
156	0xbc9fb415	-0.01949505
157	0xbd1c3611	-0.0381375
158	0xbd90fce6	-0.070794865
159	0x3da0d440	0.078529835
160	0x3d54329c	0.051806077
161	0xbe1a8a47	-0.15091811
162	0xbeb6eee1	-0.35729125
163	0x3d780b2f	0.06055754
164	0xbd6e2fd9	-0.0581511
165	0xbdac1c30	-0.08403814
166	0x3d888737	0.06666415
167	0x3d006060	0.03134191
168	0x3c035564	0.008015964
169	0xbdbf3aec	-0.0933741
170	0xbcd25ad6	-0.02567808
171	0xbd983425	-0.07431821
172	0x3a1d12ae	0.0005991858
173	0x3c9c46a0	0.019076645
174	0x3d862a04	0.065509826
175	0xbd64aa18	-0.055826277
176	0xbdcf3625	-0.10117749
177	0x3cdb3f34	0.026763536
178	0x3dc04006	0.093872115
179	0xbd8c2951	-0.06843818
180	0xbd26a1f7	-0.040681805
181	0xbcb08a16	-0.02155022
182	0x3da3079f	0.07960438
183	0x3d531343	0.05153204
184	0x3dc4dc23	0.096123
185	0xbcc97bc5	-0.02459515
186	0xbd81c37a	-0.06336112
187	0xbce02968	-0.027363494
188	0xbd8d1b68	-0.06889993
189	0x3d9d6e93	0.07687106
190	0xbdb1eb9d	-0.08687518
191	0xbd1dd1f6	-0.038530312
192	0x3e214c87	0.15751849
193	0xbdb55f10	-0.08856022
194	0x3e15eaee	0.146404
195	0xbccb895b	-0.02484577
196	0xbbb8fe62	-0.005645559
197	0xbdb72e33	-0.08944359
198	0xbe5311f3	-0.20612316
199	0xbc0f0360	-0.008728832
200	0xbd12ac33	-0.035808753
201	0xbe78af64	-0.24285656
202	0xbdd362c9	-0.10321576
203	0x3d892baf	0.06697785
204	0x3cf6c4b0	0.030123085
205	0xbe1888b6	-0.14895901
206	0x3da84c11	0.082176335
207	0x3d753cb1	0.059872333
208	0x3d776a78	0.06040427
209	0x3e36cdfb	0.17852013
210	0x3d86c28f	0.06580078
211	0x3e8e1cef	0.2775645
212	0xbd57e4e4	-0.05270852
213	0x3d2092fb	0.03920267
214	0xbe3f0a9c	-0.18656391
215	0x3d80d6ff	0.06291007
216	0xbde78fbe	-0.113067135
217	0xba38f9c6	-0.0007056262
218	0x3e778e26	0.24175319
219	0xbd95a72f	-0.07307278
220	0x3d8e7a11	0.06956876
221	0x3cca0988	0.024662748
222	0xbd9002c0	-0.070317745
223	0xbd374dd3	-0.044751953
224	0x3d7c7e6b	0.061644
225	0xbe0f95d3	-0.14021997
226	0xbd0eff5c	-0.0349115
227	0xbdace0ad	-0.08441291
228	0xbdbcf3ba	-0.09226175
229	0x3d1458e0	0.03621757
230	0xbbc766f5	-0.0060852715
231	0x3ddf00d2	0.10888828
232	0x3d25c584	0.04047157
233	0xbd7e26f0	-0.062048852
234	0xbe3cf585	-0.18453033
235	0x3d1949b0	0.03742379
236	0x3cf3d09f	0.029762564
237	0x3e54d97a	0.20786086
238	0x3bc9d5af	0.0061595063
239	0xbd2b0425	-0.041752
240	0xbd80bfec	-0.06286606
241	0xbda0b94f	-0.07847845
242	0x3b15444c	0.0022776304
243	0x3d9128aa	0.07087834
244	0xbd01e5d5	-0.031713326
245	0x3d3e28b2	0.04642553
246	0x3bebef42	0.0072001526
247	0xbc7d1a07	-0.0154481
248	0xbda46a84	-0.08028129
249	0xbd2825b6	-0.04105159
250	0x3d875c06	0.06609349
251	0xbda39ef2	-0.07989301
252	0xbd72e034	-0.059295848
253	0x3d9e967e	0.07743548
254	0xbc5c8751	-0.013459996
255	0xbe8e2eb2	-0.2777

rnn2.bias_ih_l0 f4 [128]
0	0xbd968360	-0.073492765
1	0x3d1c9b9b	0.038234334
2	0xbc808b92	-0.015691552
3	0x3d828d80	0.06374645
4	0xbc2f72f1	-0.0107085565
5	0x3c8f4e44	0.017493375
6	0xbd6940f2	-0.056946702
7	0x3d79fca7	0.061031964
8	0x3ce09ff0	0.027420014
9	0xbe34b6b6	-0.17647824
10	0x3d10da1f	0.035364266
11	0xbded3fe6	-0.11584453
12	0x3d5dcbaa	0.054149307
13	0xbcd7d6bc	-0.02634751
14	0x3ce3b9d0	0.027798563
15	0x3d62a9ab	0.05533759
16	0x3e1c1e70	0.15245986
17	0x3cd03f5b	0.025420835
18	0xbe33ea27	-0.17569791
19	0xbe1d2d30	-0.15349269
20	0x3e1249a5	0.14285906
21	0x3d52002a	0.051269688
22	0xbd12d75a	-0.035849907
23	0x3d08cfec	0.033401415
24	0x3d0ceb9d	0.034404386
25	0x3d38677c	0.045020565
26	0x3dc13786	0.094344184
27	0xbd6553bc	-0.05598806
28	0x3b2b2b9e	0.0026118527
29	0x3dc169dd	0.0944402
30	0x3d9ab8e7	0.075547986
31	0x3dd7acc7	0.105310015
32	0xbd83f2ea	-0.064428166
33	0x3c0f94b7	0.008763484
34	0x3c499cb3	0.012305426
35	0xbdc2f67e	-0.09519671
36	0x3d0b2bf4	0.033977464
37	0xbd9a64e0	-0.07538772
38	0x3d197714	0.037467077
39	0x3b163340	0.002291873
40	0x3dc307c4	0.095229656
41	0xbd1bb568	-0.0380148
42	0xbcc588c9	-0.024113076
43	0x3e1660ea	0.14685407
44	0xbd82e080	-0.06390476
45	0x3df20dec	0.11819062
46	0xba4de68d	-0.0007854484
47	0xbd2dde0b	-0.042448085
48	0xbc3da8d2	-0.011575894
49	0xbd4a9ea3	-0.049467694
50	0xb9595dfc	-0.00020729745
51	0xbbc05a1f	-0.0058701183
52	0xbbd85be4	-0.006602751
53	0x3ccda3aa	0.025102455
54	0x3b86af07	0.0041102204
55	0xbd715f77	-0.058928933
56	0x3d1c1cf5	0.038113553
57	0x3d893e44	0.06701329
58	0xbd030c7e	-0.031994335
59	0xbb8edddb	-0.0043599433
60	0xbdce2c90	-0.10067093
61	0xbda8cd7f	-0.0824232
62	0x3c458696	0.012056014
63	0xbce9a692	-0.02852181
64	0xbdaf16f2	-0.08549298
65	0xbd2bdbc6	-0.04195764
66	0xbcf3218c	-0.029679082
67	0xba8cb846	-0.001073607
68	0xbd76d0d3	-0.060257744
69	0xbdda5155	-0.10660044
70	0x3df970be	0.12179707
71	0x3d78aa7f	0.060709473
72	0x3cc3c8d1	0.023899468
73	0x3af65a84	0.0018795286
74	0xbda06c7b	-0.07833191
75	0x3cc094a9	0.023508387
76	0xbe0f678d	-0.14004345
77	0xbc0ab474	-0.008465875
78	0x3c3749cb	0.011187027
79	0x3cf0bb20	0.029386103
80	0x3db122de	0.086492285
81	0xbd9061e0	-0.07049918
82	0xbd2afe8b	-0.041746657
83	0x3e0e71dd	0.13910623
84	0x3d420e7f	0.047377106
85	0x3db288d2	0.08717503
86	0xbd3052e8	-0.043047816
87	0x3e32dbd5	0.17466672
88	0xbb804ab0	-0.0039151534
89	0x3dab80d4	0.083741814
90	0x3e4bafb1	0.1989124
91	0x3c807f17	0.015685601
92	0x3d56c577	0.05243441
93	0x3e068eb5	0.13140376
94	0x3b9160c6	0.004436585
95	0x3ca5f168	0.020256713
96	0x3c9737a3	0.018459147
97	0xbe1fe54f	-0.15614818
98	0xbdd9248c	-0.10602674
99	0x3da45ad9	0.0802514
100	0xbdd00cb7	-0.10158675
101	0xbd081036	-0.033218585
102	0x3db50ffb	0.08840939
103	0x3c2366c3	0.009973231
104	0xbd3c275d	-0.045935977
105	0x3e3667a5	0.17812975
106	0xbb323eae	-0.0027198005
107	0x3de0b40a	0.1097184
108	0x3d761044	0.060074106
109	0x3b4c2b38	0.003115369
110	0x3d3287c9	0.043586526
111	0xbc0e29c8	-0.008676954
112	0x3d811816	0.06303422
113	0xbb3ef770	-0.0029139183
114	0xbc564911	-0.013078944
115	0x3e23bb9e	0.15989539
116	0x3d7af867	0.06127205
117	0xbdebbf76	-0.11511128
118	0xbde695bf	-0.112590306
119	0x3d2c36a5	0.0420443
120	0xbc1a95d9	-0.0094351405
121	0xbd82afe8	-0.06381208
122	0x3ce23b56	0.027616184
123	0xbd59dbfa	-0.0531883
124	0x3d152a66	0.036417387
125	0x3c916a95	0.017751018
126	0x3da18c8e	0.07888137
127	0xbd037d07	-0.032101657

rnn2.bias_hh_l0 f4 [128]
0	0x3d83027b	0.063969575
1	0x3d8edd39	0.069757886
2	0x3b98bf84	0.0046615023
3	0x3da4c3a0	0.08045125
4	0xbd2a2618	-0.041540235
5	0x3d203e99	0.039122198
6	0x3cea9cd2	0.02863923
7	0x3d0eff1d	0.034911264
8	0xbcf40cae	-0.029791202
9	0xbd6f7022	-0.058456548
10	0x3e0bc0aa	0.13647714
11	0xbd86216b	-0.06549343
12	0x3d4b95ad	0.04970329
13	0x3b70b435	0.0036728506
14	0x3e2a0ec7	0.166072
15	0xbd00bda5	-0.03143086
16	0x3d166817	0.03672036
17	0x3e3cc566	0.18434677
18	0xbdd5d886	-0.10441689
19	0xbdeed9c4	-0.11662629
20	0x3d9678ee	0.07347284
21	0xbb45800c	-0.0030136136
22	0xbdb17303	-0.08664515
23	0xbdb842db	-0.08997127
24	0xbdcb7ab8	-0.09935516
25	0x3d12b63b	0.03581832
26	0x3d1087d2	0.03528578
27	0xbd38dbc0	-0.045131445
28	0x3df99778	0.121870935
29	0x3caeadf8	0.02132319
30	0x3dc3fd88	0.095698416
31	0x3e05e95e	0.13077304
32	0xbde54908	-0.1119557
33	0xbdc5d24c	-0.096592516
34	0x3c703d11	0.014662997
35	0xbdb0597d	-0.086108185
36	0x3ce716e2	0.028209154
37	0xbbe3aeca	-0.0069483267
38	0x3d10dfd0	0.035369694
39	0x3d84dc18	0.06487292
40	0x3e2775ec	0.16353577
41	0xbdf4230a	-0.11920746
42	0xbde2b5b2	-0.11069812
43	0xbcdec5a6	-0.027193855
44	0xbcd8e7d0	-0.026477724
45	0x3d978eee	0.074003085
46	0x3d2bb44f	0.041920003
47	0xbb97c1c6	-0.004631254
48	0xbcde87fa	-0.027164448
49	0xbd6fbf71	-0.058532182
50	0x3e14f9b7	0.14548384
51	0x3d069830	0.03285998
52	0x3a2d1965	0.00066032103
53	0xbdbb53a4	-0.091468126
54	0xbc5d8fd7	-0.013523064
55	0x3ccdbc3c	0.025114171
56	0xbdb6ce5f	-0.08926081
57	0xbb61c7a5	-0.0034451273
58	0xbd2a7908	-0.04161933
59	0xbd1c90d0	-0.03822404
60	0x3d06f8fc	0.032952294
61	0x3cb1d6bb	0.021708837
62	0x3c3a43dd	0.011368719
63	0xbddd540b	-0.108070455
64	0xbd94f5a6	-0.07273416
65	0xbde83835	-0.11338846
66	0xbb02ba9e	-0.0019947658
67	0x3e157878	0.14596736
68	0xbd2c9896	-0.042137705
69	0xbe016d7f	-0.12639426
70	0xbc7078b1	-0.014677213
71	0x3d5e4153	0.054261517
72	0xbdc324de	-0.09528516
73	0x3daaaf2a	0.08334191
74	0xbdc9c0c5	-0.09851221
75	0x3e0a9b2e	0.13535759
76	0xbe2c270b	-0.16811769
77	0x3d8388de	0.0642259
78	0x3e0c6a42	0.13712409
79	0xbd2e5551	-0.042561833
80	0xbca21f2d	-0.019790256
81	0xbc0fc928	-0.008775987
82	0xbe032c29	-0.12809815
83	0x3e1a2ad6	0.15055403
84	0x3dae41fb	0.085086785
85	0x3daef0e4	0.0854204
86	0xbd671384	-0.056415096
87	0x3dd0d1c2	0.10196258
88	0x3d0f96f5	0.035056073
89	0x3d752451	0.059849087
90	0x3e1401ae	0.14453766
91	0x3df02dcd	0.11727486
92	0xbd5f9d99	-0.054593656
93	0x3deda631	0.11603964
94	0x3cbe3752	0.023219738
95	0x3ddfb65f	0.109234564
96	0x3d9678fc	0.07347295
97	0xbe3dd8fe	-0.18539807
98	0xbd51c8ef	-0.051217016
99	0x3b37969f	0.002801336
100	0xbda92566	-0.08259086
101	0xbc9a96cc	-0.018870734
102	0xbc7ba29f	-0.015358596
103	0x3d35130b	0.044207614
104	0xbe0bce52	-0.13652924
105	0x3e213260	0.15741873
106	0x3d2b5c2b	0.041835945
107	0x3e54a4cf	0.20765994
108	0x3c8dbfca	0.017303366
109	0x3b82f5c4	0.0039965827
110	0x3e00a060	0.12561178
111	0xbd4defd4	-0.050277546
112	0x3b86cfbe	0.0041141203
113	0x3db1b82b	0.086777054
114	0x3d9f699f	0.077838175
115	0x3d3ba8aa	0.045815147
116	0x3d123f9d	0.035705198
117	0xbdbac93d	-0.091204144
118	0xbdac963e	-0.08427094
119	0xbc19733c	-0.009365853
120	0x3d4e37c6	0.05034616
121	0xbb3ef394	-0.0029136883
122	0xbd9c8bb5	-0.076438345
123	0xbe11713a	-0.14203349
124	0x3dd6c159	0.10486097
125	0x3d2e7c1a	0.04259882
126	0x3d4a1072	0.04933209
127	0xbd8bc08e	-0.06823836

dense_layers.0.weight f4 [128, 128]
0	0xbd814652	-0.06312241
1	0xbe2ed758	-0.17074335
2	0x3d8a583e	0.06755112
3	0x3d7129b2	0.058877654
4	0x3e520fe1	0.2051387
5	0x3d5d7d71	0.05407471
6	0xbd3cd6b9	-0.046103213
7	0xbd56a28e	-0.052401118
8	0x3d0b2020	0.033966184
9	0x3cf93054	0.030418552
10	0x3d9c07d0	0.076186776
11	0xbd78c11c	-0.06073104
12	0x3d7d20b7	0.061798777
13	0x3dbc24aa	0.091866806
14	0xbe1753cc	-0.1477806
15	0x3dd20cf8	0.1025638
16	0x3dbf56d0	0.0934273
17	0x3cece48e	0.028917577
18	0xbc7b4f7e	-0.015338777
19	0x3d28e87c	0.04123734
20	0x3d4cf5b7	0.05003902
21	0x3d4a403a	0.049377657
22	0xbd6989df	-0.05701625
23	0x3d83c9b1	0.06434954
24	0xbd2176a5	-0.03941979
25	0xbd4dfad3	-0.050288033
26	0x3cd8c2e1	0.026460113
27	0x3dbd9a70	0.09257972
28	0xbdb7424e	-0.089481935
29	0xbd4b126b	-0.04957811
30	0xbda20163	-0.07910421
31	0x3d3cd664	0.046102896
32	0x3d8a0a82	0.067402855
33	0x3d1564ce	0.036473088
34	0xbe117b4a	-0.14207187
35	0xbd2a167d	-0.041525353
36	0x3d922ce8	0.071374714
37	0x3d7a9efb	0.06118677
38	0xbd1a0e3a	-0.037611224
39	0x3d26627c	0.040621266
40	0x3d907065	0.070526876
41	0x3da0e4c8	0.078561366
42	0xbc1aaaec	-0.009440165
43	0xbd455b2b	-0.048182648
44	0x3d9a00f1	0.07519711
45	0xbcc65097	-0.02420835
46	0xbc94e958	-0.018177673
47	0xbe144093	-0.14477758
48	0x3d42bc36	0.047542773
49	0xbda32cfa	-0.07967563
50	0xbd63e4ec	-0.05563824
51	0x3e9ee1ff	0.31031796
52	0x3cdde60b	0.027087232
53	0x3d7154c7	0.05891874
54	0xbd8274e6	-0.06369953
55	0x3b734c96	0.0037124506
56	0x3db823b7	0.08991187
57	0x3bed26ad	0.0072372765
58	0xbcc15d73	-0.02360413
59	0xbc83d8d4	-0.016094603
60	0x3c7ee482	0.01555741
61	0x3b918719	0.0044411537
62	0x3dfee958	0.124468505
63	0x3d95873f	0.07301187
64	0x3e1802f9	0.14844884
65	0x3c9f80be	0.019470569
66	0xbd688d70	-0.05677551
67	0xbc476e83	-0.012172344
68	0xbd5193a8	-0.051166207
69	0x3d3f776e	0.046744756
70	0xbd94503d	-0.07241867
71	0xbd24ae68	-0.04020539
72	0xbd1f26a4	-0.03885521
73	0x3e459d07	0.19298182
74	0x3c366202	0.011131765
75	0x3d9aa15c	0.07550308
76	0x3c89a983	0.016804462
77	0xbde6aec8	-0.11263806
78	0x3dc23136	0.094820425
79	0xba8fbfd6	-0.0010967206
80	0x3c1adc83	0.009451988
81	0x3d08cdf8	0.033399552
82	0x3da49817	0.08036821
83	0xbe8416ec	-0.25798738
84	0xbd83661d	-0.06415961
85	0xbd966204	-0.07342914
86	0x3da359b6	0.079760954
87	0xbcb29d36	-0.02180348
88	0xbda64957	-0.08119457
89	0xbdd856c2	-0.10563423
90	0xbdf8ab23	-0.12142017
91	0xbd8b91a8	-0.06814891
92	0xbce2096f	-0.027592389
93	0xbd3faf0c	-0.046797797
94	0xbc064194	-0.008194346
95	0xbdc762f1	-0.097356685
96	0xbd12b48a	-0.035816707
97	0x3e5cc2c7	0.21558677
98	0x3d93cca5	0.07216767
99	0x3d2a7332	0.041613765
100	0xbda97154	-0.08273569
101	0x3d4e2c9c	0.05033551
102	0xbd37fc58	-0.044918388
103	0xbde27781	-0.1105795
104	0xbd7e449a	-0.062077142
105	0x3d32e86c	0.043678686
106	0x3df11873	0.117722414
107	0x3d77a925	0.060464043
108	0x3de99c67	0.114067845
109	0xbeb4efa6	-0.35339087
110	0x3cccc744	0.024997361
111	0x3d4a8cf0	0.049450815
112	0xbd9542ce	-0.072881326
113	0xbe0cc509	-0.13747038
114	0xbd85df9a	-0.06536789
115	0xbb84b6c6	-0.0040501086
116	0x3d495e94	0.049162462
117	0xbd098819	-0.03357706
118	0xbd6e1be8	-0.058132082
119	0xbd4a8921	-0.049447183
120	0xbcd4aa76	-0.025960188
121	0x3e2ee557	0.17079674
122	0x3c11dbdb	0.008902515
123	0xbd0d29e9	-0.034463797
124	0x3d832993	0.06404414
125	0xbdc0afc9	-0.09408528
126	0xbd922777	-0.071364336
127	0x3e58aee5	0.21160467
128	0xbde25f73	-0.11053362
129	0xbe84198f	-0.2580075
130	0x3bc4b62d	0.0060031624
131	0xbb96f7ac	-0.0046071615
132	0x3e4f1d2f	0.20225976
133	0x3d81a36c	0.063299984
134	0xbd6984ac	-0.05701129
135	0xbd440148	-0.047852784
136	0xbd837da9	-0.06420452
137	0x3d99b793	0.07505717
138	0x3d1c234b	0.038119595
139	0x3d581ba0	0.05276072
140	0x3b37e677	0.0028060952
141	0xbd4bd056	-0.04975923
142	0xbda196e2	-0.07890107
143	0x3dca34f1	0.09873379
144	0xbd9d780a	-0.07688911
145	0xbd8a9cbc	-0.06768176
146	0xbd2226d8	-0.039587826
147	0xbd0dd035	-0.03462239
148	0xbd17cd64	-0.03706111
149	0xbd8ab142	-0.067720905
150	0x3d568cc2	0.05238033
151	0xbc835ab2	-0.016034458
152	0x3cd2ddf5	0.025740603
153	0x3b0260da	0.0019894154
154	0xbce528d9	-0.02797358
155	0x3caab283	0.020837074
156	0xbdb8be8e	-0.090207204
157	0x3d015ac7	0.031580713
158	0xbd92cea3	-0.07168319
159	0x3d76011f	0.060059663
160	0xbd0e91f4	-0.03480716
161	0xbd013c7a	-0.031551816
162	0xbd58976e	-0.05287879
163	0xbd812108	-0.06305128
164	0x3c8ceac5	0.01720179
165	0x3b6beff6	0.0036001182
166	0xbdacf29b	-0.08444711
167	0x3d88d4d3	0.06681218
168	0xbda5fff1	-0.081054576
169	0x3dc0b175	0.09408847
170	0xbc5a1561	-0.013310761
171	0xbd1f72a5	-0.038927693
172	0xbcc67d15	-0.024229566
173	0xbc8273cd	-0.015924359
174	0x3d43a543	0.047765028
175	0xbe138b62	-0.14408639
176	0xbd545da2	-0.051847108
177	0xbd8c4676	-0.06849377
178	0xbd858372	-0.06519212
179	0x3e300ea8	0.17193091
180	0xbc8d6d71	-0.0172641
181	0x3cb03540	0.021509767
182	0x3badb1e0	0.0053007454
183	0x3d919910	0.071092725
184	0x3d69bff6	0.057067834
185	0xbcac6d54	-0.021048225
186	0x3d61a0ac	0.05508487
187	0xbc2898e0	-0.0102903545
188	0xbc8c708b	-0.017143508
189	0xbd96f014	-0.0737001
190	0xbc4c7284	-0.0124784745
191	0x3e0b0fda	0.13580266
192	0xbb5ab0cf	-0.0033369546
193	0xbc8a7296	-0.016900342
194	0xbcf78889	-0.030216472
195	0xbc966bcc	-0.018361948
196	0x3c801072	0.015632842
197	0xbd4f86fd	-0.050665844
198	0x3cc29978	0.02375482
199	0xbdada370	-0.08478439
200	0xbd3b96e4	-0.045798197
201	0x3de05fbe	0.109557614
202	0xbc660693	-0.014039653
203	0xbcfcc648	-0.030856267
204	0xbd5bd8bd	-0.053673495
205	0x3d35c644	0.044378534
206	0xbaa53540	-0.0012604371
207	0xbd72fcaf	-0.05932301
208	0x3dac343c	0.084084004
209	0x3da6b6be	0.08140324
210	0x3dc8452f	0.09778821
211	0xbe99d1af	-0.30042788
212	0xbdbdb499	-0.09262962
213	0xbcfa619c	-0.030564122
214	0xbc96526b	-0.018349847
215	0xbd9172b3	-0.07101955
216	0xbc021fcb	-0.00794215
217	0x3c3aad0c	0.011393797
218	0xbe468bc8	-0.1938926
219	0xbd061897	-0.032738294
220	0x3d883ea1	0.066525705
221	0x3d9483e6	0.0725172
222	0x3e083323	0.13300757
223	0x3c24544c	0.010029864
224	0x3c24ff00	0.010070562
225	0x3e08942e	0.13337776
226	0x3dae5d8c	0.085139364
227	0xbe0b731f	-0.13618134
228	0xbd3d890d	-0.04627328
229	0xbca2a2f3	-0.01985309
230	0xbd3ee2c8	-0.046602994
231	0xbdab60ab	-0.08368047
232	0x3bf0523d	0.0073340223
233	0xbdbea845	-0.093094386
234	0x3e88c32a	0.26711398
235	0xbd001ae2	-0.031275637
236	0x3baa1ac8	0.005191181
237	0xbeaa1e57	-0.33226272
238	0xbd96e603	-0.0736809
239	0x3d29c930	0.041451633
240	0xbd0d806c	-0.0345463
241	0xbe24353d	-0.16035934
242	0x3d391502	0.04518605
243	0xbda3a9a4	-0.07991341
244	0xbda68418	-0.08130664
245	0x3d075c90	0.03304726
246	0xbd63c6ac	-0.05560939
247	0xbc299031	-0.010349319
248	0xbda11a2b	-0.07866319
249	0x3e0aa0f0	0.13537955
250	0xbd75953e	-0.05995678
251	0x3da2e23a	0.079533055
252	0xbd4943a9	-0.04913679
253	0xbdcb7644	-0.09934667
254	0x3d0488a9	0.03235689
255	0x3d9c426e	0.07629858
