Live_Weights/AMZN/TiDE_7.pth (torch, 188899 bytes, 41 tensors)

feature_projection.linear.weight f4 [128, 30]
00000000: 005b bf3d b4bc c83d 52c2 15be 0832 05be
00000010: 5c12 7a3d 9529 24be e8fc 503d 283b b43c
00000020: 1817 983d 6810 47bd a442 febd 4092 123e
00000030: fc5c f93d 1e99 2dbe 1a76 70bd 48af c83d
00000040: eac0 073e a02b b5bc 71fa 32be 981f f53d
00000050: 80bc e33d cc9e ef3d 0cd5 4b3d 94d0 2ebd
00000060: ac8e 7c3d f32e 2ebe ac74 aa3d 18ba cf3c
00000070: a007 463d bc77 213e 3828 3a3e 02dd bbbd
00000080: 246a 473d 9c65 ef3d 5a14 383e f0ed 47bd
00000090: 6007 8d3c 7cda 4bbd 08e2 083e 108d 333e
000000a0: 0c34 8b3d f2ce 823d e08a 2dbe 8026 073d
000000b0: 80bc c53d 7470 19be 8e76 043e 2a36 123e
000000c0: 4441 39bd 383f 143e 46cf eebd c3f0 1ebe
000000d0: 6caa a83d 79e0 ccbd 3387 f1bd aca6 2abe
000000e0: 60d0 af3d 204d 893d c46e 243d 34f2 13be
000000f0: e60c 293e 1911 10be 5bf3 eebd c0c6 13bb
00000100: 96d2 75bd a031 d1bc 51f4 30be 2093 e83c
00000110: dcc9 31be f02b 133c 6c89 9bbd 2018 163e
00000120: 7cb5 2abd 0fe1 edbd 6832 013e e993 bbbd
00000130: 30b3 193e e7b8 21be d058 e53c c4ed 38be
00000140: b28b 333e 989c c9bc 74f7 023e 2c6f d83d
00000150: 2a89 87bd c4db 473d 38ca db3c 802f b7bb
00000160: ffcb c6bd b058 163e b69d 833d 78b2 133d
00000170: 0cc4 233d 1785 39be e5f8 2bbe 00fc f03a
00000180: d8dc a7bc 2aa8 093e 201c 033d 35cd 25be
00000190: 6655 0f3e 58ba 993d 0084 c1b9 f032 2ebe
000001a0: 4c99 383e 01d6 23be f489 69bd d71c eabd
000001b0: 0006 fdbc 187d d2bc c383 febd 94a7 2cbe
000001c0: 5e61 e5bd e42b 9cbd 703d bbbd 5363 cebd
000001d0: 3c4f e63d 5ce5 253e 50c1 c83d a589 2dbe
000001e0: 900c 22be ec5b ed3d a099 a6bd acd4 153e
000001f0: 3c3c 06be 1468 a73d d0bf a0bc 906a f1bc
00000200: 40aa 243b a825 b73c 099a 82bd 4a8d 113e
00000210: c483 173d 80f3 7abc cd5d 1ebe 8003 da3a
00000220: a037 a13d 9c2c 3b3d 2c2e 83bd 285c 873d
00000230: 7873 ab3d 4469 333e 38f1 e23c 2829 823d
00000240: 1709 a4bd a4a7 8ebd 4562 09be 34e7 bc3d
00000250: 040f a03d 5214 c8bd f82e 8c3d 2a69 353e
00000260: f840 f43d d45e 35be 9d84 e0bd 90ab 29bd
00000270: a87f 163e 5093 183c 4874 9b3d 8421 9e3d
00000280: 787e b63d a8bd 2fbd 13ca 1bbe ab0d 2ebe
00000290: d6ec 243e 9c2b a63d 40f1 3ebc 74c9 cbbd
000002a0: 1cf7 273e 9b35 acbd e058 b43d 0034 4e3b
000002b0: d0bf e33d f564 8ebd a426 f4bd 08eb acbc
000002c0: b8cc b93d 8cd5 143e b813 9c3c 30c2 1e3c
000002d0: d061 01bc 1c6d 833d 54b1 1a3d ebfe 00be
000002e0: 6087 49bc 985c 9b3c 8c6d 61bd c022 1b3d
000002f0: 6e4a a1bd 7fde 34be 90e5 f93d a08e ebbc
00000300: 2ecc 873d dffe c1bd 2af9 0b3e e93d e7bd
00000310: d801 93bd 70ac 983c 44c2 b53d 36af 113e
00000320: 9879 e43c e6f7 393e b728 d4bd 9852 c43d
00000330: 9654 073e 0229 823d 6044 e63c b452 553d
00000340: e456 c63d 2481 903d b6ad e6bd 721b 23be
00000350: e664 3a3e f1cb 37be 00d7 303e c0ae aebc
00000360: a887 31be e8a8 cf3d 186c 293d b460 9f3d
00000370: 0031 003d 239c 8ebd a779 11be 3003 7cbd
00000380: 706d fe3d 38f0 a43d dcff 40bd 7b7b 98bd
00000390: 4aed debd 1703 a9bd ecce 15be 306c fe3d
000003a0: 26d8 0c3e a00b 30be 28a9 c33d 856b 14be
000003b0: 006d 5b3b 1cbf 0dbe 675d 04be a097 5abc
000003c0: 8c3e 13be 4c4e c0bd ec2c 35be f48d fe3d
000003d0: 106a ae3d 3bcf 09be f676 83bd 4848 873c
000003e0: 2489 a3bd b057 4e3d c600 103e 30f9 7e3d
000003f0: 28e0 afbc d561 39be 192e a2bd 08f1 a13d
0.09343529 0.09801617 -0.14624909 -0.13007367 0.061052665 -0.16031487 0.05102244 0.022000864
0.0742628 -0.04859963 -0.124150544 0.14313602 0.121759385 -0.16952941 -0.05870638 0.09799057
0.13257185 -0.022115529 -0.17478348 0.11968917 0.11119938 0.1170021 0.049763724 -0.042679384
0.0616595 -0.17010097 0.08323035 0.025357291 0.048347116 0.15768331 0.18179405 -0.09173013
0.048685208 0.11689302 0.17976514 -0.0488109 0.01721543 -0.04976891 0.13367474 0.1753428
0.067970365 0.06387128 -0.16947508 0.0329957 0.09655094 -0.14984304 0.1293585 0.14278474
-0.045228258 0.14477241 -0.11660628 -0.15521531 0.082356304 -0.10003752 -0.11793365 -0.16665143
0.08584666 0.067041636 0.040144697 -0.14447862 0.16508827 -0.14069022 -0.1166751 -0.0022548884
-0.060015284 -0.025536358 -0.172807 0.028390467 -0.1736216 0.0089826435 -0.075945705 0.1465764
-0.041676983 -0.11615192 0.12616885 -0.09159071 0.15009761 -0.15793191 0.02799645 -0.1805945
0.17533758 -0.024610803 0.12789708 0.10568079 -0.06617959 0.04879357 0.026829824 -0.0055903792
-0.09706878 0.14682269 0.06426565 0.036058873 0.039981887 -0.18117176 -0.16794164 0.0018385649
-0.020491049 0.13443056 0.032009244 -0.16191562 0.1399742 0.075062454 -0.00036910176 -0.17011619
0.18027228 -0.15999605 -0.057016328 -0.11431282 -0.03088665 -0.025694415 -0.12427475 -0.16860801
-0.11200212 -0.07625559 -0.09142578 -0.10077538 0.112455815 0.16200775 0.098024964 -0.16947038
-0.15825105 0.11589798 -0.081347704 0.14631909 -0.13108915 0.08174148 -0.019622713 -0.029469758
0.002512589 0.022356823 -0.06377036 0.14214054 0.036990896 -0.015316844 -0.1546547 0.0016633123
0.07871938 0.04569684 -0.06405291 0.06609374 0.08371633 0.17520624 0.027702913 0.06355506
-0.08009546 -0.06965569 -0.13416393 0.09223786 0.07815364 -0.09769501 0.06844896 0.17715898
0.11926454 -0.17711955 -0.10962794 -0.04142338 0.14697134 0.009312466 0.07590538 0.07721236
0.08910841 -0.04290548 -0.15213804 -0.16997401 0.1610597 0.081137866 -0.011654198 -0.099505335
0.16402858 -0.08408662 0.08806014 0.00314641 0.1112057 -0.0695285 -0.119214326 -0.021108165
0.0907225 0.14534587 0.019052371 0.009689853 -0.0078968555 0.06417295 0.03776677 -0.12597243
-0.012300342 0.01896505 -0.055036113 0.037874937 -0.078755245 -0.17663 0.12201989 -0.028754532
0.06630741 -0.09472441 0.13669267 -0.11291105 -0.07178086 0.018636912 0.08874944 0.14226994
0.027890012 0.18160972 -0.10359328 0.09586066 0.1321586 0.06355478 0.028108776 0.052080825
0.09684542 0.070558816 -0.112636015 -0.15928438 0.18202552 -0.17948891 0.17269516 -0.021323562
-0.17336905 0.10139638 0.04136285 0.077821165 0.03129673 -0.069633745 -0.14206563 -0.061526477
0.12423217 0.080536306 -0.047119007 -0.07445427 -0.10885103 -0.082525425 -0.14629716 0.12422979
0.13754329 -0.17191935 0.09553748 -0.1449414 0.0033481717 -0.13842434 -0.12926255 -0.013341814
-0.14379328 -0.09389934 -0.17692918 0.12429419 0.085163236 -0.13457958 -0.064191744 0.016513959
-0.07985142 0.050376594 0.14062795 0.062249362 -0.02146919 -0.18103726 -0.07918949 0.07907301

feature_projection.linear.bias f4 [128]
00000000: 66ea 1ebe d505 ecbd ba92 0c3e cce9 673d
00000010: 1055 7abc 80fb d8bd c153 82bd 7c72 8f3d
00000020: 3c3a 113e 9430 833d aedc d5bd 1c71 d33d
00000030: 7098 b13c 6c97 ab3d 528d 0abe 8940 1abe
00000040: 2149 38be 50bb 8c3d de04 183e 6c46 0abd
00000050: 88cb 03be 55d3 adbd 381e cbbc d87b 1abe
00000060: 0c5a 0dbe 7065 0bbe a08a 293c d012 253e
00000070: 44c8 e53d 7a83 27be 3c88 a03d 2adc adbd
00000080: 4331 cdbd ceac 28be 31bd b0bd 105b 2c3c
00000090: f862 1ebd 28fa 48bd 9eac b2bd 6e23 013e
000000a0: 9cb7 713d 38fe 26be 4bf0 2cbe a2a6 f6bd
000000b0: c03e 5d3d 2081 cebb 5edc 13be 2070 a83d
000000c0: be09 37be c04a ddbb 0860 76bd 68f2 073e
000000d0: d870 0abd 8c67 8d3d aac2 363e f6ce 2d3e
000000e0: 74ef bf3d cca0 c0bd b441 113d 468d 093e
000000f0: c4a9 7a3d e0a5 b5bc 0a3c 823d da0e 313e
00000100: f124 33be acd2 b73d a113 38be 0035 813b
00000110: 88ba ecbd c8e8 babc 006c 45bc 60c7 4f3d
00000120: 09a7 95bd daf7 883d a069 6dbd e84f cbbd
00000130: 70dd f63d c00f 8d3d 68a0 363e 1c16 0dbd
00000140: d339 84bd 1244 833d 125b fdbd d6ba 813d
00000150: ce0b 273e d00c 0d3c b0e9 a53c cdad 21be
00000160: 8e1a 03be 0046 d13a 2830 abbc 14e4 f83d
00000170: 60fe cb3b 08c7 19bd ce7a 853d e437 5f3d
00000180: 00fa b739 9c97 a63d 80e2 833c d0e9 9e3c
00000190: 80aa 393d 2031 963d a083 383e 318b 16be
000001a0: 3067 f73d 00ef 583d b407 7dbd 1834 393e
000001b0: 218a 9fbd cce1 9c3d 26b8 2a3e b8ee c83d
000001c0: a9f4 12be fa86 dabd 082f c63d f8eb 253e
000001d0: 407e 54bd 2870 3c3d 10e4 183c 9026 1f3e
000001e0: 62b8 6fbd c029 323d 4c7e dfbd ac44 193d
000001f0: 74ad db3d 975a d3bd 9c1c a53d c6a3 083e
-0.15519103 -0.1152455 0.13727847 0.05661945 -0.01527907 -0.10594845 -0.06363631 0.07004258
0.14182371 0.0640575 -0.10442482 0.10324308 0.021679133 0.08378491 -0.13530472 -0.1506368
-0.17996646 0.068716645 0.14845607 -0.033758566 -0.1287061 -0.08487574 -0.024794683 -0.15086305
-0.13803881 -0.13612914 0.010347992 0.16120458 0.11219838 -0.16358748 0.07838485 -0.084892586
-0.100191616 -0.1647217 -0.086298354 0.010519758 -0.038668603 -0.049066693 -0.0872433 0.12611172
0.059012994 -0.16307914 -0.1688854 -0.120435014 0.05401492 -0.006302014 -0.14439532 0.08224511
-0.1787481 -0.0067532957 -0.060150176 0.13276064 -0.033799022 0.069045156 0.17847696 0.1697348
0.09371844 -0.094056696 0.03546305 0.13432798 0.061197057 -0.022173822 0.06359108 0.17290822
-0.17494561 0.08975729 -0.17976238 0.0039430857 -0.115590155 -0.022816077 -0.012049675 0.05072725
-0.0730725 0.06687899 -0.05796206 -0.0992735 0.120539546 0.0688777 0.17834628 -0.034444913
-0.064563416 0.06409468 -0.12370886 0.06334464 0.16313097 0.008609012 0.020253032 -0.15788956
-0.12803099 0.0015966296 -0.020896986 0.121528774 0.006225392 -0.037543327 0.06517564 0.05449666
0.00035090744 0.08134386 0.016099215 0.0193986 0.045328617 0.073335886 0.18018961 -0.14701535
0.12080228 0.052962303 -0.061774924 0.18086278 -0.07790018 0.07660255 0.1667181 0.09811157
-0.14351143 -0.10670276 0.09676939 0.16203296 -0.051878214 0.046005398 0.009331718 0.15542054
-0.05852545 0.043496847 -0.10912761 0.037419006 0.10726443 -0.10320013 0.080620974 0.13343725

encoder.layers.0.linear1.weight f4 [50, 128]
00000000: 3806 3fbc e084 893b ab1d 7ebd f9b7 b33d
00000010: 3b58 18bd 70fc 78bd 2450 933c 9158 973d
00000020: 404b 41bc 56c0 613d c185 843d a440 84bc
00000030: 47aa 53bd 1ce4 083d 270b 0cbd 1aed 0bbd
00000040: 2097 3dbb e097 9dbb 208e 81bb b036 cb3c
00000050: ee10 5f3d e036 cd3b 18cf 903c f804 8fbc
00000060: 656a 943d c1ad 30bd e85f 7c3c c097 073b
00000070: 0030 6d3c 5e35 aabd 767d 4c3d ba35 57bd
00000080: 6e26 f8bc 08c1 38bc 6357 a1bd 7009 26bd
00000090: decb 1a3d 10fb 64bd 6644 613d 518d a93d
000000a0: c80d 133c 48f4 a53c eeb3 9bbd 9ab7 5f3d
000000b0: 94e4 c6bc 485c 2bbc b00d 053d 7334 81bd
000000c0: 570c 9b3d c9c1 803d 2a84 a1bd 60de 2ebb
000000d0: 0e00 3c3d 588a 5a3c 38a1 46bd 1b8d 9dbd
000000e0: e080 2f3b c02f 5bbc 39bd 9a3d a4e3 913c
000000f0: f6b8 7d3d d609 4f3d 2067 54bb 9c76 cfbc
00000100: ef0e 8b3d 4817 f63c f0d8 453c 3c92 83bc
00000110: d6f8 673d bb64 a03d 10e3 563c 3a20 93bd
00000120: a027 983c 3894 bb3c 269b 06bd f572 86bd
00000130: c0f1 38bc 20a1 fabc 88f8 bdbc 9209 743d
00000140: 380a babc fa0d 213d 3dd4 abbd d875 833c
00000150: c6c8 703d c4ca bebc 0be1 3ebd 4074 aa3a
00000160: b36f 953d 46e7 10bd 811f 833d 451b a03d
00000170: cf0e 0ebd 8000 de3b 4db9 aa3d 7cfd f63c
00000180: fa1e e0bc f76a 893d 0c55 3cbd a026 57bc
00000190: 00e6 bcbb 41d8 983d bcc9 e13c 4a63 23bd
000001a0: 8804 5cbc ce6f 223d 774e a53d 271e ad3d
000001b0: 23e3 11bd 3ad4 3d3d 6d0f 943d 6ffd 52bd
000001c0: e05f 38bd ccb5 d33c 513d 16bd 1148 99bd
000001d0: c261 273d 4c5a 91bc 1521 3dbd 0524 a2bd
000001e0: 60f0 13bc eba1 8e3d 6d2d 62bd 88de 153d
000001f0: beb9 1a3d 405a 9ebd 3ca9 9c3c d873 9abc
00000200: 945d c3bc 0066 27b9 20f7 7bbc 5cce 9dbc
00000210: 9035 b9bb e5ae 91bd 581c 78bc fe09 623d
00000220: 98fd d53c 2691 8fbd c8fd 273c 7ec1 603d
00000230: 80e3 eeba 3998 843d d75f 32bd f3fe 8c3d
00000240: 7d83 8d3d 7f55 87bd fa00 7e3d 109e 2cbd
00000250: 6bda b0bd 6c62 bd3c 1a1e ebbc f89f 8abc
00000260: 0008 353c f0de 6abd 802e 9dbc fd33 9c3d
00000270: b09a ff3b 0427 063d 4434 863c 1816 b63c
00000280: fc2c 87bd a005 7a3c 5d4f 9abd 7852 893c
00000290: d192 803d f85b 7fbc 8646 033d 7261 123d
000002a0: 48a3 a3bd ccae 073d c05d 30bc 30d0 80bc
000002b0: 70c4 8cbb e11b 8e3d 5e06 7d3d 6016 74bd
000002c0: c76c a03d 5f4c 69bd f808 0b3c 4c44 903c
000002d0: 602f 8f3b 8084 853a 7060 29bd 431e b13d
000002e0: 6e6f 493d 04b2 a5bd c2d8 233d efff 0cbd
000002f0: 040c 5ebd 81d1 8c3d afec 99bd a4a7 a7bd
00000300: 2bc7 b23d dcc4 68bd 7a79 31bd 0607 403d
00000310: 5a0e 323d 36fd fcbc dc39 9b3c 8482 07bd
00000320: 86aa 253d 1523 a9bd deb4 28bd 0ae0 2c3d
00000330: 0802 833c a48a 30bd a05b 89bb 3487 b23c
00000340: 6c57 89bc 0c75 97bc 525d 86bd 3c57 fe3c
00000350: be5d 6e3d d433 8abd 4152 9b3d 688e fabc
00000360: 4001 2dbb 68bc 973c bf19 3dbd d06a 823c
00000370: 0de9 923d 69a3 7cbd 602e 90bb 2058 203b
00000380: 75f7 65bd 76f7 8fbd df56 7dbd 5cf5 9a3c
00000390: e0b3 e23b d0e0 aebc c0b5 86bc 680a 593c
000003a0: 120b 403d 4b70 af3d 30e6 cbbb 684c 733c
000003b0: a529 a53d 3940 09bd a13a 34bd 0bc1 acbd
000003c0: 685c 7dbd 1822 2fbc 7b59 a53d 0a11 563d
000003d0: f471 093d a14f 26bd 2b39 65bd 6e65 acbd
000003e0: a0f7 9abc 9872 c9bc 6997 9b3d c0d1 f7bc
000003f0: be63 303d e6e8 223d e355 893d cd75 a93d
-0.0116591975 0.004196748 -0.062040012 0.087753244 -0.037193518 -0.06078762 0.01798255 0.073899396
-0.011797726 0.055115066 0.06470824 -0.016144104 -0.05167606 0.033420667 -0.034190323 -0.034161665
-0.002892919 -0.0048093647 -0.00395371 0.02480635 0.054459505 0.006262645 0.017676875 -0.017458424
0.07246856 -0.043134455 0.015403725 0.0020689815 0.014476776 -0.0831096 0.049924336 -0.052541472
-0.030291762 -0.011276491 -0.07877996 -0.040536344 0.03779208 -0.055903494 0.05499687 0.08278907
0.008975454 0.020258084 -0.07602678 0.054618455 -0.024278916 -0.010459013 0.032483757 -0.06308832
0.07570713 0.062869616 -0.078865364 -0.0026682839 0.04589849 0.013338648 -0.048493594 -0.07692929
0.0026779696 -0.013378084 0.075556226 0.017808743 0.06194397 0.05054649 -0.00324101 -0.025325112
0.06789958 0.030040398 0.012075648 -0.01606094 0.056633793 0.07831713 0.013115659 -0.07183881
0.018573582 0.022897825 -0.032862805 -0.06564895 -0.011288106 -0.030594409 -0.023189798 0.05957944
-0.02270995 0.03931997 -0.083900906 0.016047403 0.058785222 -0.023290046 -0.046601336 0.0013004616
0.072966956 -0.03537681 0.06402493 0.07817701 -0.03468209 0.006774962 0.083361246 0.030150168
-0.02735852 0.06709855 -0.045979545 -0.0131317675 -0.005764723 0.07463122 0.027562015 -0.03988961
-0.013428815 0.039657407 0.080716066 0.08453017 -0.035617005 0.046344973 0.07229505 -0.051511224
-0.04501331 0.025843523 -0.03667957 -0.07484449 0.040864713 -0.017743252 -0.046174128 -0.079170264
-0.009029478 0.06964477 -0.055219103 0.036589175 0.037774794 -0.077320576 0.019123666 -0.018854067
-0.023848332 -0.00015964359 -0.015378743 -0.019263439 -0.005652137 -0.071134366 -0.015143476 0.05518531
0.0261219 -0.07010107 0.010253377 0.05487203 -0.0018225759 0.06474347 -0.04354843 0.06884565
0.06909845 -0.06608104 0.06201265 -0.042142928 -0.0863541 0.02311822 -0.028700877 -0.016921982
0.011049271 -0.057341516 -0.019187212 0.076271035 0.0078004226 0.032752052 0.016382344 0.022227332
-0.06600377 0.01526013 -0.075346686 0.016762957 0.06278003 -0.015585892 0.03204968 0.035737462
-0.07990128 0.033125684 -0.010764539 -0.015724272 -0.004295878 0.06938911 0.06177365 -0.05959165
0.07833248 -0.0569576 0.008486025 0.017610691 0.004369661 0.0010186583 -0.041351736 0.0864835
0.049178533 -0.080905944 0.04000164 -0.034423765 -0.054210678 0.06875897 -0.07515847 -0.08186272
0.087293945 -0.056828365 -0.04332874 0.046881698 0.043470718 -0.03088246 0.018948488 -0.033083454
0.040445827 -0.082586445 -0.041188113 0.042205848 0.01599218 -0.043100968 -0.0041918308 0.021792985
-0.016765319 -0.01848843 -0.06560768 0.031047456 0.05819487 -0.06748167 0.07584048 -0.030585483
-0.002639845 0.018522456 -0.04616713 0.015920073 0.07173357 -0.061679278 -0.0044000596 0.002446659
-0.056144197 -0.07029621 -0.061850425 0.018915825 0.0069184154 -0.021347433 -0.016444087 0.01324711
0.046885557 0.0856634 -0.006222509 0.01484976 0.08064584 -0.033508513 -0.044001225 -0.084352575
-0.061855704 -0.010689281 0.08073708 0.052262343 0.03355594 -0.040603284 -0.055962723 -0.08417784
-0.018916905 -0.024590775 0.075972386 -0.030251384 0.04306387 0.03977289 0.06705835 0.08274422

encoder.layers.0.linear1.bias f4 [50]
00000000: e008 4dbc 5d56 a13d 4e22 743d 98f8 103c
00000010: eabc 4a3d 44c7 89bc d724 a63d 00b8 ad3a
00000020: 0ae4 9cbd 6680 263d b0b9 363c fce5 c5bc
00000030: e2ee 9dbd 0af3 1a3d bf37 64bd c067 a0ba
00000040: e295 5dbd 240a f8bc 3056 ccbc 22bc 53bd
00000050: 906f 6b3c 92e0 7a3d 8049 49bd beeb 78bd
00000060: a041 48bb ce10 363d b3df 61bd 78b1 713c
00000070: 00ec 8a3c c6bf a0bd ad62 923d 8fa9 b13d
00000080: f46d ba3c 862c 07bd 7a5b 47bd 0a6f 0d3d
00000090: 4056 583c 6e62 76bd 71ce 9e3d 48ab 693c
000000a0: 116f 823d c8a8 7ebd e09c 403b c671 d7bc
000000b0: e295 42bd e3c6 80bd 3abf 193d 8893 8ebd
000000c0: d992 ae3d bcb1 9bbd
-0.012514323 0.078778006 0.059603028 0.008848332 0.04949657 -0.01681865 0.081124954 0.0013253689
-0.076606825 0.040649794 0.01115267 -0.024157517 -0.07711579 0.037829436 -0.055717226 -0.0012237951
-0.054098018 -0.030278273 -0.024943441 -0.05169309 0.01436986 0.061249323 -0.04914236 -0.060771696
-0.0030556694 0.04444962 -0.055144977 0.0147517845 0.016958237 -0.07849078 0.07147727 0.08674919
0.022757508 -0.033001445 -0.048671223 0.034529723 0.013204157 -0.060152464 0.07754219 0.014262028
0.063688405 -0.06217268 0.002939038 -0.026299369 -0.04750622 -0.06287935 0.037535883 -0.06961733
0.08524103 -0.076022595

encoder.layers.0.linear2.weight f4 [50, 50]
00000000: e6f0 d6bd 6e70 25bd a82d c13c 32e0 38bd
00000010: 4c7e 3c3d 58cd 553d 66ac bebd 58d1 9bbc
00000020: 3268 f33d 7ad4 ef3d 1057 4b3c e88f 973d
00000030: e05c a03b 0a5a 843d ac21 0e3d 60f9 8fbb
00000040: 0686 bf3d 3d16 013e 38e0 01bd 82ab b8bd
00000050: 3a0e f53d 24af 643d 0c4a 953d 588f 803d
00000060: 10c3 523c 4465 04be e4cd 4b3d 40ab 29bc
00000070: 04d8 d43d 7efd bebd 42b3 a33d 8237 06bd
00000080: 70d5 debd 22aa a1bd 1829 223d 74be 96bc
00000090: a02f f7bc c074 08be 906f 293c 88ba 133d
000000a0: 5bfe ecbd 40a7 ab3b c45c 69bd f043 39bd
000000b0: bba0 043e b832 c3bd 3673 88bd 3f87 093e
000000c0: 5896 b83c 86f9 05bd ee7f 0abd ed98 01be
000000d0: a154 0f3e bcb6 bbbc 2091 d43d 72e1 00be
000000e0: 7634 bdbd 1016 04bc 7c86 c1bc 68ce da3c
000000f0: 20a1 09bc 72ca b43d e0ba dc3d 7f88 efbd
00000100: be40 fa3d 5216 ae3d fc21 e6bd 2a5d f6bd
00000110: d81a b93c bd8f 94bd 4ae0 ed3d 5eb3 fc3d
00000120: a648 43bd c03a aabc 38cd be3c dcc5 3dbd
00000130: 2212 843d 808f 383d a0b4 f8bb 1058 05be
00000140: 3a91 af3d 206c 7ebc 4a41 be3d 539b 8ebd
00000150: f9eb 8bbd 7ad4 7cbd 2c5a a53d bca3 2cbd
00000160: 4cf9 893d e249 24bd 6ad1 a53d 8cc4 6dbd
00000170: 580a d33d 4e77 ec3d dc0a fcbd 5abf 78bd
00000180: f7a0 adbd 20b2 333d 99c3 033e a08c 83bd
00000190: 405c eb3c 6066 253d 7a91 2dbd 54f8 7c3d
000001a0: e0d5 343c c759 013e 5fe6 86bd dcfb 493d
000001b0: 9654 2cbd 40a4 b2bd 91a2 05be 30ad a1bc
000001c0: 6610 ad3d c078 fd3c b25d d5bd 54b9 bcbd
000001d0: ce32 65bd 38df f4bc e5a9 a8bd 7094 b63c
000001e0: 2c8b 873d f8d0 8a3c 4a2c c8bd b0ff 3bbd
000001f0: 8056 c0bd ab47 95bd a5c9 103e 64c9 17bd
00000200: 00a8 cfbd 4f60 0d3e 6400 61bd 00e2 d23c
00000210: 00c0 763b 408c 6d3d 921c 9c3d 44a7 723d
00000220: 48f1 cd3c a3f0 f9bd c6a6 e0bd 8cdc 5b3d
00000230: fa1c b7bd 901f cb3c ae6c 4abd 5095 17bc
00000240: 3e2f fbbd c0ba b73b 9a80 d0bd d2ec 7abd
00000250: 9040 4fbc 7cf7 b03d 0007 ceba 6a27 ea3d
00000260: 5b6d 05be 74cd 01be afcd 023e 8c0c 62bd
00000270: d6e4 44bd 7cd5 9cbc 1cd8 03be 288d 983d
00000280: 27e0 aebd b051 803c ce0c 0ebe fa09 e9bd
00000290: 2071 9cbb 2041 d7bb 36e4 07be 4e44 c2bd
000002a0: b089 403c f285 893d b16d 093e 7a33 c83d
000002b0: ceb2 57bd e0f6 a8bb 94f7 afbc 9429 313d
000002c0: e026 df3c 603e bebc 8de7 033e 345a 743d
000002d0: 60bd 0c3d 9c5e 00bd f4f0 273d 66ab 08bd
000002e0: 5b6f 0e3e d403 8d3d fa8d 73bd 2024 dabb
000002f0: a0c9 eebb 40be 9bbc 7c57 f4bc a82b fa3c
00000300: a73b b8bd 1f03 033e 8cd6 05be 32fb 03be
00000310: bcdd 9fbd 7e8d c5bd dc03 873d 12b6 fe3d
00000320: 30f9 19bc 0009 16bc 7e77 953d 0efb 39bd
00000330: 5893 243d 34bd 8d3d a723 003e 386d a93d
00000340: 80df d1bc 1abb 5fbd b1ac dbbd 3028 07bd
00000350: 1117 b1bd d6cb c73d be4d 6bbd 8c6b 07be
00000360: fdf4 093e c499 ce3d c61f c53d 80cb 5abc
00000370: 474e 0fbe 5d86 e9bd 8ad2 e43d a4c4 323d
00000380: 78f4 623d 042d eebd 247c c63d aac7 9e3d
00000390: 46e6 0bbd 9c32 a73d 28a6 e8bd e052 4bbd
000003a0: b07b 5cbc 661e 09be a4ce ac3d ba72 f53d
000003b0: a1f5 0b3e 4c20 dabc 609d d9bb b058 753c
000003c0: 5ab4 c63d 10aa 3abc 000a 213a 664d 04be
000003d0: c156 80bd 4603 b7bd 93ab 063e abca 103e
000003e0: 3ef6 b33d b817 6e3d 0efd 8d3d 56a5 fbbd
000003f0: 34bf 9abc 9cc2 55bd 124e 10be a00c e7bb
-0.104951665 -0.040390424 0.02358134 -0.045135684 0.046018884 0.052197784 -0.09310226 -0.019020721
0.11885108 0.117104486 0.012410894 0.07400495 0.004893884 0.06462486 0.03470008 -0.0043937415
0.09351735 0.1260614 -0.031707972 -0.090170875 0.11965604 0.05583109 0.07289514 0.06277341
0.012863889 -0.12929255 0.0497569 -0.010355771 0.10392764 -0.093256935 0.07993175 -0.03276778
-0.10880554 -0.078937784 0.03958997 -0.018401362 -0.030174077 -0.13325787 0.01034154 0.036066562
-0.11571952 0.0052384436 -0.056973234 -0.045230806 0.12951939 -0.09531158 -0.066626 0.13430499
0.022532627 -0.032708667 -0.03381341 -0.12655993 0.13997127 -0.022914283 0.10379243 -0.12586
-0.09238522 -0.008061901 -0.023623697 0.02670975 -0.008400232 0.08827676 0.10777831 -0.116959564
0.1221938 0.08500351 -0.11236951 -0.120294884 0.022595808 -0.072539784 0.11615045 0.12338899
-0.047676705 -0.020779967 0.023291215 -0.04633127 0.06448771 0.045058727 -0.0075898916 -0.13021874
0.08572622 -0.015528709 0.09289797 -0.069632195 -0.068321176 -0.06172607 0.080738395 -0.042148337
0.06737003 -0.040109523 0.08096583 -0.05804877 0.10304707 0.11546193 -0.12306759 -0.060729362
-0.08477967 0.043871045 0.12867583 -0.064233065 0.028730512 0.040380836 -0.042375065 0.06176026
0.01103732 0.12631904 -0.065869085 0.049312457 -0.042072855 -0.087227345 -0.13050295 -0.019735903
0.084503934 0.030941367 -0.104182616 -0.09215036 -0.055956654 -0.029891595 -0.0823553 0.022287577
0.06618342 0.016945347 -0.097740725 -0.04589814 -0.093914986 -0.0728906 0.14139421 -0.037057295
-0.10139465 0.1380627 -0.054932013 0.02574253 0.0037651062 0.05799508 0.07622637 0.05924155
0.025139466 -0.12204101 -0.109693095 0.053677127 -0.08941074 0.024795324 -0.04942005 -0.0092519075
-0.1226487 0.005606979 -0.10180779 -0.061261006 -0.01264967 0.08640954 -0.0015718639 0.11433299
-0.13029997 -0.1267603 0.12773775 -0.055187747 -0.048069797 -0.019144766 -0.12875408 0.074487984
-0.085388474 0.015663952 -0.13872072 -0.11378856 -0.0047742277 -0.006569043 -0.1327065 -0.09485684
0.011751577 0.06715001 0.1342075 0.097754434 -0.052660756 -0.005156383 -0.02148036 0.043252543
0.027240217 -0.023223102 0.12881298 0.059656337 0.03436029 -0.031340227 0.041001275 -0.033366583
0.13909666 0.06885496 -0.05946157 -0.0066571385 -0.007287219 -0.019011617 -0.029826872 0.030538395
-0.08995753 0.1279416 -0.13070124 -0.12888792 -0.07805964 -0.09646128 0.06592533 0.12437071
-0.00939779 -0.009157419 0.07298182 -0.04540544 0.04017958 0.06920853 0.125136 0.08272785
-0.025619268 -0.054621793 -0.10726298 -0.03299731 -0.08646978 0.097556755 -0.057447188 -0.1322462
0.13472362 0.10087922 0.09625201 -0.013354182 -0.13994704 -0.11402581 0.1117297 0.043644562
0.055408925 -0.1162968 0.09691647 0.07752927 -0.034155153 0.0816395 -0.11359817 -0.049639583
-0.013457224 -0.13390502 0.08437851 0.11984773 0.13667919 -0.026626728 -0.006641075 0.014974758
0.09702368 -0.011393085 0.0006143153 -0.1292015 -0.06266547 -0.08936171 0.13151388 0.14139812
0.08787201 0.05812809 0.06933032 -0.12287395 -0.01889 -0.052187547 -0.14092281 -0.0070510656

encoder.layers.0.linear2.bias f4 [50]
00000000: ded6 44bd ee18 3cbd 48d9 0d3d 5094 90bd
00000010: 483a ba3d df13 083e 442a 00bd 1830 05be
00000020: 64db aabd 75a1 01be 8ef5 f93d ec14 74bd
00000030: 5c22 853d e036 19bc a80b 02be 2c6a 303d
00000040: 9088 603c bcaa cc3d 739b 083e eb12 f5bd
00000050: 5d4d 0f3e ddd9 043e 72a7 f13d e50b 0abe
00000060: 400e 8b3d 4097 79bb f07b 133d c8bb 95bd
00000070: fa4b 04bd 4cb7 ecbc c863 3cbd 6833 02be
00000080: 6053 7d3d bf72 0e3e d6d1 dd3d 2024 b8bd
00000090: b18e 99bd 0039 143b 085c d33d 3ceb d43d
000000a0: 20a2 c6bb 7035 df3c 6134 e2bd 7051 fa3c
000000b0: e8b2 643d 10c1 583d 902c 68bc 3a20 0dbe
000000c0: 2a10 fe3d c292 27bd
-0.048056476 -0.045922212 0.034631044 -0.07059538 0.090931475 0.1328883 -0.031290308 -0.13006628
-0.08342627 -0.12659247 0.12205039 -0.059590265 0.06500694 -0.009351462 -0.12699759 0.043070003
0.013704434 0.099935025 0.13340549 -0.11966499 0.13994355 0.12973733 0.11799516 -0.134811
0.06789827 -0.0038084537 0.036006868 -0.07311207 -0.03229902 -0.028895997 -0.045993596 -0.12714922
0.06184709 0.1391096 0.10831039 -0.08991265 -0.07497919 0.0022616982 0.10320288 0.1039643
-0.0060618073 0.02724716 -0.11045147 0.03055641 0.05583468 0.052918494 -0.014170781 -0.13781825
0.12405427 -0.040911444

encoder.layers.0.shortcut.weight f4 [50, 128]
00000000: 6ecb 593d 5dba 9abd a082 69bc 50e5 c03b
00000010: e87c b8bc f101 9d3d 782d 60bd a0d7 003d
00000020: a804 0a3d 88ca 5e3c fc4a 6ebd 1854 cb3c
00000030: cb35 a23d 8c9c 113d 68eb 973c 004c 09ba
00000040: 70be d1bb 721f 363d 803e 0bbd 52ee 743d
00000050: 8ec5 a7bd 57f6 4ebd ac49 ab3c 5307 a43d
00000060: 33ed 4abd 52ff 783d d8eb cdbc cd2f a5bd
00000070: 5a97 4f3d 8df7 8a3d b168 a03d 127d 273d
00000080: 6097 c73c d0c8 0a3c f42e ccbc 8fc8 32bd
00000090: 0bc6 a83d 8746 30bd 4bf8 b4bd 0bca 823d
000000a0: 886c ba3c 8010 583c c138 b43d ca8a 493d
000000b0: c079 ca3c 0c67 81bc df0c a63d d8bd dd3c
000000c0: 779a 973d 5d1d 3cbd 30f6 fcbc b654 eebc
000000d0: e154 a73d 82d0 81bd ca42 b3bd 23b6 a3bd
000000e0: c082 ebba 83bc ae3d 9c55 863c dbc0 aebd
000000f0: 204a 043b e3de 41bd a547 aabd d0bc 53bc
00000100: d006 f7bc a4cd 023d 78c5 d2bc bd9f 4abd
00000110: be4b 04bd f0b5 743c 5dce a93d 0c33 9cbd
00000120: 60a4 8cbc 737e ac3d 3d4e 9c3d 3629 90bd
00000130: 7d09 b03d da25 9cbd 77ad 45bd f21c 2a3d
00000140: 7ba0 943d e7c1 94bd 4cbb db3c b7ab a13d
00000150: df2f b0bd 26f6 623d c0ed e2bc 1021 42bc
00000160: b1f5 0ebd ce05 403d 60d9 71bd 71bf af3d
00000170: e0e8 babc 79ab 57bd f804 653c 1c76 0fbd
00000180: 5a6e a5bd 14ee de3c 8aba 80bd c31c 06bd
00000190: 365a 6e3d 87e8 9b3d 8a63 393d 4af1 383d
000001a0: 98f8 ce3c 15f0 a43d 66f2 23bd e85c 573c
000001b0: 86b6 2f3d 0082 a939 0148 853d 9879 31bc
000001c0: aa89 9fbd 711c 65bd d161 a53d d020 873c
000001d0: 97a1 9bbd 570c 933d 995b b1bd 2291 99bd
000001e0: 3fad ac3d 169b 603d 1aa5 5ebd 6c88 adbc
000001f0: 405e 4d3b 4ea9 6ebd c09e cdbc eb70 a03d
00000200: 5892 553c 3d5f 63bd 7093 7ebc d79f a13d
00000210: 7c8d 91bd d98c 17bd cc09 a7bc 98f0 e43c
00000220: 7827 efbc fb73 903d 0858 593c 9883 c63c
00000230: 658b a53d 8246 ecbc 28ae 9f3c 0c80 bbbc
00000240: 584b 37bc e249 363d f08b 053c e650 4a3d
00000250: 3f6c b13d 6632 82bd f08f a0bb 2d23 8d3d
00000260: 4723 813d 2829 34bc 431a 8fbd 0098 b138
00000270: 486c c13c 867a 6cbd cc8d e3bc 625c 6b3d
00000280: c82e fcbc fed9 753d 3876 d7bc 22e3 413d
00000290: 14de 813c bbed a93d a0cb 193c 8f9d ac3d
000002a0: 74ea 853c 000b a2b9 1cd1 043d 143b bfbc
000002b0: 44c6 65bd 004b 6fbb f095 b3bc 4ef7 73bd
000002c0: ea5f 6d3d 55c8 8c3d 81f1 23bd 44cd 8e3c
000002d0: 7063 fcbc aae7 753d aa56 84bd 7452 35bd
000002e0: e34a 8cbd 3cb6 c9bc 0047 06bd e25c 6f3d
000002f0: 01f4 85bd 04d3 a13c 1836 7fbd 2653 93bd
00000300: b710 9fbd e539 09bd 0054 3b39 8c02 043d
00000310: d7ce a5bd 6891 5b3c 6c84 0abd 3ae2 dfbc
00000320: 2e7e 30bd b8c2 df3c 0a9a 33bd a36a 57bd
00000330: 42fb 793d 2756 b43d e327 80bd 8eb5 283d
00000340: c076 bebc 885e 1a3c da67 053d 14ab b1bc
00000350: 2292 0abd 3f2d ae3d e973 833d 0a22 afbd
00000360: 44d8 6dbd 5227 453d 2495 8ebc 75e5 9f3d
00000370: a43c 8a3c db74 a73d 2873 72bd 04c7 f13c
00000380: 3431 91bc 87ba 9c3d 7069 78bc cc94 8dbc
00000390: 2cd6 cabc e850 31bc 2258 5bbd 34a3 9abc
000003a0: 0018 4539 0064 4bb9 c5c7 35bd ea6d 7a3d
000003b0: 92b3 6cbd 3844 0d3c aebe abbd df98 7ebd
000003c0: 5118 9e3d 5bc1 8bbd 7710 9cbd 3962 963d
000003d0: caa9 98bd 8ca2 f33c d0c0 ea3b 8d5b 95bd
000003e0: 5a27 673d e8ff fc3c 84a6 80bc 1864 12bd
000003f0: e0d2 d1bc c09c 99bd d4e6 afbc 5b99 a5bd
0.05317252 -0.07555077 -0.014252335 0.005886711 -0.022520497 0.07666386 -0.054730862 0.031455636
0.033695847 0.013598092 -0.05817698 0.024820372 0.079204164 0.035549685 0.018544868 -0.000523746
-0.0064008757 0.044463582 -0.03399515 0.059797592 -0.081919774 -0.050527897 0.020909153 0.080092095
-0.049542617 0.060790367 -0.025136873 -0.08065758 0.05068145 0.06785498 0.07832468 0.04089076
0.024364173 0.008470729 -0.024924733 -0.0436483 0.08240899 -0.04303601 -0.088364206 0.06386193
0.02275683 0.013187528 0.087998874 0.049204625 0.024716258 -0.015796207 0.08107924 0.027068064
0.07402509 -0.04592644 -0.03087911 -0.029093128 0.08170486 -0.06338598 -0.087529734 -0.07993724
-0.0017968044 0.085320495 0.016398244 -0.08532878 0.0020185784 -0.047331702 -0.08314446 -0.012923434
-0.030154616 0.031934395 -0.025728926 -0.049468745 -0.032298796 0.014935955 0.08291314 -0.07626924
-0.017168224 0.08422556 0.0763211 -0.0703911 0.0859556 -0.07624407 -0.048261132 0.04153151
0.07257172 -0.072635464 0.026822709 0.0789408 -0.08602881 0.055410527 -0.027701259 -0.011848703
-0.03490228 0.046880536 -0.059045196 0.085814364 -0.022816122 -0.052653763 0.013978235 -0.035024747
-0.080776885 0.027213134 -0.062855795 -0.032742273 0.0581915 0.076127104 0.045260943 0.045151986
0.025265023 0.080536045 -0.04002609 0.013144709 0.042898677 0.0003233105 0.06507874 -0.010832213
-0.07789929 -0.055935327 0.080752976 0.016495138 -0.0759918 0.07180088 -0.08660049 -0.07498385
0.084314816 0.0548354 -0.054356672 -0.021183215 0.0031336695 -0.05826693 -0.025100112 0.078340374
0.013035379 -0.05551075 -0.0155380815 0.07891815 -0.07107064 -0.036999557 -0.020390414 0.027946755
-0.029193625 0.070533715 0.013265617 0.02423267 0.08083228 -0.028842214 0.019492224 -0.022888206
-0.011187397 0.044504054 0.0081510395 0.049393557 0.086632244 -0.06357269 -0.004899971 0.06891475
0.06305557 -0.010996141 -0.06987431 8.46833e-05 0.023611203 -0.057734035 -0.027777575 0.05746115
-0.030784026 0.060022347 -0.026301488 0.04733575 0.015852965 0.082972966 0.009386927 0.084284894
0.016347148 -0.00030907243 0.032425985 -0.0233436 -0.056097284 -0.003651321 -0.021922082 -0.05956202
0.0579528 0.06874148 -0.040025238 0.017431863 -0.030809134 0.060035385 -0.06461842 -0.044268087
-0.06850221 -0.024623029 -0.032782555 0.05843819 -0.06540681 0.01975394 -0.062307447 -0.07193594
-0.0776686 -0.03350248 0.00017865002 0.03222899 -0.08096092 0.013401367 -0.033817694 -0.027329553
-0.043089084 0.027314529 -0.043848075 -0.05259193 0.061030634 0.08805495 -0.06257608 0.04118877
-0.023249984 0.009421952 0.032569744 -0.021688022 -0.03383077 0.08504724 0.064185925 -0.08551414
-0.058067575 0.048133202 -0.0174051 0.07807437 0.016874619 0.08176585 -0.059191853 0.029513843
-0.017723657 0.07652765 -0.015161857 -0.017282866 -0.024760328 -0.010822512 -0.053550847 -0.01887665
0.00018796325 -0.00019396842 -0.04437997 0.06113998 -0.05778844 0.008622222 -0.08385979 -0.062157508
0.07719482 -0.06823989 -0.07620328 0.07342953 -0.0745426 0.029740594 0.0071640983 -0.072928526
0.056434013 0.030883744 -0.0157044 -0.035739988 -0.025613248 -0.07500601 -0.021472372 -0.08085891

encoder.layers.0.shortcut.bias f4 [50]
00000000: bb67 ae3d afbe 10bd 00d4 1bbb 6d81 a33d
00000010: ee7f 40bd c1dc 30bd fb7f 8c3d 960d 90bd
00000020: f0af 00bc 997d b13d 113b 8b3d 1e11 7b3d
00000030: 317e 3ebd c915 883d 9ccb fbbc 8aae 5d3d
00000040: 3079 af3b f82c de3c 72de 313d 320b 6d3d
00000050: 3ae8 55bd da37 95bd 70b6 dfbb 12ec 05bd
00000060: 98e2 f2bc f6c2 3f3d d0f6 da3c 767d 533d
00000070: 865f 213d b446 96bd 317e 8dbd 5935 0cbd
00000080: 56be 74bd c96e 06bd 00e1 993a 34b6 843c
00000090: 186f febc 5003 5abc ccec 113d 6c97 06bd
000000a0: 9048 edbb 00c0 2338 61c1 82bd 4cb5 b2bc
000000b0: e6c2 9dbd 80e5 483a 9a0e 2e3d 08bf c4bc
000000c0: c82f 073c 99f0 a93d
0.08515879 -0.0353381 -0.0023777485 0.079836704 -0.046997003 -0.043179277 0.06860348 -0.07033841
-0.007854447 0.08666534 0.067983754 0.06129562 -0.046507064 0.0664478 -0.030736737 0.05412153
0.005355023 0.027121052 0.04342503 0.057872005 -0.05222342 -0.072860435 -0.006827168 -0.032695837
-0.029649064 0.04681679 0.026729017 0.05163332 0.03939774 -0.07337704 -0.06908835 -0.034230564
-0.05975183 -0.032820497 0.0011740029 0.016200162 -0.031058833 -0.013306454 0.035626218 -0.03285925
-0.007241316 3.9041042e-05 -0.0638454 -0.021814965 -0.077031896 0.00076635927 0.042494394 -0.024016872
0.008251138 0.082978435

encoder.layers.0.layer_norm.weight f4 [50]
00000000: 0000 803f 0000 803f 0000 803f 0000 803f
00000010: 0000 803f 0000 803f 0000 803f 0000 803f
00000020: 0000 803f 0000 803f 0000 803f 0000 803f
00000030: 0000 803f 0000 803f 0000 803f 0000 803f
00000040: 0000 803f 0000 803f 0000 803f 0000 803f
00000050: 0000 803f 0000 803f 0000 803f 0000 803f
00000060: 0000 803f 0000 803f 0000 803f 0000 803f
00000070: 0000 803f 0000 803f 0000 803f 0000 803f
00000080: 0000 803f 0000 803f 0000 803f 0000 803f
00000090: 0000 803f 0000 803f 0000 803f 0000 803f
000000a0: 0000 803f 0000 803f 0000 803f 0000 803f
000000b0: 0000 803f 0000 803f 0000 803f 0000 803f
000000c0: 0000 803f 0000 803f
1.0 1.0 1.0 1.0 1.0 1.0 1.0 1.0
1.0 1.0 1.0 1.0 1.0 1.0 1.0 1.0
1.0 1.0 1.0 1.0 1.0 1.0 1.0 1.0
1.0 1.0 1.0 1.0 1.0 1.0 1.0 1.0
1.0 1.0 1.0 1.0 1.0 1.0 1.0 1.0
1.0 1.0 1.0 1.0 1.0 1.0 1.0 1.0
1.0 1.0

encoder.layers.0.layer_norm.bias f4 [50]
00000000: 0000 0000 0000 0000 0000 0000 0000 0000
00000010: 0000 0000 0000 0000 0000 0000 0000 0000
00000020: 0000 0000 0000 0000 0000 0000 0000 0000
00000030: 0000 0000 0000 0000 0000 0000 0000 0000
00000040: 0000 0000 0000 0000 0000 0000 0000 0000
00000050: 0000 0000 0000 0000 0000 0000 0000 0000
00000060: 0000 0000 0000 0000 0000 0000 0000 0000
00000070: 0000 0000 0000 0000 0000 0000 0000 0000
00000080: 0000 0000 0000 0000 0000 0000 0000 0000
00000090: 0000 0000 0000 0000 0000 0000 0000 0000
000000a0: 0000 0000 0000 0000 0000 0000 0000 0000
000000b0: 0000 0000 0000 0000 0000 0000 0000 0000
000000c0: 0000 0000 0000 0000
0.0 0.0 0.0 0.0 0.0 0.0 0.0 0.0
0.0 0.0 0.0 0.0 0.0 0.0 0.0 0.0
0.0 0.0 0.0 0.0 0.0 0.0 0.0 0.0
0.0 0.0 0.0 0.0 0.0 0.0 0.0 0.0
0.0 0.0 0.0 0.0 0.0 0.0 0.0 0.0
0.0 0.0 0.0 0.0 0.0 0.0 0.0 0.0
0.0 0.0

encoder.layers.1.linear1.weight f4 [50, 50]
00000000: b2f0 01be d0de e8bd 887d b3bc 220d 23bd
00000010: 88cc d43c e86e 193d 38e3 c73d b047 5abc
00000020: 4804 0cbe 0cea b9bc 7454 bcbc f0e2 9c3c
00000030: 02fc 9fbd 966a f53d 6cd0 b53d 877c 0fbe
00000040: 0aae cbbd d00e 543c 11cf 8cbd 0604 19bd
00000050: 807b 843b 81ce ebbd 804d 553d 541c b1bd
00000060: 1427 093d 2a88 e13d 68af 013d 48a8 d2bd
00000070: 5aa5 ab3d 908d 96bc e44f b0bd 105e 0ebe
00000080: 80c0 0d3b d5a2 b4bd 3158 01be cd62 96bd
00000090: d026 e2bd d577 b3bd 1833 3b3d 0a03 e83d
000000a0: 812c f8bd ae4f e93d 0436 453d c06d 08be
000000b0: 10a3 4cbc 53c2 eabd 37af 073e c099 8d3d
000000c0: 530c 88bd f239 ac3d 18c0 6fbd 72ca fb3d
000000d0: 0cc2 c5bd 90e0 4e3c 52e0 64bd 507d 4f3c
000000e0: 8acc bbbd 06bd d43d c632 e2bd c630 2abd
000000f0: 8407 6ebd 2c42 cabc c9f5 013e 24ab 7d3d
00000100: a613 f23d 0048 4fb9 a313 d2bd 07ed a6bd
00000110: 52f3 c43d d484 593d c882 d93c f83a f4bd
00000120: acba d3bc e3c2 eebd c6df f13d 1052 383d
00000130: 3853 3f3d 4ce0 f6bd 3c8a 323d eac9 b63d
00000140: 5606 b9bd 10bf 10bd 824d 843d 7662 ff3d
00000150: 1af7 dd3d d482 8f3d 80e7 fe3b 1095 31bd
00000160: b815 ad3d e2a0 8a3d cddf 093e 37c1 0a3e
00000170: 68da d93c 94e9 9a3d 1857 de3d 76d5 c0bd
00000180: a1f6 083e 3092 e0bc 8019 413b b4c0 23bd
00000190: dcab 723d b8be a23c 00de d03c 74b2 903d
000001a0: 007b 263c 0073 5e3b 645e cebd 9077 ba3d
000001b0: c0b2 b0bc a03f 073c 70aa c3bd e8d7 10bd
000001c0: 07a8 0a3e 6d1f ebbd de20 ff3d 80a1 633b
000001d0: d0da 943c 62c7 01be 94d5 d1bd a06b 953d
000001e0: c572 9dbd 9077 8a3c 02b6 833d d2ac 913d
000001f0: 6a88 b53d 8012 db3d ead6 c33d 1667 8a3d
00000200: 10a6 21bc 2442 203d f07a 30bc 80e4 013d
00000210: 4a4a 10bd c4e1 eabd 8248 febd 36c8 02be
00000220: 3483 eebd 8085 b2bb b0a2 d83d c05d e23b
00000230: 1638 f13d 9a4c 04be e699 f53d 5c42 8f3d
00000240: ceb6 f73d aa0a 4bbd f8e2 99bc 45d5 c7bd
00000250: 6662 ffbd d66e 01be 5886 a63d 5ec1 933d
00000260: 74e0 5abd dc47 21bd a076 d9bd 2e1c 883d
00000270: ebf9 d9bd d00b 2a3d 0608 d93d e815 80bc
00000280: 91db 0cbe c20f 993d 1b2a 91bd 0561 0dbe
00000290: c082 2dbd 56b5 83bd 260d aa3d 1dc0 083e
000002a0: de8d be3d dece fe3d bc5f 923d ae92 0ebd
000002b0: 7437 4b3d 3063 bd3c 60d8 efbc 803e 8e3a
000002c0: e896 9cbc c871 5bbd eddf 073e 7e01 19bd
000002d0: fad6 8f3d dc58 dd3d 9ef9 b1bd 1abb d93d
000002e0: 9811 b83c 9f60 023e 08bb 8cbd 7f86 0e3e
000002f0: 06ef 883d 058e 083e e04a b83d 1d40 bcbd
00000300: 1cbd fbbc 90b5 8c3d 4d15 063e 7d3e 10be
00000310: eb81 ffbd aeb1 ab3d d241 da3d 9f3d 023e
00000320: b052 9a3c 3eeb 3abd 4efc fd3d d6c1 fc3d
00000330: 96c3 f6bd c629 02bd fcd7 703d 5cad aa3d
00000340: 7eda d73d 826e c03d 58cc 38bd 00a1 cfba
00000350: 28ae b2bd 80a2 c2bd 215f 003e 208e 883d
00000360: 3855 4b3d f20d 44bd be23 c43d a813 b93c
00000370: e0df b1bb 9320 94bd d0dd c73d 3ec2 46bd
00000380: 6897 0f3d 86ec fa3d 8646 b23d 0074 afba
00000390: d883 0a3d 6b45 c5bd 2cb5 ebbd b6b6 913d
000003a0: aeb5 ed3d c0f9 d8bc d81e bfbd 8059 adbd
000003b0: d6b8 65bd 25cb d7bd 8840 843d a7fb c0bd
000003c0: 00d2 84b9 e0ab ae3c 34b0 823d f9e6 ddbd
000003d0: 96f5 f73d 82f7 16bd a026 923b d015 3b3c
000003e0: 4806 09bd 5010 a9bd e86e 69bd 30b8 323c
000003f0: e034 6c3c 1822 993d a8b3 6cbd 9ecf d33d
-0.12689474 -0.11370623 -0.021910444 -0.039807446 0.025976434 0.037459284 0.097601354 -0.013322756
-0.13673508 -0.02269461 -0.02298949 0.019151181 -0.078117386 0.1198322 0.08877644 -0.14012347
-0.09945305 0.012942985 -0.06875432 -0.037357353 0.0040430427 -0.11513997 0.052075863 -0.08647981
0.033484533 0.11012299 0.03166142 -0.10286003 0.08381148 -0.01837805 -0.08608988 -0.1390307
0.0021629632 -0.0882012 -0.12631299 -0.073430635 -0.11042559 -0.087630905 0.045703024 0.11328705
-0.121178634 0.11392151 0.048147216 -0.13323116 -0.012490049 -0.11462846 0.13250433 0.06914091
-0.06642976 0.0840949 -0.058532804 0.12294473 -0.09656152 0.012626782 -0.05587799 0.012664154
-0.09169872 0.10387616 -0.110448405 -0.04155042 -0.058112636 -0.024689756 0.12691416 0.06193079
0.11820154 -0.0001976788 -0.10257652 -0.08150678 0.09616722 0.05310519 0.02655162 -0.1192531
-0.025845848 -0.116582654 0.118102595 0.045000136 0.046710223 -0.120545 0.04358886 0.08925231
-0.090344116 -0.03533846 0.06460096 0.12469952 0.108381465 0.07007375 0.007779062 -0.043355048
0.08451408 0.06768967 0.1346428 0.13550268 0.026593402 0.07564083 0.108564556 -0.094157144
0.13375331 -0.027413458 0.0029464662 -0.039978698 0.05924593 0.019866332 0.025496483 0.07065287
0.010161161 0.0033943057 -0.10076597 0.09104836 -0.02156961 0.0082549155 -0.09553993 -0.035362154
0.1354066 -0.11480603 0.12457441 0.0034733713 0.018170744 -0.12673715 -0.10245815 0.072959185
-0.07687906 0.016902715 0.064311996 0.07113041 0.088639095 0.10696888 0.09562476 0.06757943
-0.009866253 0.039125577 -0.010771498 0.031712055 -0.035227098 -0.114688426 -0.124161735 -0.12771687
-0.11646119 -0.0054480433 0.10577905 0.0069081485 0.11778276 -0.12919846 0.119922444 0.06995079
0.12095414 -0.049570717 -0.018784985 -0.09757475 -0.1246994 -0.12639937 0.08131093 0.07214616
-0.05343671 -0.03937517 -0.10618329 0.06646 -0.10643371 0.04151517 0.105972335 -0.015635446
-0.13755633 0.07473709 -0.07088109 -0.13806541 -0.04236102 -0.064310715 0.08303289 0.13354535
0.09304403 0.124418005 0.07147166 -0.034807853 0.04961343 0.023118585 -0.02927798 0.0010852367
-0.019114926 -0.053575307 0.13269015 -0.03735494 0.070234254 0.10807964 -0.08690189 0.1063139
0.022469327 0.1273217 -0.06871611 0.13918494 0.06686215 0.13335426 0.08998656 -0.09191916
-0.030729823 0.06870568 0.13094063 -0.14086337 -0.12475952 0.08383499 0.106570855 0.12718819
0.018838257 -0.0456345 0.12401639 0.12341659 -0.12049024 -0.03177812 0.05879973 0.08333847
0.10539721 0.09396078 -0.045116752 -0.0015840828 -0.08724624 -0.09503651 0.12536289 0.06667733
0.049641818 -0.04786486 0.0957713 0.02259238 -0.0054282993 -0.072327755 0.09759104 -0.048525088
0.0350565 0.122521445 0.087048575 -0.0013386011 0.033817142 -0.09632381 -0.11509165 0.071149275
0.11606918 -0.026486278 -0.09332055 -0.084643364 -0.056084476 -0.105367936 0.06457621 -0.09422999
-0.00025333464 0.02132219 0.06381264 -0.1083507 0.12107389 -0.036857136 0.004460171 0.011418775
-0.033453256 -0.082550645 -0.056990534 0.010908172 0.014416903 0.07477206 -0.05778852 0.10342334

encoder.layers.1.linear1.bias f4 [50]
00000000: 160c e33d 89f0 89bd bd4b 0abe c078 a23d
00000010: 79be 93bd 5e4f ccbd 1cd4 713d 744c 46bd
00000020: 3842 833d ac21 653d 20af 03bc d0a2 e0bc
00000030: e074 af3c c09c 783b 9425 ffbc 4243 8a3d
00000040: b0bc 17bc 8eac 00be 88c8 973c 2c06 703d
00000050: c00e 1bbb a8aa 973c 5cc7 bbbd 84bd 53bd
00000060: 00c4 b33a e0a2 873d 64ff 52bd 7cf5 6c3d
00000070: fad1 1dbd c0e9 00bc 3115 0d3e ca53 fe3d
00000080: 74b3 7ebd 6077 0c3d e34e 0bbe a0f9 0cbc
00000090: 7110 043e fc67 0c3d 9064 f83c c096 b13b
000000a0: 9845 6a3d 4c07 adbc 5e26 de3d bcd6 d2bc
000000b0: 9849 ca3c 784d adbc adf2 0f3e 9023 a63d
000000c0: 537c fdbd 55aa 063e
0.110862896 -0.067353316 -0.13505454 0.079331875 -0.07214064 -0.099760756 0.059040174 -0.048412755
0.064091146 0.055940315 -0.0080373585 -0.027421385 0.021418035 0.0037935227 -0.031145848 0.0675111
-0.009261295 -0.12565824 0.018528238 0.058599636 -0.0023659915 0.018513992 -0.09168884 -0.051694408
0.0013715029 0.06622863 -0.05151309 0.0578513 -0.038530327 -0.00786823 0.13777615 0.12418325
-0.06218286 0.034293532 -0.13604312 -0.008604437 0.12896897 0.034278855 0.03032139 0.005419582
0.057195276 -0.021121643 0.10847162 -0.025737159 0.024693295 -0.021155104 0.14057417 0.08112252
-0.123772286 0.13150914

encoder.layers.1.linear2.weight f4 [50, 50]
00000000: 651a e0bd 8024 a7ba a218 7ebd 61a6 9cbd
00000010: 3311 f1bd aa03 c7bd c924 82bd 721d e93d
00000020: c07e 5abb 047d 53bd 228d 87bd d0bb cbbc
00000030: 4849 8c3c a073 c13d bafb e43d c26b ec3d
00000040: c41a 95bd fc7d 5e3d b60e e83d 9c2d 33bd
00000050: fc63 af3d 506e d5bc 86b2 f43d bc52 93bd
00000060: 0a63 1bbd 827b d8bd 40d9 a23c fc3e cb3d
00000070: 6875 aebd f1cb 0c3e d417 b03d 0012 f739
00000080: a01b 98bb 70b7 77bc b809 813c ce63 eb3d
00000090: 30c9 2a3c c892 d33c 00cc 7339 b1d8 afbd
000000a0: 8657 0bbe 0e98 0cbd f2db a5bd c27f abbd
000000b0: ac3a b6bc 2ad5 ea3d b0be ad3c 2517 91bd
000000c0: c6c2 ed3d 9061 42bd 79c5 9dbd 6ace a33d
000000d0: 325c d43d 2ee5 adbd b577 0bbe 72c7 ef3d
000000e0: f04f 223c 000a c8bb 0260 af3d 80c6 b13b
000000f0: 008a 903b 6fbe cdbd 48bb 593d 5f25 05be
00000100: c13f 97bd 500e 4ebd 6a8d f5bd 0798 8dbd
00000110: 0256 aebd 324a 70bd f2b7 c3bd 98da 873c
00000120: b01c aa3d ae46 14bd 280a fe3c 2983 033e
00000130: deaa 0ebe 0037 833a 588a 08be fa86 d9bd
00000140: a487 a33d 4e9d 9f3d 1eff 8a3d b09b 00bc
00000150: 9270 a33d 305f a63c bed6 e23d 1141 08be
00000160: aa62 66bd 0a2d b63d 0e63 c63d 30c0 ce3d
00000170: 0c75 4d3d 1400 9e3d 50cd 8b3c aecd 56bd
00000180: 9026 bd3d ec52 0ebe f727 89bd b039 4bbc
00000190: 807d bb3b f34b 093e ed61 033e ec2e 263d
000001a0: 6222 fb3d 724c d7bd 80dc 9cbd f46e 743d
000001b0: 6a9d c23d 704f 373d b63c f73d 5c25 113d
000001c0: 28b0 db3d 185e 513d d5b3 a7bd 2cb7 143d
000001d0: 8c62 76bd f49a f0bd c841 b63d e008 62bc
000001e0: fe31 b5bd 98c2 25bd b06a ecbc e2d5 f53d
000001f0: 4018 993b ce64 ddbd ce99 b73d 107c 0e3d
00000200: cb51 033e 5e9a 1bbd 7acb dabd 841c 61bd
00000210: 5e5c f7bd 76e6 f43d be59 f9bd d01f 193c
00000220: 4058 363b 44ad af3d 8e9c a73d 407f 8e3b
00000230: 87ee d6bd d42d 45bd 9dba 0a3e 4235 a5bd
00000240: 4637 ccbd ee92 e83d 4428 273d 804a 95bb
00000250: f132 0a3e 0984 0f3e 889a a83d 10e9 0dbd
00000260: 209b 87bd 269b c0bd 9e1f 6fbd 5520 053e
00000270: deee d2bd 68fe c63c 540d a73d 0011 c63d
00000280: ee4c 85bd c8fb 8e3d 9cd4 073d c921 0c3e
00000290: dedd dd3d a7f9 99bd 8a8c e13d 7458 11bd
000002a0: d8f4 803c 7056 133c 2ae4 b9bd 1c3c c73d
000002b0: 4416 c1bc 941b de3d 508b 773c e2c4 ff3d
000002c0: f84a b8bd e38e 04be 0020 bdbc 661f e73d
000002d0: e3dc 00be 38b9 98bd 55e8 003e 5e12 aa3d
000002e0: 1097 7bbc 5eca 29bd 50ae 713d bb51 0e3e
000002f0: 126b babd cffe 0b3e 0e20 fd3d 7f8d 073e
00000300: f3f7 ccbd 8050 43bc d03f 7c3c e436 b8bc
00000310: 6028 aabb 7aa0 a4bd 2296 5ebd 3de5 d5bd
00000320: 70ae d23c 8844 a5bd 90dc d03c 2ccf d03d
00000330: dae7 eb3d 003c 7f39 e087 bb3c 381e 803d
00000340: d456 663d 6a0e d2bd 9262 04be 0410 06be
00000350: 864c c53d bb1d 01be ba41 d33d 44f2 34bd
00000360: 6476 b73d fd07 cfbd 8084 003c d812 733d
00000370: 8bd7 efbd d43b 1f3d 74b7 213d a8d8 af3c
00000380: 8cd5 8bbd 1c92 4f3d 90db 1cbc 2af5 4abd
00000390: dc46 debc 2a16 9a3d 94ad fabc 00ad beba
000003a0: 6a2f bdbd 5235 db3d 896d 86bd 52e6 05be
000003b0: 7c31 043d 4c67 22bd e029 a7bd 8b5f 103e
000003c0: a053 ba3d 00eb 1dba f0d0 173d aee3 b93d
000003d0: bef6 b9bd 1070 a13d 9c2d d4bd 7288 bc3d
000003e0: c9e1 083e f433 30bd 610e 053e 4e51 a63d
000003f0: 4a41 fe3d b826 c23c a167 93bd 5ec6 813d
-0.10942534 -0.0012751967 -0.06203521 -0.07648922 -0.117708586 -0.09717496 -0.063546725 0.113825694
-0.003333971 -0.051632896 -0.06618716 -0.02486983 0.017124787 0.09445882 0.111808255 0.11543991
-0.07280496 0.054319367 0.11330931 -0.04374467 0.085639924 -0.026053578 0.11948113 -0.07193515
-0.037936248 -0.10570432 0.019878983 0.09924123 -0.08518487 0.13749672 0.08598295 0.00047124922
-0.004641965 -0.0151194185 0.015751705 0.114936456 0.010423943 0.025826827 0.00023250282 -0.085862525
-0.13607606 -0.0343247 -0.08098592 -0.08373977 -0.022244774 0.11466439 0.021209091 -0.070844926
0.11609416 -0.047456324 -0.077036805 0.07998355 0.10369147 -0.08490978 -0.13619883 0.11707963
0.009906754 -0.0061047077 0.08563234 0.0054252744 0.004410982 -0.10046088 0.05315712 -0.13002537
-0.07385207 -0.05030662 -0.11989863 -0.069137625 -0.085124984 -0.05866451 -0.09556569 0.016583726
0.08306253 -0.036200218 0.031010702 0.12843002 -0.13932368 0.0010010898 -0.13334024 -0.10621448
0.07984856 0.07793675 0.06786941 -0.007849619 0.079804555 0.02030906 0.11076115 -0.13306071
-0.056246437 0.08895309 0.09686862 0.100952506 0.050160453 0.07714859 0.017065674 -0.052442245
0.09235871 -0.1389882 -0.06697076 -0.0124038905 0.005721748 0.13407879 0.12830324 0.040572092
0.122624174 -0.10512628 -0.076592445 0.059676126 0.095026806 0.044753492 0.120721266 0.03543602
0.107269585 0.051115125 -0.08188597 0.0363075 -0.060152575 -0.11748305 0.088992655 -0.013796061
-0.08847426 -0.040468782 -0.028859466 0.120036855 0.0046720803 -0.108102426 0.08964883 0.034786284
0.1282417 -0.037989013 -0.10683341 -0.054958835 -0.120781645 0.119580194 -0.1217532 0.009345964
0.0027823597 0.0857797 0.08184157 0.0043486655 -0.10494714 -0.04813941 0.1354775 -0.08066799
-0.0997148 0.113561496 0.040809885 -0.004556 0.13495995 0.14015211 0.082325995 -0.034646094
-0.066213846 -0.09404592 -0.058379762 0.13000615 -0.102994666 0.024291232 0.08156839 0.09671211
-0.06508814 0.06981617 0.033161744 0.13684763 0.108333334 -0.075183205 0.11013134 -0.035484746
0.01574175 0.008992776 -0.09076722 0.09728262 -0.023570187 0.10845104 0.015108898 0.12488724
-0.08998674 -0.12945132 -0.023086548 0.11285286 -0.12584262 -0.07457203 0.12588628 0.083042845
-0.01535584 -0.041452758 0.059004128 0.13898365 -0.09102453 0.1367142 0.123596296 0.1323757
-0.1000823 -0.011921048 0.015396073 -0.022487111 -0.0051928014 -0.08038421 -0.054342397 -0.10444114
0.025717944 -0.08069712 0.025495797 0.10195765 0.115188316 0.00024341047 0.022891939 0.06255764
0.05623515 -0.102566555 -0.12928227 -0.13092047 0.09633736 -0.12608998 0.10315271 -0.044176355
0.08958128 -0.101089455 0.00784409 0.059344143 -0.117110334 0.038875416 0.039481595 0.021465614
-0.0682784 0.05067645 -0.009573832 -0.049550213 -0.027133398 0.07523759 -0.030600347 -0.0014547408
-0.09237559 0.107035294 -0.06563861 -0.13076141 0.032273754 -0.039649293 -0.08162284 0.14098947
0.090979815 -0.00060240924 0.037064493 0.090766296 -0.090802655 0.07882702 -0.10360262 0.092057124
0.1336738 -0.043018296 0.12993766 0.081209764 0.12414797 0.023700103 -0.071975 0.06336664

encoder.layers.1.linear2.bias f4 [50]
00000000: bddb 00be 0df1 09be b902 c3bd 132e 033e
00000010: 186e be3c c0fb f5bd 459f dfbd d829 8ebd
00000020: 2097 66bc 0c47 0dbd fb3d 033e 24a6 c6bd
00000030: c053 efbb f17c e8bd e03a 6d3d e60e 67bd
00000040: 124f e6bd 4e9c f93d e64f 06be 9322 093e
00000050: 78dd 9f3c 6692 0fbe 0818 31bd b222 803d
00000060: 4455 7abd 593b 0cbe 88fb c23d de1a cfbd
00000070: b87f b03d 4eda d4bd f539 e4bd 85a5 e8bd
00000080: 50c0 15bc 7652 dc3d fab0 c8bd 60ef bdbb
00000090: 6222 ee3d f42c 683d a677 bfbd acb5 0abe
000000a0: 2436 d93d 80d4 fdbc f921 05be 0c06 5fbd
000000b0: df49 10be 40b9 3f3d fd23 02be a46f b33d
000000c0: ad41 0dbe 80ca 1fbb
-0.12583824 -0.1347086 -0.09522004 0.12810545 0.023245856 -0.12010908 -0.1091905 -0.06941575
-0.014074117 -0.034491584 0.12816612 -0.096996576 -0.007303685 -0.11351956 0.057917476 -0.056410693
-0.1124555 0.12188016 -0.13116416 0.13392095 0.019514784 -0.1402069 -0.04323581 0.062566176
-0.061116472 -0.13694514 0.09520632 -0.101125464 0.086181104 -0.10393201 -0.11143867 -0.11359695
-0.009140089 0.10757916 -0.097993806 -0.005796358 0.11627652 0.056683496 -0.09348993 -0.13545865
0.1060603 -0.030985117 -0.13001241 -0.054449126 -0.1409068 0.046807528 -0.12709041 0.08761528
-0.13794585 -0.0024382174
