BackTest_Weights/DQNAAPL_2_128_128_0.2_35_11.pth (torch, 323451 bytes, 14 tensors)

rnn1.weight_ih_l0 f4 [128, 35]
00000000: aa31 0f3d 85a1 24bd c80c 263c 4673 8dbd
00000010: 0e77 14bd 8afc 473d 02aa 58bd 10fe a2bd
00000020: 9840 973c b867 f53c 9478 e4bc 9048 4f3c
00000030: 326e 5f3d 00fb 37bc 1e18 80bd 50fb a5bb
00000040: 5045 1e3c 36d7 0e3d 506b 3bbc 1673 e7bc
00000050: f1d5 853d 9a79 703d a3ca 9d3d ac71 b3bd
00000060: 0005 253c 4609 293d 8d70 853d 0d8b 4dbd
00000070: fa98 5a3d dbd2 863d 8090 eabb 9585 0abd
00000080: e546 a4bd 4aaa 4a3d d632 2a3d 8930 ad3d
00000090: c045 493c 0088 14bb 2060 8ebc 6397 a23d
000000a0: 9a05 543d 5b96 a8bd 9c22 073d 07de 16bd
000000b0: d9a9 933d a37f a0bd 8821 d93c b682 633d
000000c0: 909e 023c c602 543d 80bf b9bb 60bc b0bb
000000d0: 1651 1c3d 3648 7b3d 3fca 4ebd 3668 1f3d
000000e0: 0b9f ae3d d04b 2f3c b821 003c 8814 ba3c
000000f0: 2f24 8d3d 9812 6b3c 80c0 e83c e685 8bbd
00000100: cb07 b3bd 7a56 533d 001f ea3a 71a8 b33d
00000110: ea11 1bbd f315 53bd 42d3 173d c451 a73c
00000120: 8ccc b1bc d573 933d 8792 4cbd 1262 2b3d
00000130: 5ed7 f7bc a07e a23b be7a 5f3d efa0 943d
00000140: b44d 85bc d6fd 42bd aa51 003d 5020 de3b
00000150: 907d c13c a2dc 6a3d 003a 9e39 d7fa af3d
00000160: f7d2 9dbd c4ac 8d3c 1231 52bd aa4c 5f3d
00000170: 9c75 9fbd 1207 2c3d 702a 8ebd 3354 8f3d
00000180: 6507 8a3d 0c96 b73c e647 3f3d 9eee 2b3d
00000190: 7aaf 223d e8b6 e6bc 0002 8ab9 388a 533c
000001a0: b4cc 7fbd 1ebd 323d 52ad 1a3d 500f 9bbd
000001b0: 39f5 b4bd cd0c 993d 0f0f 843d 28ad 1dbd
000001c0: 4829 383c 001b ea3b 63c6 8dbd 8480 8abc
000001d0: 07ed a53d 5fe1 80bd 3607 673d 40b4 0a3b
000001e0: 6511 9bbd 003c 0ebd 2a08 09bd fdb4 52bd
000001f0: c4eb a73c b8f5 033c dfc1 54bd 7219 4a3d
00000200: b8f2 6fbc 26bf 7bbd 92d1 793d 6a81 2f3d
00000210: 1e6e 1d3d 7a02 76bd d0e7 0cbc d698 a4bd
00000220: a7e8 8bbd c8c9 373c 1a29 513d 44bb 3fbd
00000230: ea06 323d 7948 0ebd 3091 cc3c 3164 9ebd
00000240: 97e5 98bd 50a4 c9bb 9b66 8b3d 0026 563b
00000250: d81b 06bd eda3 acbd 8851 ce3c 1d45 43bd
00000260: 04a0 72bd 0094 ca3c a0f9 36bd c1b2 8ebd
00000270: ca64 6e3d c5b2 69bd 6b28 39bd fcca b4bd
00000280: 9fc4 13bd b84d 9b3c 6cc9 813c 125a 683d
00000290: c25b 643d 048e ca3c d529 923d d859 d63c
000002a0: 3537 8b3d 7886 16bd 2ff0 9dbd 0a03 593d
000002b0: 290c 3abd b540 b03d 5ebc 3fbd 9881 c23c
000002c0: 1b7e 9a3d 862a 3d3d c936 29bd 2ade a3bd
000002d0: 0087 9abc 3306 95bd afbc a53d 3fec 873d
000002e0: 7f38 a03d 38e3 af3c f140 8bbd a6e0 783d
000002f0: 622f e2bc e822 9a3c 40cb ec3c 3655 60bd
00000300: 2bce 1dbd 82af 093d c0cc 843b 4d82 3cbd
00000310: 4818 a5bd d7b3 9ebd 0440 883c d8d8 173c
00000320: 801a efbb e90f 94bd ddd3 92bd 9080 a33c
00000330: 2497 70bd cd21 98bd a2ee 603d 4f51 7abd
00000340: 90a9 cdbc 88d7 6cbc 2c12 6ebd fa69 57bd
00000350: a8d1 713c 5c91 833c 2b40 89bd 79af a23d
00000360: 689f 623c 7e9a 233d a49d a1bc 611d b33d
00000370: f832 113d 6642 8ebd bb4c 853d 2a52 723d
00000380: 2494 d1bc cda9 803d 7a11 96bd 20e9 573b
00000390: 01ae 843d 5064 1c3c 5a33 723d 6e02 423d
000003a0: 0a7f 5abd 1f44 853d c04c 8fbc 80a6 b8bb
000003b0: e1c1 8fbd 79c7 a9bd ef18 923d 6033 8bbb
000003c0: 83c9 82bd b42b edbc 5cde 66bd 794f a13d
000003d0: c6c9 2e3d 8849 0e3c 0edb 673d 0a24 5e3d
000003e0: 1d10 9d3d f82b 1a3c 7230 3b3d 9844 56bd
000003f0: ae36 84bd 460f e7bc a880 b73c 9090 503c
0.034959473 -0.0401931 0.010134883 -0.06906752 -0.036246352 0.048824824 -0.052896507 -0.07958615
0.018463418 0.029956684 -0.027889527 0.012651578 0.05454845 -0.011229277 -0.062546 -0.005065359
0.00966008 0.03487321 -0.0114391595 -0.02825312 0.06534947 0.05870972 0.077046655 -0.087619156
0.010071993 0.04126861 0.06515608 -0.050181437 0.053368546 0.06583186 -0.007158339 -0.0338188
-0.080213346 0.049478807 0.041552387 0.08456523 0.012284696 -0.002266407 -0.01737982 0.07939031
0.051763155 -0.08231803 0.03299199 -0.036832836 0.0721013 -0.07836845 0.026505247 0.055544578
0.007972375 0.051760457 -0.0056685805 -0.00539355 0.038163267 0.061348163 -0.050485846 0.038917743
0.08526429 0.010699227 0.007820539 0.022714868 0.06891667 0.014347695 0.028412104 -0.068126485
-0.08741721 0.051596142 0.0017862022 0.08772362 -0.03785888 -0.051534604 0.037066706 0.020424731
-0.02170398 0.071998276 -0.049944427 0.041841574 -0.030254062 0.0049589425 0.054560415 0.07257258
-0.016272403 -0.047605358 0.03132788 0.0067787543 0.023619443 0.057339318 0.00030179322 0.08592766
-0.07706254 0.017294295 -0.05131633 0.054516472 -0.07786104 0.04199893 -0.06941688 0.069984816
0.06739692 0.022410415 0.046699427 0.04197561 0.03971813 -0.028163388 -0.000263229 0.012911372
-0.06245108 0.043637387 0.037762947 -0.0757128 -0.08835835 0.07473145 0.06448185 -0.038495213
0.011240311 0.007144332 -0.06922605 -0.016906984 0.0810185 -0.06292986 0.05640336 0.0021164566
-0.07571677 -0.03472519 -0.03345505 -0.051442135 0.020498164 0.008054189 -0.051942702 0.049340673
-0.014645271 -0.06146159 0.060990877 0.04284803 0.038435094 -0.060060956 -0.00860019 -0.08036964
-0.06831484 0.011217542 0.051064588 -0.04680945 0.043463625 -0.034737084 0.024971575 -0.07733954
-0.07465666 -0.006153621 0.0680668 0.0032676458 -0.032741398 -0.08429704 0.025185362 -0.047673333
-0.059234634 0.024728775 -0.044671655 -0.06967688 0.05820159 -0.057055254 -0.04520456 -0.08827779
-0.036076184 0.018957958 0.015843116 0.056726523 0.05575157 0.024725921 0.07136885 0.026165888
0.06797639 -0.036749333 -0.07711827 0.052981414 -0.045421753 0.08606092 -0.0468105 0.023743436
0.07543584 0.04618313 -0.041312013 -0.08001359 -0.018863201 -0.07276573 0.08092629 0.06636857
0.07823276 0.021470651 -0.06799496 0.060761116 -0.027610485 0.018815473 0.02890551 -0.054768763
-0.038526695 0.033614643 0.0040527284 -0.046022702 -0.08061272 -0.077491455 0.016632088 0.009268008
-0.00729686 -0.07229597 -0.07169316 0.019958764 -0.05873789 -0.07428322 0.054915078 -0.0611127
-0.025105268 -0.0144556835 -0.0581228 -0.0525913 0.014759459 0.016060524 -0.06701692 0.07943625
0.013831951 0.039942257 -0.01972849 0.08745838 0.035449 -0.06946258 0.06508776 0.05916039
-0.025583334 0.06282387 -0.07327552 0.003294535 0.06478501 0.009545401 0.059131004 0.0473656
-0.05334381 0.06507134 -0.017492652 -0.0056350827 -0.07019401 -0.082899995 0.07133662 -0.0042480677
-0.063860916 -0.028951503 -0.056364402 0.07876486 0.042672895 0.008684523 0.05660539 0.05423359
0.07669089 0.009409897 0.045700498 -0.05231151 -0.06455742 -0.028205525 0.022400215 0.012729779

rnn1.weight_hh_l0 f4 [128, 128]
00000000: b4e7 a6bc f778 93bd 31a4 a93d 218f a93d
00000010: 0773 90bd cac7 f7bc c496 aebc 50d3 acbc
00000020: 10c4 973b 1e78 8cbd 6ff9 8b3d 6df1 863d
00000030: ca35 3b3d 6abe 2d3d 5aae 703d 8c7d 9c3c
00000040: 3f60 a03d 5c02 b7bc a8dd 693c 3f27 893d
00000050: 7cd0 9bbc facc 5abd c296 773d c003 e53c
00000060: 4b21 ac3d 6298 1d3d 6c7e ea3c 503b b1bb
00000070: 0f63 9c3d 1008 0abc 6038 0a3b a85e b73c
00000080: e174 883d e1ab 97bd 9e07 623d 0070 7abb
00000090: 8099 5f3a 90c7 fb3c c0e7 95bd 1ed4 25bd
000000a0: d03b 30bc 2d11 9b3d 525d 10bd b874 bcbc
000000b0: 0e12 7f3d 8e2e 503d c6c0 1b3d 5846 70bd
000000c0: 61b7 b03d 1a2e 3f3d 9c05 81bd c22a 07bd
000000d0: fd69 b43d 5dc6 a23d a241 5e3d be81 24bd
000000e0: 7f7a 92bd 62ff 7e3d b8ab 0b3d 6d02 ad3d
000000f0: 0062 e1b9 2d09 a73d 30fc debb 505c 96bd
00000100: e8d7 bebc 41c2 abbd a061 053b 182b b4bd
00000110: 7459 adbc 8eeb 1f3d 8076 8bbc 8a79 91bd
00000120: 7004 e4bb 78d1 443c 4a58 543d e654 733d
00000130: 91a0 aabd 16e3 1c3d 97e2 68bd fe9c 8abd
00000140: 48af 2dbd ea7a 6a3d 027c 173d 5467 833c
00000150: 86c3 d9bc c0dd f23c 1086 3c3c 58d2 15bc
00000160: 50c3 bd3b 08f3 04bc b053 073c 90f7 d93c
00000170: e27f 3d3d 5156 903d d0ad d6bb e472 853c
00000180: 98ad 1a3c c447 af3c 5e80 ffbc 2b67 03bd
00000190: a236 4abd 8e5e 85bd 40eb 763b 4b88 89bd
000001a0: f789 ad3d b4bc 71bd 9054 3b3c 166c 09bd
000001b0: 1253 5b3d 8005 683a ed9a 58bd 270a 8dbd
000001c0: 4756 46bd 5080 73bc fa63 313d 8eb1 743d
000001d0: c029 6b3c 1ae7 4a3d 6894 943c 881d 74bc
000001e0: 50ce 32bd af7a 48bd c098 6e3b a024 da3b
000001f0: 9a4f 753d 4041 563b b0ab 16bc a1b9 a53d
00000200: cce7 f4bc 4088 aabb 024d 9bbd 2a3b 473d
00000210: e2d5 323d 80d5 febb 44e5 9a3c 9444 9abc
00000220: 3e85 103d 5510 95bd 46cd 183d d22e 713d
00000230: 44da af3c 48f6 9abc 02b2 30bd ed89 a2bd
00000240: edc2 10bd 637e 843d e0d9 a2bb 808b dcbb
00000250: 6c90 9dbc cadd 163d f6aa 8ebd e092 b3bc
00000260: 085b 7cbc f686 723d a2ef 693d 7d45 b0bd
00000270: f8e0 18bd 4340 7ebd 580e 78bd 7434 83bc
00000280: 31e4 973d a6ca 413d b8f6 ebbc a215 85bd
00000290: f0c2 7fbc 82c3 743d 9bab b3bd 0651 4e3d
000002a0: aaa1 593d b506 2abd 2245 04bd 2060 e33c
000002b0: 9725 1fbd 2ecf 413d fb8e 9b3d a67f 553d
000002c0: 967e 5e3d 26ef 26bd b8ed 59bc f45d 7bbd
000002d0: 046a e0bc 4868 bd3c aa48 503d e247 0d3d
000002e0: 868c 80bd c321 9f3d 069d 433d 6af9 483d
000002f0: e056 7fbb d54e 8c3d 125b 8abd 9022 26bc
00000300: d7dd 27bd 4237 433d cdf3 54bd f6e5 643d
00000310: e0c2 9c3c bdff 813d 96d4 6f3d 60d2 633c
00000320: 70b8 033d 1ff2 30bd 4ef2 233d 684a 053d
00000330: 865f 5c3d 2cc2 983c ad0d 3ebd 16e7 423d
00000340: 2c6e f9bc 96a5 52bd c80d 79bc 589d 6bbc
00000350: a26c 743d 7590 853d 0118 853d 5165 b03d
00000360: 0ce2 1fbd b6ed 6a3d c494 abbd 9c94 18bd
00000370: 45fb ae3d b3ab 963d bb05 9f3d da4d 1e3d
00000380: b12d 34bd d80f 1f3c 689f 033c b3b8 63bd
00000390: 1d06 85bd 1243 eabc 6fdd 20bd 6f09 2bbd
000003a0: fc31 67bd 2e73 363d a02c f6bc 24fa 7ebd
000003b0: 94fc e93c 0000 cdb7 89c0 8abd cefd 073d
000003c0: 84a2 89bd 98df bb3c d703 68bd 40b6 7d3b
000003d0: 75bd 9abd 2cce ac3c fc47 cabc fc2b 7abd
000003e0: c687 653d 208f d6bc 001b fe39 50f3 003d
000003f0: fe78 6e3d 54dc ec3c 2843 873c c543 913d
-0.020374157 -0.072008066 0.0828327 0.08279253 -0.0705319 -0.030246634 -0.021312125 -0.021096855
0.004631527 -0.06858848 0.06834685 0.06589017 0.045705594 0.04241792 0.058760025 0.019102834
0.078308575 -0.022339992 0.014274038 0.06696939 -0.019020312 -0.053418137 0.06044651 0.02795589
0.08404788 0.0384754 0.028624736 -0.005408682 0.076360814 -0.008424774 0.002109073 0.022384003
0.06662918 -0.0740583 0.055183046 -0.003821373 0.0008529648 0.030734807 -0.073195934 -0.040485494
-0.010756448 0.075716354 -0.035245247 -0.023004875 0.062273078 0.050825648 0.03802564 -0.058660835
0.08628727 0.046674825 -0.06299898 -0.03299976 0.08809278 0.07947991 0.05426181 -0.040162794
-0.071522705 0.06225527 0.03409931 0.08447728 -0.0004298836 0.08156047 -0.0068049654 -0.07341826
-0.023296311 -0.0838666 0.0020352378 -0.08797282 -0.021160819 0.039043 -0.017024279 -0.0710326
-0.006958537 0.012012832 0.05184201 0.059407137 -0.08331407 0.038302504 -0.056856718 -0.06768225
-0.04240349 0.057246126 0.036983497 0.016040482 -0.02658249 0.029646754 0.011506572 -0.009144388
0.0057911053 -0.008114584 0.008259699 0.026607305 0.046264537 0.070477135 -0.006551482 0.016290136
0.009440802 0.021396525 -0.03118914 -0.03208081 -0.04936851 -0.065121755 0.003767684 -0.06715449
0.0847358 -0.059017852 0.0114337355 -0.033550344 0.05354602 0.0008850917 -0.052882124 -0.06886702
-0.048422124 -0.014862135 0.043308236 0.05973964 0.014353216 0.049536802 0.018137172 -0.014899619
-0.043653786 -0.048945125 0.0036406964 0.006657198 0.059890367 0.00326927 -0.009196207 0.080920465
-0.029895686 -0.0052042305 -0.075830474 0.048640408 0.043661006 -0.007776916 0.01890815 -0.018831529
0.03528332 -0.07278506 0.03730514 0.058882542 0.021466382 -0.018916264 -0.04313851 -0.079364635
-0.035342146 0.06469419 -0.0049698204 -0.006730497 -0.019233905 0.03683261 -0.06966202 -0.021920621
-0.015402563 0.05921074 0.057113297 -0.08607004 -0.037323922 -0.062073004 -0.060560554 -0.016016223
0.07416571 0.0473124 -0.028804168 -0.06498267 -0.015610442 0.059756763 -0.087729655 0.05037024
0.05313269 -0.041510303 -0.032292493 0.027755797 -0.038854208 0.047316723 0.07595631 0.05212369
0.05431994 -0.040755413 -0.0133013055 -0.061368898 -0.027394302 0.023121014 0.050850548 0.03449238
-0.06276803 0.077701114 0.04775717 0.049065985 -0.0038961694 0.068509735 -0.067556515 -0.010140076
-0.040983047 0.04766012 -0.05199032 0.05588337 0.019135892 0.06347606 0.058552347 0.013905138
0.032158315 -0.043199655 0.040026 0.032541662 0.053802036 0.018647276 -0.04639976 0.047583662
-0.030448042 -0.051427446 -0.01520104 -0.014380775 0.059673913 0.065216936 0.06498719 0.086130746
-0.039033934 0.057355605 -0.08377984 -0.0372511 0.085440196 0.07356968 0.07764765 0.038648464
-0.043988887 0.009708367 0.008033611 -0.055596065 -0.06495307 -0.028596435 -0.039273676 -0.041757043
-0.056444153 0.044543438 -0.030050576 -0.06225027 0.028562821 -2.4437904e-05 -0.067750044 0.03320103
-0.067204505 0.022933766 -0.056644287 0.0038713366 -0.07555667 0.021094404 -0.024692528 -0.061077103
0.056037687 -0.026191294 0.00048466772 0.03148204 0.058220856 0.028913654 0.016511515 0.07093004

rnn1.bias_ih_l0 f4 [128]
00000000: 44bd f23c 4099 ec3b e0c0 0ebb ea00 98bd
00000010: e886 0c3d 8ce6 a7bd 6867 2abd 08aa e83c
00000020: 7223 6a3d 6cdd ab3c a4a7 be3c 8372 ad3d
00000030: b0f9 c03b 1012 bdbb 609e c13c b50e 17bd
00000040: 646b b93c d736 34bd 52df 5f3d 9c61 e93c
00000050: acac ce3c 169a f4bc e566 a1bd b812 2ebd
00000060: b161 af3d d040 8bbb 6769 af3d 80a8 8aba
00000070: d79d 933d a078 6a3c c86f c0bc 3c7d b33c
00000080: 8059 3abd d9c5 39bd 50ad 223c 24eb 9fbd
00000090: d31c 18bd b85d 7abc 0080 a6bd 1bb6 ab3d
000000a0: 702a a33c c565 76bd 44f1 81bc 94fb ca3c
000000b0: 40b2 023d d97d b2bd e8e6 08bc 4cd4 7bbd
000000c0: a58c b33d 0b4d 843d cad6 1a3d a00a d33c
000000d0: 01b0 00bd 164a 723d 708a eb3b 8331 58bd
000000e0: 6710 953d 486b d7bc fe37 383d fd62 a1bd
000000f0: 6ab1 2b3d 383b 78bd 98ce 153c 4c95 eabc
00000100: c392 813d 4aa2 72bd 60f6 56bd 602b 2dbb
00000110: b898 1fbc d1c3 b2bd a8bc 15bc bc1b e63c
00000120: 65e6 a83d 0f8c 99bd e01e 22bc 0079 f93b
00000130: 1b58 a0bd 2a3b 633d 34ca adbd 6cfb a5bd
00000140: 7e46 703d bd44 ab3d 10bf 17bc ea3f 463d
00000150: c77c b23d e790 803d 5575 a13d e082 663c
00000160: 9ecd 603d 0fd8 943d 4c2c 5abd b235 493d
00000170: d4e9 803c 9790 1cbd e5c7 8abd 4194 a83d
00000180: ec3d afbc b3ca 02bd 0b10 913d 6432 ea3c
00000190: 9636 483d 449e c0bc 2adc 4f3d 9e5b 1c3d
000001a0: f49c 55bd af5a 2fbd ca60 693d a5f5 3fbd
000001b0: 0a50 69bd d5b5 8fbd 724b 783d 008b 1e3a
000001c0: 80ce 2c3a bef7 f2bc 0e28 3a3d 502b 81bd
000001d0: 6b45 a13d 8b1c 9fbd da47 5c3d 7005 40bc
000001e0: 9828 1abc da49 003d 7046 b13c 3298 313d
000001f0: 7922 ae3d 72d7 7d3d 4349 8cbd 4e76 9ebd
0.029631265 0.0072204173 -0.0021782443 -0.07422049 0.034308344 -0.0819827 -0.041602522 0.02840139
0.05716271 0.020979606 0.023273297 0.08469107 0.00588914 -0.0057699755 0.02363509 -0.03687926
0.022634216 -0.04399761 0.054656334 0.028488927 0.02522882 -0.02985863 -0.07880954 -0.04249832
0.08563555 -0.0042496696 0.08565026 -0.0010578781 0.0720784 0.014310986 -0.023490801 0.021910302
-0.04549551 -0.045354698 0.009929016 -0.078085214 -0.037136864 -0.015281133 -0.08129883 0.08384343
0.019917697 -0.06015565 -0.015862115 0.024778165 0.031908274 -0.0871541 -0.008355834 -0.06148176
0.0876706 0.06460007 0.037802495 0.025761902 -0.03141785 0.059152685 0.007188134 -0.052781593
0.07278519 -0.026296273 0.044975273 -0.07880209 0.041917242 -0.06060335 0.009143494 -0.028635643
0.06326821 -0.059236802 -0.052481055 -0.0026423559 -0.009741001 -0.08728755 -0.009139217 0.028089397
0.08247069 -0.07497417 -0.0098950565 0.0076133013 -0.07829305 0.055476345 -0.08485833 -0.081045955
0.058660977 0.0836272 -0.009261861 0.048400797 0.08715206 0.06277638 0.078837074 0.014069289
0.05488359 0.072677724 -0.0532649 0.049123473 0.015736498 -0.03822383 -0.06776408 0.08231402
-0.021391831 -0.03193159 0.07083138 0.028588481 0.048880182 -0.023512967 0.050747074 0.03817331
-0.052151635 -0.042811092 0.05697707 -0.046865124 -0.056961097 -0.070171036 0.060618825 0.00060479343
0.000659205 -0.029659148 0.045448355 -0.06307089 0.078745686 -0.07769116 0.05377946 -0.011720046
-0.009409092 0.03132043 0.021640033 0.043358035 0.08502669 0.061973043 -0.06849911 -0.077374086

rnn1.bias_hh_l0 f4 [128]
00000000: 8d45 4abd 80ce 7aba 1ea8 8abd 90c2 59bc
00000010: 806e 473b 7618 6ebd 00e2 733c 1037 bf3b
00000020: 3861 7abd 910a b4bd 2075 6b3b 207d 483c
00000030: 50da 10bd 060e 7f3d 2252 403d a55d 53bd
00000040: b0eb 81bc 86ff a0bd c088 2ebd 458b a53d
00000050: dcb1 82bc c00c 363b 5086 e93c 7ebf 003d
00000060: d54b 0cbd 9d1c a13d 4236 403d 09fb 82bd
00000070: de92 753d 80b4 aeba d40e d6bc 448d 9bbc
00000080: 8c43 ce3c 40ab 2cbb 608d b4bd d0ca 51bd
00000090: b8b1 683c 8a6d 58bd 4ca2 903c eb62 52bd
000000a0: f094 da3c 817a b23d 5018 073c 461c 7abd
000000b0: 5e57 90bd f20d 503d ced6 20bd 5947 b33d
000000c0: 5f72 903d b045 e1bb b703 9e3d 9400 debc
000000d0: 9542 45bd 9ed6 4b3d 139e 8f3d b1db a73d
000000e0: 047e 86bc 50f8 8dbb 7003 2f3c f0ff 8d3c
000000f0: 1a1f a6bd 1669 5b3d af4b 65bd cd3f adbd
00000100: 789c 1abd cbe8 24bd 7fd9 49bd c1d0 8d3d
00000110: 2821 24bc e0c4 473c cb4e 923d 907e a6bd
00000120: 2174 a0bd f8d3 8c3c 7c22 b13c e412 98bd
00000130: 0029 623b 500f 42bd 60cb 2c3b d1d1 913d
00000140: 8693 2b3d b083 cf3b 7625 81bd 58ed 26bc
00000150: bc14 adbd d19d b4bd 9672 febc 3080 9bbb
00000160: db2e ab3d 50ee f2bb d7e4 5abd 9896 2cbd
00000170: a5aa 72bd 6f66 9f3d 2173 983d 7f13 ac3d
00000180: 6014 9c3b 1290 6f3d ccb6 acbc c009 c9bc
00000190: 57d0 3cbd e3d3 59bd 0fb8 af3d ba65 5c3d
000001a0: 7ef7 fbbc 7095 433c 565d 9abd 5880 adbc
000001b0: 1086 bfbb 90a1 babc 45d0 af3d 0e7d 223d
000001c0: 70da 99bc 1c03 19bd 5c40 d1bc 971e 3cbd
000001d0: d46f c2bc 60ca c53c b873 f0bc 0244 593d
000001e0: 6a97 513d a722 ac3d d7ed 95bd ad26 9d3d
000001f0: 0748 2ebd a8bc a7bc a0f9 45bc e3fe b43d
-0.049382735 -0.0009567514 -0.06770347 -0.013291016 0.0030430853 -0.058128797 0.014885426 0.0058354214
-0.06112787 -0.08791078 0.0035927966 0.012236863 -0.03536445 0.062269233 0.046953328 -0.05160298
-0.015859455 -0.07861237 -0.042610884 0.08083204 -0.01595395 0.0027778596 0.028506428 0.03143262
-0.034252007 0.07866786 0.046926744 -0.063955374 0.059954517 -0.001332894 -0.026130117 -0.01898826
0.025178693 -0.002634719 -0.08816028 -0.051218808 0.014202528 -0.05283884 0.017655514 -0.051363867
0.026682347 0.08714772 0.008245543 -0.06106212 -0.07047914 0.05079455 -0.039267354 0.08753843
0.070530646 -0.0068747625 0.07715552 -0.027099885 -0.0481592 0.04976522 0.07012572 0.081962
-0.01641751 -0.0043325797 0.010681972 0.017333955 -0.08111401 0.053567015 -0.05598038 -0.08459435
-0.037746876 -0.04026107 -0.049279686 0.06924582 -0.010017671 0.012192935 0.07143935 -0.08129609
-0.0783465 0.017190918 0.021622889 -0.07425478 0.0034509301 -0.047377884 0.0026366338 0.071200974
0.041888736 0.006332837 -0.06305973 -0.010188423 -0.084512204 -0.088191636 -0.031060498 -0.0047455058
0.08358546 -0.007413663 -0.053440895 -0.042135805 -0.05924477 0.077832095 0.07443834 0.08402156
0.004763171 0.058487006 -0.021083258 -0.024540782 -0.046097126 -0.053180587 0.08580028 0.05380795
-0.030757662 0.011937484 -0.07537334 -0.021179363 -0.005844839 -0.022782117 0.08584646 0.039670043
-0.018780917 -0.03735648 -0.025543384 -0.04592761 -0.023734964 0.024144351 -0.029352054 0.053043373
0.05116979 0.08405047 -0.07320755 0.076733924 -0.04254916 -0.0204757 -0.012083441 0.08837678

rnn2.weight_ih_l0 f4 [128, 128]
00000000: f20c f1bd 99f9 523e 4a2e 113e 50f9 25be
00000010: f158 2ebe 7634 2bbe 8840 a9bd b8c8 7c3e
00000020: 4e33 643e b14e cf3d d8d0 36be baf3 1f3e
00000030: 052e 523e 2cfd 4bbe 6969 59be b023 c0bd
00000040: 89d5 12be b821 0b3e 1d9b d8bd a276 0f3e
00000050: c18a 76be cedf 6ebe 4180 393e 7690 743e
00000060: 80cd 60be 7157 ea3d 7cf9 0bbe e434 d8bd
00000070: a11a cfbd 31c2 26be 3484 413e 8d51 5fbe
00000080: 01bf 313e 546b d7bd 47ad d73d 431b 2a3e
00000090: 4e83 2e3e 1243 26be 3a81 d83d 9248 74be
000000a0: fe85 553e 6bea 41be 6459 abbd 33b9 19be
000000b0: e20a b9bd cdad 163e e6c5 4f3e 0739 c6bd
000000c0: 0c5b 483e cd16 fbbd 30e3 1abe 0d0e cc3d
000000d0: fb0a 063e d082 263e 179e cd3d 9715 d1bd
000000e0: fc95 633e b27b 803e 56c5 64be 7dfd fbbd
000000f0: 2bc7 69be 29ec 83be c385 70be dbb1 223e
00000100: 4ff9 513e e0ef 283e 7ae2 e53d 5a9e 593e
00000110: aa10 babd a79a 3bbe daee 2c3e 1093 5ebe
00000120: 22bc 813e 69ad 30be 002b 133e 0a42 4ebe
00000130: bd78 143e 35ac d1bd f2d4 4f3e b761 393e
00000140: b853 2f3e 76e9 82be ee11 2e3e 17fa 22be
00000150: 19e2 003e 6e1c 6cbe 2573 a73d 26cf 5d3e
00000160: 21c0 7fbe 8129 483e c193 793e d6e5 30be
00000170: a6eb 7abe a43d 293e 15b0 103e 224d 6abe
00000180: 5edb 0e3e 23b9 d13d da0b 273e af4e 513e
00000190: 9fd7 75be 9a4f b6bd 8faa 303e 8629 f43d
000001a0: b083 663e 78bd e93d 22d1 6b3e 5f9e 2a3e
000001b0: 3705 6cbe 4a66 603e 9d7a 52be 8d4b 4cbe
000001c0: c3a9 793e 5ebb ac3d f73b 543e 7bb4 603e
000001d0: 00ae 80be 4979 eb3d 743e e5bd eb73 3abe
000001e0: d8db 2bbe 64b5 3cbe 3bfa 713e 67f7 81be
000001f0: de79 1d3e 1d7d 3f3e 9142 083e 486a 153e
00000200: 14ea 0e3e b21d 3cbe f204 d5bd 456f 1b3e
00000210: 19b8 003e 540d 3d3e 8cb0 753e 4e13 32be
00000220: ff22 e4bd 2f81 26be f136 713e fde8 75be
00000230: 8c2c 61be cde1 733e 8e63 c53d 1fbc 703e
00000240: efe7 043e 4d8c 08be 9b02 0a3e 90c7 61be
00000250: e328 d43d 99d8 663e f7a6 16be 8a7c c0bd
00000260: cf10 d43d f7be f9bd eb2c d53d 092c fb3d
00000270: afe6 6d3e dc49 723e 4d76 ffbd 429d 293e
00000280: 81b9 73be 3c99 0d3e af54 7dbe c93c 80be
00000290: a919 1abe 67e3 243e c937 f2bd 9ed3 7c3e
000002a0: 4a4b 2cbe a35e bf3d 75b5 5c3e d77b 673e
000002b0: 1ced 153e 418a 08be e0a9 7abe c870 e63d
000002c0: 9eb1 14be 5a56 1b3e 553f 4b3e 04b7 57be
000002d0: 01b9 f0bd 26f8 74be d812 2fbe dcf0 573e
000002e0: e076 c3bd dad0 4ebe b4fb 4c3e 1ca9 563e
000002f0: 4564 aa3d c5ff bb3d 3e14 6f3e f9dc c7bd
00000300: 8528 18be ffc6 01be 2229 c9bd 57de 3fbe
00000310: d5ad 723e a33c 403e 6059 d4bd 283b 353e
00000320: f21a e2bd 62fd 353e 8e5e 3bbe 41fe 143e
00000330: b1b0 2dbe d708 5e3e 8e75 a8bd 14b0 61be
00000340: 8c24 03be 8efa 4f3e e17c 57be 3357 813e
00000350: a2dd 64be 7f79 493e 6657 eabd fe5f d9bd
00000360: b24e 5f3e b919 dabd af44 28be 6ad3 dd3d
00000370: 2ccd 623e 4bbb 17be cbfc 75be 335c f23d
00000380: b9a0 4fbe 71a5 fbbd 3c43 04be 76c9 05be
00000390: 6f0f 383e 9dab 343e 8cdf 25be 2cc9 50be
000003a0: fae2 5abe b5e6 21be c1a3 aebd e3ea 21be
000003b0: 14ee 513e 78b9 41be 91bf 313e f9d9 623e
000003c0: 5310 eabd 57a3 e9bd 3ac4 5abe 7c69 2ebe
000003d0: a4dc 733e a131 9ebd 8d6d 383e d3c2 2f3e
000003e0: 81a2 3f3e 4d44 3b3e 390a 50be dd66 6d3e
000003f0: 5753 2cbe 0b8b 51be c4f3 17be fd41 7ebe
-0.11770047 0.20603026 0.14177814 -0.16208386 -0.17026116 -0.16719231 -0.082642615 0.24685943
0.22285196 0.10122431 -0.17853105 0.15620318 0.20525368 -0.19920796 -0.21231617 -0.09381807
-0.1433927 0.13587081 -0.105764605 0.14010099 -0.24076368 -0.23327562 0.18115331 0.23883232
-0.21953392 0.114424594 -0.1366939 -0.10556963 -0.10112501 -0.16285016 0.18898088 -0.21808453
0.17358018 -0.10518518 0.10531097 0.16611962 0.17042276 -0.16236523 0.10571523 -0.23855808
0.20851895 -0.1893708 -0.08366659 -0.15012054 -0.09035279 0.14714737 0.20290336 -0.09678846
0.19565982 -0.12260208 -0.15125728 0.099636175 0.13090126 0.16260839 0.10039919 -0.10209196
0.22225183 0.25094372 -0.22340903 -0.123042084 -0.22829883 -0.25766113 -0.23488526 0.15888159
0.2050526 0.16497755 0.112248376 0.21251813 -0.0908521 -0.18320714 0.1688799 -0.21735787
0.25338846 -0.1725365 0.14371872 -0.2014238 0.14499183 -0.10237924 0.20296076 0.18103682
0.1712178 -0.25568742 0.16999027 -0.15915714 0.1258625 -0.2305772 0.08176259 0.21661052
-0.24975635 0.19547082 0.2437277 -0.17275175 -0.24503955 0.1652742 0.1412967 -0.22880986
0.1395087 0.1024039 0.16313115 0.20440172 -0.24008034 -0.089019015 0.17252563 0.119219825
0.22511172 0.114130914 0.23028997 0.16661976 -0.23048864 0.2191402 -0.20554586 -0.19950695
0.24381165 0.08434175 0.20726 0.21943848 -0.2513275 0.11497743 -0.111935526 -0.18208282
-0.16783082 -0.1842857 0.23630612 -0.25384066 0.1537852 0.1870007 0.13306643 0.14591324
0.13956481 -0.18370703 -0.10401334 0.15179165 0.12570228 0.18462116 0.23993129 -0.17390177
-0.111394875 -0.16260217 0.23556115 -0.24014659 -0.2198965 0.23816605 0.09638129 0.23509263
0.129791 -0.1333477 0.13477556 -0.22048783 0.10359361 0.22543563 -0.1471213 -0.09398754
0.103547685 -0.12194627 0.10408958 0.122642584 0.2323253 0.23660988 -0.12473736 0.16563895
-0.23801233 0.13827986 -0.24739335 -0.25046375 -0.15048851 0.16102372 -0.118270464 0.246901
-0.16825595 0.093442224 0.21553595 0.22605835 0.14641231 -0.1333399 -0.24478865 0.1125198
-0.1452088 0.1516966 0.19848378 -0.21065909 -0.11754037 -0.23922786 -0.17097032 0.21087974
-0.09544158 -0.20196858 0.20017892 0.20962948 0.08319906 0.091796435 0.23347566 -0.09758944
-0.14859207 -0.12673567 -0.098222986 -0.1873716 0.23699124 0.18773131 -0.103686094 0.17698348
-0.11040296 0.17772439 -0.18297789 0.14550115 -0.16961934 0.2168306 -0.08225547 -0.22039825
-0.1280691 0.20310423 -0.21043731 0.2526184 -0.22350171 0.19675253 -0.11442451 -0.10614012
0.21807364 -0.106494375 -0.1643245 0.1083134 0.2214858 -0.1481754 -0.24022214 0.11833992
-0.20276155 -0.12287415 -0.12916273 -0.13065132 0.17974637 0.1764359 -0.16198558 -0.20389241
-0.21375647 -0.15810664 -0.08527327 -0.15812258 0.20500976 -0.18918407 0.17358233 0.22153462
-0.11428895 -0.11408108 -0.21363917 -0.17032427 0.23814636 -0.0772431 0.1801054 0.17164163
0.18714334 0.18287773 -0.203164 0.2318377 -0.16828667 -0.20463197 -0.14839083 -0.2482986

rnn2.weight_hh_l0 f4 [128, 128]
00000000: 6d22 843e 146d 66be 6b94 e1bd a2d1 bf3d
00000010: 4e5f e0bd 40de 173e 54ae 343e 5808 3a3e
00000020: 0ef1 2d3e 185b cfbd 32c7 6ebe 4cc9 abbd
00000030: ca2c 66be 487c 303e db3c 58be 0818 debd
00000040: 1371 d83d a4fd 61be 5a7a febd a1d7 2bbe
00000050: 06f2 493e ea77 56be 0e40 5d3e e4f3 82be
00000060: 05bb 28be 4410 3a3e 0e0d eebd ac1e 2a3e
00000070: 47d1 dd3d df77 2d3e 5172 393e 649d 583e
00000080: 094c 153e afb8 e7bd 254a 4abe 4a70 653e
00000090: ff04 d9bd ee4f 07be 84c5 013e 961f 443e
000000a0: 3e81 55be 6646 f33d deb7 47be 8536 7a3e
000000b0: 22b1 b0bd a54c 3fbe 934f 2d3e 35f3 cebd
000000c0: 774c 553e 08f7 d9bd 7985 42be 3523 7bbe
000000d0: 5f76 4d3e c843 06be 7659 5b3e 54fe f1bc
000000e0: 2bfc 233e 97ee adbd 0a0e 7dbe ce58 cabd
000000f0: df81 023e 1198 5d3e cc9d 81be f782 513e
00000100: efbe c3bd e09e 09be 139c debd 0ed5 5d3e
00000110: d4b5 3e3e efe9 5abe 2ecd 2e3e 35c7 49be
00000120: 5f11 4bbe fc6e 573e 63a3 643e ae23 383e
00000130: 9a38 dc3d f9f4 203e 9aec d1bd c9a8 79be
00000140: 73c9 b4bd 34f3 4abe d2aa 4cbe 1e00 5b3e
00000150: 1ebd 1b3e bd0c 65be e641 4d3e 3cff 6f3e
00000160: cffb 633e 9ec0 513e 1c6e 17be 341a bf3d
00000170: 9419 4fbe 53e1 773e cedb 2c3e 2b84 153e
00000180: a04f 0cbe 83b9 2e3e d2b3 2e3e 6996 c23d
00000190: 4efa 723e 7c40 6fbe ec35 623e 0d28 383e
000001a0: 3509 bf3d 9213 f93d 3954 b9bd 1f8d e2bd
000001b0: 712c 613e d615 0dbe ccc5 0f3e 9a65 003e
000001c0: b443 143e 0056 27be fc4b 77be b95e f3bd
000001d0: 5973 15be b19d 42be 41bb 6bbe 9e6a ebbd
000001e0: 06d7 6a3e 836d b93d cacf e53d 2066 0dbe
000001f0: c512 553e 26b7 44be 8290 073c c6cd c3bd
00000200: e878 14be ba3d a83d df41 7e3e bc1e 02be
00000210: 56ad 1f3e f17d 65be 0d71 f6bd f79a 4dbe
00000220: 9a1d 6fbe 2ea3 9d3d 22c5 173e 3dc7 0a3e
00000230: 5e3f b23d 047c 3fbe 986e 203e 8645 323e
00000240: 7d94 ebbd d16c 123e c204 4c3e f468 a63d
00000250: c872 26be de7f 083e 56a9 2cbe 9f6d 793e
00000260: dfb7 403e 40a5 36be ab7f 7a3e dd89 c1bd
00000270: 3783 22be 3747 30be aa9f ffbd 823e 78be
00000280: 22a0 dcbd 37ff ab3d 971f f13d 621e 19be
00000290: c55c 6e3e 2dae b63d 8573 1abe 2d71 3fbe
000002a0: 454c 663e bbf2 81be 8a65 1a3e baf0 d2bd
000002b0: e2cb 5d3e 7a7b 533e a9a9 64be 76a4 233e
000002c0: 16f2 56be ec82 d73d 0cf8 533e 6155 4c3e
000002d0: 4c1e 233c 4907 133e f3b5 63be 3ff5 f53d
000002e0: 948a 4fbe 469a 4b3e 9bb6 663e bf59 113e
000002f0: 6437 1abe 162c 67be ed41 ed3d b0e8 3fbe
00000300: 9d95 5d3e 2183 2a3e b586 d93d 9083 81be
00000310: 4e55 20be 96c3 e83d 00b8 20be a9ac 7e3e
00000320: 0e90 713e 5cea 1fbe e45e d9bd 1a26 e3bd
00000330: 6008 77be 8065 1cbe 4dac 023e a6d3 263e
00000340: cb31 043e 4552 523e f7a9 de3d c494 f3bd
00000350: 222b 5dbe c80e 6b3e 613c 63be 8fda 2bbe
00000360: 6dd5 71be f623 7bbe d684 673e 783b 5cbe
00000370: e150 253e 2d0f 53be dcf5 6abe 95b9 b5bd
00000380: 737c bc3d c21f 02be d8a5 4abe 3f13 173d
00000390: a93d d3bd 6835 d13d 3ab8 61be 3f5c 813d
000003a0: 1ee6 b5bd 3067 61be b10d 0e3e c3a3 5f3e
000003b0: d87c 7dbe f2a5 9f3d 9d8f 5dbe 9c16 3bbe
000003c0: 76f4 613e 0190 5a3e 72dc d13d 2442 543e
000003d0: 1457 233e 18ff 7c3e 7675 7b3e 3b91 ff3d
000003e0: 6db7 74be fd2d 7bbe 8953 edbd 66bd 403e
000003f0: f928 febd ade0 7f3e 8d15 97bd e166 423e
0.25807515 -0.22502548 -0.110146366 0.09366156 -0.10955678 0.14830875 0.17644626 0.18167245
0.16986486 -0.10124797 -0.23318174 -0.08388004 -0.22478023 0.1723491 -0.21116965 -0.10844427
0.10568442 -0.22069412 -0.124256805 -0.16781475 0.19721231 -0.20944181 0.21606466 -0.255767
-0.16477592 0.18170267 -0.11623584 0.16613263 0.10830932 0.16940258 0.18110014 0.2115379
0.14579786 -0.113145225 -0.19754846 0.22406116 -0.10596656 -0.13214085 0.12673002 0.19152674
-0.20850083 0.11878662 -0.19503734 0.2443486 -0.086275354 -0.18681581 0.16924886 -0.10104982
0.2082995 -0.106428206 -0.18996228 -0.24525149 0.20064686 -0.13111794 0.21420845 -0.029540218
0.16014163 -0.08492773 -0.24712387 -0.098802194 0.12744854 0.2164004 -0.25315702 0.20460115
-0.09557902 -0.13439512 -0.108696125 0.21663305 0.1862405 -0.21378301 0.17070457 -0.19704898
-0.19830845 0.21038431 0.22327952 0.1798236 0.107529834 0.1571845 -0.10250206 -0.24380793
-0.08827486 -0.19819337 -0.19987038 0.21386763 0.15208861 -0.2236814 0.2004467 0.23437208
0.22264026 0.20483634 -0.14788097 0.0933117 -0.20224601 0.24207048 0.16880724 0.146012
-0.1370225 0.17062955 0.17060784 0.09501345 0.23728296 -0.23364443 0.22090882 0.17984028
0.09327928 0.12161936 -0.09049267 -0.11062073 0.2198961 -0.13777861 0.14040297 0.12538758
0.14478952 -0.163414 -0.2415008 -0.11883301 -0.14594783 -0.19005467 -0.2302065 -0.11494945
0.22933587 0.09054091 0.11221273 -0.13808489 0.20807941 -0.1921049 0.008274199 -0.095607325
-0.14499247 0.082148984 0.24829815 -0.12707037 0.15593466 -0.22411324 -0.120332815 -0.20078646
-0.23351136 0.0769714 0.14821294 0.13552566 0.087034926 -0.18699652 0.15667188 0.17409334
-0.11502931 0.14299323 0.1992369 0.08125487 -0.16254723 0.13330027 -0.16861472 0.24358223
0.18820141 -0.17836475 0.24462764 -0.094501235 -0.15870367 -0.17214666 -0.124816254 -0.24242595
-0.107727304 0.08398288 0.117736034 -0.14952996 0.23277576 0.0891994 -0.1508313 -0.18695517
0.22490032 -0.253805 0.15077797 -0.10299821 0.21659806 0.20652571 -0.22330345 0.15980706
-0.20990786 0.10523018 0.20700091 0.19954444 0.009955954 0.14358248 -0.22237377 0.120096676
-0.20267707 0.1988307 0.22530596 0.14194392 -0.15060192 -0.22575411 0.1158484 -0.18741107
0.21639104 0.16651584 0.106213965 -0.25295687 -0.15657541 0.1136543 -0.1569519 0.24870552
0.23590109 -0.15616745 -0.10613802 -0.11091252 -0.24124289 -0.15273094 0.1276104 0.16291675
0.1290962 0.20539196 0.10872262 -0.11893609 -0.21598485 0.22954857 -0.22191001 -0.16782592
-0.23616572 -0.24525437 0.22609267 -0.2150706 0.16144134 -0.20611258 -0.2294535 -0.088732876
0.09203424 -0.12707427 -0.19789827 0.03688359 -0.10314495 0.102152646 -0.22042933 0.06316423
-0.08881782 -0.22012019 0.1387241 0.21839814 -0.24754655 0.077953234 -0.21636815 -0.18270344
0.2206591 0.21343996 0.10247125 0.20728356 0.15951186 0.24706686 0.24556527 0.124788724
-0.23898096 -0.24529262 -0.11588199 0.1882225 -0.12410159 0.24988051 -0.07377157 0.18984558

rnn2.bias_ih_l0 f4 [128]
00000000: f15a 763e 58b7 1dbe 88f2 fb3d 9396 683e
00000010: f67d 71be f30e b23d 9be8 e53d 1cbf 593e
00000020: 4e80 5b3e ce5b 093e 5167 f8bd 2cb4 c6bd
00000030: 1e1b 49be e3d4 643e 05ad c6bd a511 1dbe
00000040: d464 da3d d9d3 5dbe 61de d8bd 5004 413e
00000050: 0be8 01be c52e a3bd d6bf ad3d 0e03 3abe
00000060: 8d94 d5bd c89f 143e fa20 bfbd 1dc1 003e
00000070: f48c 603e 8d06 583e 8614 143e eaf0 173e
00000080: 2e8d ef3d 1596 0fbe 4dce 4cbe 90f8 5c3e
00000090: ba5f eabd 61ff 43be 95d6 733e 3ab8 75be
000000a0: 49fe 01be 49f4 003e 8cfb 77be c7eb aa3d
000000b0: 16cd 16be d0a2 f3bd 1ba7 043e 5559 7dbe
000000c0: 1f4d dd3d 95ea 70be 86d1 40be 2000 83be
000000d0: 9389 19be a397 60be 93b2 4e3e e279 4b3e
000000e0: 7d67 833e d889 6fbe 338d 13be 3b07 d8bd
000000f0: 30ff 763e 544a 213e 852a 33be fe9c ab3d
00000100: d82b 2abe bb49 713e aa5e 03be ca8b 423e
00000110: 95e4 753e 75a7 47be 93a5 5f3e 2d4d 0abe
00000120: 2b71 59be 7020 5f3e 2b79 f63d b6ce 803e
00000130: 0ae5 733e c11d 4d3e 5751 48be b772 75be
00000140: 9738 17be 4273 82be d1c7 27be 7a4e 553e
00000150: 3f77 7f3e 69d4 4bbe 70b5 a73d 78de 7e3e
00000160: 7211 e63d a2ba 573e c7c7 6dbe cd80 3e3e
00000170: 8202 83be 1f1a 0c3e c7da 803e 20b7 543e
00000180: 7721 48be b7fe 303e e0c8 2b3e 28d5 253e
00000190: 03f6 2c3e 6841 7cbe 81c5 7b3e 90dc 4ebe
000001a0: 0705 763e 7453 523e 4018 abbd 02c3 63be
000001b0: b548 7e3e 0246 083e 0336 393e 4337 733e
000001c0: 76e6 fd3d 7fc7 61be 36f1 033e 5d80 b9bd
000001d0: 4ee1 d9bd ce47 7bbe 4627 16be eda8 433e
000001e0: 6f02 b43d d425 2b3e 3378 803e 7b87 4bbe
000001f0: 402f 223e 09ec 54be 2926 283e fee2 5bbe
0.24058129 -0.15401971 0.123021185 0.2271369 -0.23583207 0.086942576 0.112260066 0.21264309
0.21435663 0.13413927 -0.12129081 -0.09702334 -0.1963925 0.22346835 -0.097009696 -0.15338762
0.10663763 -0.21662845 -0.105892904 0.18849301 -0.12686174 -0.07967905 0.084838554 -0.18165228
-0.104287244 0.14514077 -0.09332462 0.12573667 0.2192877 0.21096249 0.14460954 0.14837995
0.1169685 -0.14022096 -0.20000573 0.21579194 -0.1144404 -0.19140388 0.23812325 -0.23996058
-0.12694658 0.12593187 -0.24217051 0.08345752 -0.14726672 -0.118962884 0.1295437 -0.24741109
0.10805725 -0.23526986 -0.18829927 -0.25586033 -0.14993887 -0.21932845 0.20185308 0.19870713
0.25664893 -0.23392427 -0.14409332 -0.10548254 0.24120784 0.1575101 -0.17496689 0.08379553
-0.16618288 0.23563282 -0.1282908 0.18998638 0.24012978 -0.19497474 0.21840505 -0.13506003
-0.21234576 0.21789718 0.1203483 0.25157708 0.2381784 0.20030881 -0.19562279 -0.23969541
-0.14767681 -0.2547856 -0.16384818 0.20830718 0.24947833 -0.19905247 0.08188903 0.24889553
0.11233796 0.21067289 -0.2322074 0.18603821 -0.2558785 0.1368184 0.25166914 0.20772982
-0.19544016 0.17284666 0.16775846 0.16194594 0.16890721 -0.24634326 0.2458706 -0.20201325
0.24025355 0.20539647 -0.08354235 -0.22242358 0.24832423 0.13307956 0.1808701 0.2375155
0.123974726 -0.22048758 0.12884983 -0.090576865 -0.106386766 -0.2453911 -0.14663419 0.19107409
0.08789527 0.16713649 0.25091705 -0.198759 0.15838337 -0.20793165 0.16420807 -0.2147331

rnn2.bias_hh_l0 f4 [128]
00000000: c322 cf3d a943 bbbd f30d 1a3e 2ece 3b3e
00000010: 4804 4cbe 3045 a23d bea5 163e 190c 1b3e
00000020: 68c2 0d3e 0b18 833e b450 52be 6672 4abe
00000030: 18f0 78be a1eb 0d3e 0f95 2abe 583b 70be
00000040: ff25 7e3e 53a8 39be b0bd 6dbe b672 093e
00000050: 324b 22be 7a99 81be 1f5a 123e 4ec0 0abe
00000060: 1ed5 15be f823 573e 34c0 66be 628e 073e
00000070: f61b 803e 68b2 513e 152b 1e3e 3d25 3c3e
00000080: 5e0e 1a3e 70ce 59be ea50 52be 3a79 533e
00000090: 44a5 12be 8a48 1abe 22bf 4b3e c204 6fbe
000000a0: 11a2 2abe 9f20 1e3e 1e3f 78be 11d6 403e
000000b0: a0b8 17be 803e e2bd ff89 d43d 3f47 57be
000000c0: ea4d 603e eabb b1bd 7c6c 6abe dbb1 81be
000000d0: 786c b7bd c474 bbbd 069e 753e 300f 683e
000000e0: d7bb 293e 9fb0 76be a87c e0bd 70eb 47be
000000f0: 4b60 713e 874a 3e3e 85bd 06be c54f 293e
00000100: b41c 7dbe 9dc5 693e 4a88 7bbe 77c6 823e
00000110: ca96 033e ea8e 04be dc50 b93d c9dc 03be
00000120: c872 0fbe 7308 823e c06a 1d3e 6601 5f3e
00000130: 2c56 543e 3228 c03d 5a24 69be d1f9 5cbe
00000140: 1fb2 57be af27 27be 5fbb cabd 597e 2d3e
00000150: cc37 4e3e dd9e 50be 739f 7b3e 81ff bf3d
00000160: 34c5 123e d057 313e 8b7c 22be 76a8 813e
00000170: 26e0 0bbe f0d6 6f3e 53b7 683e 72ce 033e
00000180: 8f9b 7bbe a94c 4f3e ffe7 e93d b7fd 113e
00000190: dffd 1c3e 82f6 05be 015c 563e 65c5 0bbe
000001a0: 0661 d03d 77af b53d 698c 66be 7923 04be
000001b0: 1cf8 603e d5e0 a43d bef6 623e 6572 d13d
000001c0: c9e2 213e a7c8 0fbe cc8d 3c3e bf54 41be
000001d0: b0bf 5dbe 97e8 f1bd 16f3 49be b100 6f3e
000001e0: 56af d53d 964e 473e 12d1 d43d 522c 7bbe
000001f0: 1638 b43d 95ec 30be 37fe 633e 7059 e5bd
0.10114052 -0.091437645 0.15044384 0.1834037 -0.19923508 0.07923353 0.14711663 0.15141334
0.13843691 0.2560428 -0.20538598 -0.19770202 -0.24310338 0.13859417 -0.16658424 -0.23460138
0.24819182 -0.18130617 -0.23216891 0.13422665 -0.15848997 -0.25312406 0.14292191 -0.13549921
-0.14632079 0.21009815 -0.22534257 0.13237908 0.25021333 0.20478213 0.15446122 0.1837358
0.15044543 -0.21270156 -0.20538679 0.20651713 -0.14320856 -0.15066734 0.1989713 -0.23341659
-0.16663386 0.15442131 -0.24242827 0.1883166 -0.14816523 -0.11047077 0.10377883 -0.21023272
0.21904722 -0.0867842 -0.22892946 -0.25331005 -0.08956236 -0.09153131 0.23986062 0.22662044
0.16575561 -0.24090813 -0.10961276 -0.19523406 0.23571889 0.18583117 -0.13158233 0.16534336
-0.2471798 0.2282929 -0.24563709 0.25542042 0.1285049 -0.12945142 0.09048626 -0.12877192
-0.1400863 0.2539707 0.15372753 0.21777877 0.20735997 0.09382667 -0.22767773 -0.21579672
-0.21064042 -0.16323732 -0.098990194 0.16942729 0.20138472 -0.20373102 0.24572544 0.093749054
0.1433304 0.17318654 -0.15867822 0.25323838 -0.13659725 0.23421836 0.22726183 0.12871721
-0.2457106 0.20244087 0.11421203 0.14256941 0.15331219 -0.13082317 0.20933534 -0.13649519
0.10174756 0.08871358 -0.225145 -0.12904157 0.21969646 0.08050696 0.22164437 0.10226897
0.15809168 -0.14041387 0.18413466 -0.18879984 -0.21655154 -0.11811941 -0.19721636 0.23340108
0.10433833 0.19463572 0.103914395 -0.24528626 0.0879976 -0.17277749 0.22264944 -0.111986995

dense_layers.0.weight f4 [128, 128]
00000000: bd0f 07be bc23 2a3e 3441 bf3d 639f ca3d
00000010: 78a0 ac3d 656c 73be 394e 09be 7924 f93d
00000020: 3489 56be 37f1 403e 5672 013e 6ff3 2ebe
00000030: 1835 4e3e e3d8 79be d433 38be 47f3 ab3d
00000040: 645e 1dbe 31e9 403e 7641 733e c85f 763e
00000050: 1a3e 213e 7a80 263e 2cc1 0abe 3aac c43d
00000060: 5b65 1f3e 57d8 0dbe f1b7 133e 3392 49be
00000070: 5aab 043e 0798 b6bd 2947 48be 819a 7abe
00000080: 04da f83d 7d74 08be 7d62 a6bd e728 3dbd
00000090: f189 a9bd 3915 22be cba5 12be f227 703e
000000a0: 87c3 99bd c287 4fbe 009a aa3d 5666 fdbd
000000b0: 627b 713e 999a 9abd b0f4 62be b336 313e
000000c0: 8378 41be cdd9 203e 24b1 00be 52c3 5d3e
000000d0: f588 e9bd 36b2 5a3e 54f3 0dbe 85c0 67be
000000e0: 656a 213e f5d7 9f3d fa46 003e 2490 213e
000000f0: fc2b 7f3e 916e 3abe a401 6d3e 71be ab3d
00000100: ee52 be3d d0ea c03d 2002 473e 21c2 9dbd
00000110: cf99 0dbe 3d89 b6bd e069 eebd 3a40 6f3e
00000120: a776 393e 4389 febd 25b9 1abe fd80 40be
00000130: a3ab 43be a321 a4bd 468e 1f3e 23c4 423e
00000140: 6bd5 5a3e 4300 563e 6a8b 303e 956e 01be
00000150: 1a0d 53be c71f f43d b2a6 793e 2c60 76be
00000160: 6a27 37be 52e9 11be 9177 cc3d 57f0 52be
00000170: 31a9 323e 14c8 3d3e 1378 eebd 0ac7 28be
00000180: 4ef2 4cbe bb75 26bd ade3 50be 83b0 7e3e
00000190: c1b3 2ebe 5966 773e f35c 13be 5c27 b9bd
000001a0: da10 bf3d 4f0c 363e 8774 313e 478b 513e
000001b0: 2b28 5abe c20a 353e 86ea 73be 93da 033e
000001c0: 71ef e7bd 43aa 5e3e 2e32 c83d 3a60 bb3d
000001d0: 84b5 b23d a354 463e aa39 233e b002 a93d
000001e0: 159b 01be 4662 55be 1672 a0bd 3dce 1a3e
000001f0: bf9e e8bd 6d03 093e fc08 59be de7b ec3d
00000200: ae09 0cc2 6d64 0c42 8821 0cc2 2e16 0cc2
00000210: c236 0c42 b446 0cc2 38f5 0bc2 ac52 0cc2
00000220: 0504 0cc2 f539 0cc2 8037 0c42 8f69 0c42
00000230: b90e 0c42 b299 0cc2 7538 0c42 9815 0c42
00000240: f0fe 0bc2 d031 0c42 171e 0c42 966a 0cc2
00000250: 0f10 0c42 db28 0c42 defc 0bc2 5317 0c42
00000260: 664f 0c42 a37d 0cc2 5c33 0c42 112f 0cc2
00000270: e515 0cc2 3444 0cc2 1b0a 0cc2 2855 0cc2
00000280: cb67 0cc2 c710 0c42 7582 0c42 8569 0cc2
00000290: fe15 0c42 585d 0c42 9403 0cc2 f0a2 0c42
000002a0: cc03 0c42 3d99 0cc2 a908 0c42 942a 0cc2
000002b0: 5694 0c42 857b 0c42 2e8c 0cc2 d614 0c42
000002c0: 135b 0cc2 2443 0c42 7527 0c42 a071 0c42
000002d0: 3a9a 0c42 5a6c 0c42 dd14 0cc2 8707 0cc2
000002e0: 1995 0cc2 541d 0c42 d570 0c42 320f 0c42
000002f0: 656e 0cc2 2677 0cc2 d39a 0c42 1b7d 0cc2
00000300: 439a 0c42 c025 0cc2 9129 0c42 d64a 0cc2
00000310: 6833 0cc2 7f73 0c42 9b71 0cc2 488a 0c42
00000320: d158 0c42 9742 0cc2 0e05 0cc2 0efd 0bc2
00000330: 7d89 0cc2 f978 0cc2 c315 0c42 1a6d 0c42
00000340: 1757 0c42 1731 0c42 fb8a 0c42 d012 0cc2
00000350: 9c7b 0cc2 a318 0c42 9d9c 0cc2 e30b 0cc2
00000360: 833b 0cc2 9538 0cc2 0e26 0c42 d213 0cc2
00000370: 5d34 0c42 5ff2 0bc2 2c92 0cc2 eb96 0cc2
00000380: 6f58 0c42 1b27 0cc2 e553 0cc2 bc0f 0cc2
00000390: 6ca1 0cc2 ea74 0c42 3850 0cc2 dcf8 0b42
000003a0: c83f 0cc2 e32b 0cc2 9a13 0c42 c409 0c42
000003b0: 3552 0cc2 2f76 0cc2 36a5 0cc2 2128 0cc2
000003c0: 077a 0cc2 fd91 0c42 1cf7 0bc2 2072 0c42
000003d0: 2309 0c42 3460 0c42 658e 0c42 3566 0cc2
000003e0: 1100 0cc2 e49b 0cc2 ff8d 0cc2 87f6 0b42
000003f0: f26a 0cc2 9cfc 0b42 814e 0cc2 e09e 0c42
-0.13189597 0.16615194 0.093386084 0.09893682 0.084290445 -0.23771818 -0.13408746 0.1216516
-0.20950776 0.18842016 0.12641272 -0.1708505 0.20137441 -0.24399142 -0.17988521 0.08396011
-0.15368038 0.18838955 0.2375544 0.24059975 0.15746346 0.16259947 -0.13550252 0.09603162
0.15566008 -0.13852058 0.14425637 -0.19684677 0.1295599 -0.08915716 -0.19558395 -0.24473001
0.12150958 -0.13325687 -0.08124254 -0.046181586 -0.08278263 -0.15828408 -0.14321057 0.23452738
-0.07507997 -0.20266631 0.083301544 -0.12373035 0.23582223 -0.075490184 -0.22163653 0.17306022
-0.18893628 0.15708084 -0.12567574 0.2165654 -0.114030756 0.21357045 -0.13862354 -0.22632034
0.15763243 0.078048624 0.12527075 0.15777642 0.24919122 -0.1820624 0.23145157 0.08385933
0.09293161 0.09419787 0.19434404 -0.07703043 -0.13828205 -0.08912895 -0.11641288 0.23364344
0.18111669 -0.12428524 -0.1510969 -0.18799205 -0.19108443 -0.08014228 0.15581617 0.19020133
0.21370475 0.20898537 0.17240682 -0.1263984 -0.20610467 0.119201235 0.24379995 -0.24060124
-0.17886129 -0.14249161 0.09983743 -0.20599495 0.17447354 0.18533355 -0.11643996 -0.16482177
-0.20014307 -0.04063962 -0.20399351 0.24872021 -0.17060758 0.24160136 -0.14390926 -0.0904071
0.09329386 0.17778133 0.17329608 0.20463286 -0.21304385 0.17679885 -0.23819932 0.12876348
-0.11324967 0.21744637 0.09775196 0.09149213 0.087260276 0.19368224 0.15939966 0.08252466
-0.12656815 -0.2083827 -0.0783426 0.15117736 -0.113584034 0.13380213 -0.21194834 0.11547063
-35.009453 35.098072 -35.032745 -35.02166 35.053474 -35.069046 -34.98947 -35.080734
-35.003925 -35.0566 35.0542 35.103085 35.014378 -35.150093 35.055134 35.021088
-34.998962 35.048645 35.029385 -35.104088 35.015682 35.039898 -34.99694 35.022778
35.077538 -35.122692 35.050156 -35.045963 -35.02138 -35.066605 -35.00987 -35.08316
-35.10136 35.016384 35.1274 -35.103046 35.021477 35.091156 -35.003494 35.15912
35.003708 -35.149647 35.008457 -35.04158 35.14486 35.120625 -35.136894 35.020348
-35.08894 35.065567 35.038532 35.110962 35.15061 35.105812 -35.020374 -35.00735
-35.145603 35.02864 35.110188 35.01484 -35.107807 -35.116356 35.151196 -35.122173
35.150646 -35.036865 35.040592 -35.073082 -35.0502 35.11279 -35.110943 35.13504
35.086735 -35.06503 -35.004936 -34.997124 -35.134266 -35.118137 35.02125 35.106544
35.08505 35.04794 35.135723 -35.01837 -35.120712 35.02406 -35.152943 -35.01161
-35.058117 -35.055256 35.037163 -35.019356 35.051136 -34.98669 -35.142746 -35.14738
35.08636 -35.03819 -35.08193 -35.015366 -35.15764 35.114174 -35.07834 34.993027
-35.062286 -35.04286 35.019142 35.009537 -35.08028 -35.115414 -35.16134 -35.03919
-35.119167 35.142567 -34.991318 35.11145 35.008923 35.09395 35.139057 -35.09981
-35.000065 -35.152237 -35.138668 34.99075 -35.10444 34.99669 -35.076664 35.15515

dense_layers.0.bias f4 [128]
00000000: e9ac 4ebe 0424 0cc2 b83e 32bd fdfd 0cc2
00000010: 64de 0cc2 948d 40be e502 0dc2 9d49 88bd
00000020: 9fb9 06be 53d4 0842 3911 0cc2 2ae8 fbbd
00000030: 55b1 0cc2 77e4 abbd f0ac 17be fdfb e1bd
00000040: 342e 0cc2 18ad 0cc2 5824 d6bd 2669 0bc2
00000050: 3d6c 75be 153d f5bd 5a7b 24be 7761 0dc2
00000060: 83f1 0cc2 a62d 0dc2 1277 30be cf50 c7bd
00000070: 1659 febd 3a43 5abe 1672 09be 096f 0cbe
00000080: f5aa 4cbe 4408 7cbd f399 58be c435 0ac2
00000090: ac2a 00be 32b9 0bc2 218c c7bd 50cd 0cc2
000000a0: 5a67 0fbe 79af 06be ad80 73be 2c75 15be
000000b0: 7c94 4cbe 9bc7 0cc2 a89c 08be 49a4 6ebe
000000c0: d3f1 0bc2 bdfe 0cc2 bceb 0842 9142 59be
000000d0: 0fcc 0cc2 726f 59bd 24b0 0842 5d51 0bc2
000000e0: f37b 0cc2 24ec c4bd 1cd6 7bbe e390 7fbe
000000f0: 8794 d3bd 0cca 46be 4992 0dc2 91cb 11be
00000100: 46df 9dbd 4dc2 d0bd 6af8 0cc2 0e2f 0dc2
00000110: 560d 18be 2bb3 0dc2 2f96 0dc2 d894 0cc2
00000120: 21d5 0bc2 2020 0742 a272 2fbe 7229 0dc2
00000130: 1590 0cc2 f515 0dc2 fc43 0dc2 fd1b 75be
00000140: 9489 01be 9cd9 9ebd b5fc 0cbe ec11 5abe
00000150: c4b5 74be db36 0dc2 9d33 55be 2f39 0dc2
00000160: 22bb 5fbe 03bc 0cc2 170a 26be 80ed 0dc2
00000170: eacc 3fbe aa4d 0dc2 fb46 f8bd 9e6b 0abe
00000180: 7645 2abe 8ec5 0cc2 5369 0cc2 ab6a 6bbe
00000190: c0f6 24be b9db 0cc2 4d42 9dbd 06cd 28be
000001a0: 4be1 47bd 24ba 5dbe 0b38 0dc2 3fae 73be
000001b0: a4a3 0cc2 fbfc 6ebe d96a 0dc2 bdec 0cc2
000001c0: dc38 0cc2 55e2 7fbe d0ca 0cc2 8e5d 5fbe
000001d0: f179 d6bd 875a 0cc2 675f 0cc2 94d2 0bc2
000001e0: c3d6 24be 33ee 29be b94b 0ebe a56d 0cc2
000001f0: a554 0dc2 0f7d 0542 fbcc 42be fb9c 0dc2
-0.20183147 -35.03517 -0.043516845 -35.248035 -35.21718 -0.18804008 -35.252827 -0.066546656
-0.13156746 34.207348 -35.01682 -0.12300141 -35.173176 -0.083931856 -0.14812064 -0.11034391
-35.04512 -35.169037 -0.10456151 -34.852684 -0.23967071 -0.11974541 -0.1606268 -35.34518
-35.23585 -35.29458 -0.17232922 -0.0973221 -0.124193355 -0.21314707 -0.13422427 -0.13714232
-0.1998709 -0.06153132 -0.21152477 -34.552505 -0.12516278 -34.930855 -0.09743524 -35.2005
-0.14004269 -0.13152875 -0.23779555 -0.14595479 -0.19978517 -35.194927 -0.1334101 -0.23304857
-34.986156 -35.248768 34.23021 -0.212168 -35.199276 -0.0530848 34.172012 -34.829456
-35.121044 -0.09615353 -0.24593395 -0.24957614 -0.10331064 -0.19413012 -35.392857 -0.1423781
-0.07708602 -0.1019331 -35.24259 -35.29595 -0.14848837 -35.42497 -35.396664 -35.145355
-34.958134 33.781372 -0.17133573 -35.290474 -35.140705 -35.271442 -35.31639 -0.23936458
-0.12650138 -0.077563494 -0.13768275 -0.21295899 -0.23897463 -35.30357 -0.2082047 -35.305843
-0.21848729 -35.183605 -0.16214786 -35.481934 -0.18730512 -35.325844 -0.121229135 -0.13517615
-0.1662806 -35.192924 -35.102856 -0.2298991 -0.16109753 -35.214573 -0.076786615 -0.1648446
-0.04879884 -0.21653038 -35.30473 -0.23796938 -35.159805 -0.23338692 -35.354343 -35.23119
-35.055527 -0.24988683 -35.19806 -0.21813032 -0.10472477 -35.088406 -35.093166 -34.955643
-0.1609755 -0.16594772 -0.13896073 -35.107075 -35.33266 33.372128 -0.19023506 -35.4033
