Live_Weights/AAPL/TiDE86.pth (torch, 188899 bytes, 41 tensors)

feature_projection.linear.weight f4 [128, 30]
00000000: b0dc 9f3d c057 413b e69c 8dbd 2785 bebd
00000010: 6617 1e3e d0e0 e23d 4a2d e5bd 9015 383c
00000020: c0ce e9bc 0aec cebd d4a6 08bd 8963 f6bd
00000030: 0804 dcbd 1461 71bd e09d 85bb 6c04 3bbd
00000040: 000c 5cba f1d8 dabd 0a15 813d c01a ee3c
00000050: d8b4 f4bd 54a0 46bd 44ce febd b4c1 323e
00000060: ac4b 04bd b838 2c3e b089 0e3d 8817 9ebc
00000070: a8e2 02bd 1c0d 2d3e 5c8e 07be 8089 373b
00000080: 20e8 2c3d 30ae 2c3d e8ee 353e f6c1 34be
00000090: 501e f8bd b425 b53d 379f f3bd 60a3 093d
000000a0: c0c4 16bd 44a4 253d c86e 903c f8c4 3cbd
000000b0: 4470 5bbd a4c4 043e 5c7a 0dbe 7482 1f3d
000000c0: 6007 643c 38ab e83d f8ba 953d 5c6b b73d
000000d0: bcd6 0a3e 488e b33d e0e7 073e 2464 213e
000000e0: c08a d63d e306 dcbd b2b3 ebbd 905d c3bc
000000f0: f37c 90bd 4c05 c13d 485c f23c 5a80 f7bd
00000100: 7051 2e3e 8610 19be 8434 1d3e 58cf 10be
00000110: 6816 aabc cc8b 0c3e 9a38 39be e04a 893d
00000120: c61b 2c3e 0cf4 443d 43a2 20be 8089 f83a
00000130: a813 1e3e 02cb 21be 2856 10bd a819 5a3d
00000140: 3433 2bbd 1231 283e bc38 943d 280e 203e
00000150: 80f9 ecba feb5 103e 90d1 003c 689b 2f3e
00000160: c814 093e 9263 233e 1445 db3d ba68 273e
00000170: 80b7 073e e849 0d3d 8005 e5ba 99dc 38be
00000180: e25c 833d 1018 253e 74a9 e63d 087f 053e
00000190: 60f1 86bd 4c53 4abd 80c9 8e3d 28f6 9bbd
000001a0: e8d3 8ebc 8008 c1bc 42a5 19be 3a51 28be
000001b0: f074 a43d 02df 07be aebd 34be f4e8 f3bd
000001c0: 0081 26bd ca7b 78bd 04be 27bd 324a fabd
000001d0: ecba 613d 2cd1 f83d c4c3 323e 9ce6 0c3d
000001e0: feb3 373e 1bb3 c6bd 80c0 b63d 3c6c 2e3e
000001f0: bce7 303e 49e3 e2bd 80fb db3c e0fc c33d
00000200: 862d 323e f862 b6bc 72e9 15be c092 d53c
00000210: 1ab0 85bd 00cd 55bc a274 163e f032 353e
00000220: d6df cdbd b69d 1d3e b8e4 cdbc b40e f8bd
00000230: 3edd 353e ba7e 0fbe 7d7e 85bd 7ad6 ecbd
00000240: 8018 0c3c f4b7 753d 01a7 20be d899 033d
00000250: 64a3 133d 5994 88bd 4131 2bbe 5039 54bd
00000260: aec5 043e 50c5 a23d c079 693b 80ed 313e
00000270: ae62 0a3e b866 82bd 30ec c33c f8f6 cdbc
00000280: 1814 8a3c 6cb4 3abe e836 0abe cdc8 dcbd
00000290: 48bb 8c3c 1cb0 2c3e 90f9 02bc 5828 8cbd
000002a0: d84e b2bc 6cf1 393e 306a b23c 8aa6 37be
000002b0: 9094 31be f87a e3bd 4cc6 653d da63 8fbd
000002c0: b816 973c 4ceb 5cbd 7849 093e b4a4 913d
000002d0: 10ad 063e e0c8 fc3b 1082 253c 6941 d5bd
000002e0: d0ab 14be 4c31 ac3d c84c e4bc 2760 a7bd
000002f0: 9eea 93bd de81 1e3e 7064 c53c f6c2 76bd
00000300: 60e5 ad3d 3751 83bd ecd4 a33d 029c 113e
00000310: d0db ac3d a406 cd3d 64ee 253d 04ce 613d
00000320: d477 edbd e40e 913d 30d7 5d3d b8ad 223e
00000330: caf3 263e bc62 d03d 8057 99bb 281a 70bd
00000340: 180b 00bd 007c 37b9 a63a 223e 2c70 8a3d
00000350: 006e c039 c03d a33d 3809 2ebe 60dd bebc
00000360: a118 1bbe 14c5 45bd 0a75 323e 54a0 be3d
00000370: e0ca 45bd 801b 7e3d 4e97 093e 6c02 113d
00000380: 8059 103e 54d0 89bd 8150 01be 98df 0cbe
00000390: 1400 f6bd 0c4b 5c3d 6128 88bd 227a 253e
000003a0: 37f8 f1bd 6027 883d 34ad 7d3d 9000 f53c
000003b0: c801 a53d a851 f23d f003 eabc 8cee 183d
000003c0: 0762 9ebd b866 a63d 00d9 933c 9cf5 cf3d
000003d0: 1ed5 1c3e 7b75 0bbe 4857 033e 9451 363e
000003e0: 2851 0d3e 2328 d2bd f5c9 1dbe 90a4 c03c
000003f0: 7a8b 1dbe 9cc0 20bd c0d4 8a3b 97a6 05be
0.07805765 0.0029501766 -0.069146916 -0.093027405 0.15438613 0.11078036 -0.11190279 0.01123561
-0.028540969 -0.10103615 -0.033362225 -0.120307036 -0.107429564 -0.05893047 -0.004077658 -0.045658514
-0.0008394122 -0.106859095 0.06302841 0.02906549 -0.11948556 -0.048492745 -0.12441686 0.17456704
-0.03229873 0.16818511 0.034799278 -0.01929833 -0.031954437 0.16899532 -0.132379 0.002800554
0.04221356 0.042158306 0.17766917 -0.17652115 -0.12115157 0.08845082 -0.11895602 0.033603072
-0.03680873 0.04043986 0.01763095 -0.04608628 -0.05357386 0.12965637 -0.13816208 0.03894277
0.013917774 0.113607824 0.07311052 0.08956024 0.13558477 0.08767372 0.13272047 0.15760857
0.10475683 -0.10743501 -0.115088835 -0.023848325 -0.07055082 0.094248384 0.029585019 -0.12085028
0.17023253 -0.1494771 0.15352064 -0.14141595 -0.020762637 0.13725203 -0.18087998 0.067037344
0.1680747 0.048084304 -0.15686898 0.0018961877 0.15437186 -0.15800098 -0.035238415 0.053247124
-0.041796878 0.16424969 0.07237384 0.156304 -0.0018079728 0.14131925 0.007862464 0.17149127
0.13386834 0.15955952 0.10706535 0.16348544 0.13253593 0.03449431 -0.0017472953 -0.18052901
0.064142 0.1612246 0.11262789 0.1303674 -0.065890074 -0.049395844 0.06972027 -0.0761531
-0.01743503 -0.023563623 -0.15004447 -0.16437235 0.080301166 -0.13268664 -0.17650482 -0.11909667
-0.040650368 -0.06066493 -0.040952697 -0.12221183 0.055109903 0.12149271 0.17457491 0.034399614
0.17939755 -0.097021304 0.08923435 0.17033476 0.172759 -0.110785075 0.026853323 0.095697165
0.17400178 -0.022263989 -0.14639834 0.026070952 -0.06527729 -0.013049364 0.1469293 0.17695212
-0.10052459 0.15392193 -0.025133476 -0.121121794 0.17760178 -0.14013186 -0.06518266 -0.11564346
0.008550763 0.059989884 -0.15688707 0.03212914 0.036044493 -0.0666892 -0.16718008 -0.05181247
0.12966034 0.079477906 0.0035625547 0.17375755 0.13514206 -0.06367248 0.023916334 -0.025142178
0.016855285 -0.18232888 -0.13497508 -0.10780487 0.017179146 0.16864055 -0.007994071 -0.068436325
-0.021766111 0.18158501 0.02177915 -0.17934623 -0.17341828 -0.11107439 0.056097314 -0.07001467
0.01844345 -0.053935334 0.13406932 0.07111493 0.13151956 0.007714376 0.01010181 -0.104128666
-0.14518666 0.0840784 -0.027868643 -0.081726365 -0.07222484 0.15479228 0.024095744 -0.060244523
0.084910154 -0.06411975 0.07999596 0.14219669 0.084403634 0.10011032 0.04051055 0.055128112
-0.11595121 0.07082918 0.054160297 0.15886581 0.16303936 0.10175082 -0.0046796203 -0.058618695
-0.03126058 -0.00017498434 0.15842685 0.06759676 0.0003670305 0.07970762 -0.16995704 -0.02329892
-0.15146114 -0.04828365 0.1742746 0.09307924 -0.04828918 0.062037945 0.13436624 0.0354027
0.14096642 -0.067291886 -0.12628366 -0.13757169 -0.12011734 0.053782508 -0.06648327 0.16159871
-0.11814921 0.06648135 0.061932757 0.029907495 0.0805698 0.11831981 -0.02856633 0.03733687
-0.07733541 0.08125061 0.01804781 0.10154268 0.15315673 -0.13619034 0.12826264 0.17804557
0.1380049 -0.10261562 -0.15409072 0.02351597 -0.15385237 -0.039246187 0.0042367876 -0.1305183

feature_projection.linear.bias f4 [128]
00000000: 951a 20be 9845 2b3d 5ebb 94bd b0a4 283c
00000010: c496 68bd 9188 31be 0cbf 22be c893 9fbc
00000020: 480f 4f3d c854 3ebd 082d d2bc f7c4 b1bd
00000030: c8fa 033e 6a90 163e 14ef a13d 74d1 603d
00000040: 1bde dfbd d193 c2bd f491 1b3d e869 05be
00000050: 20b0 5ebd 38ba b5bd c4d0 c53d a4ca 913d
00000060: 1967 b8bd d7e5 0cbe d054 23bd 399e a6bd
00000070: bb2d 18be 9870 0d3e a06e b73c 5c52 553d
00000080: 401d 233e a6b4 133e e659 083e c190 e7bd
00000090: 6caa bebd 6c88 663d 94b4 9fbd 10a3 c73d
000000a0: fcd7 06be fcff b03d 5c19 0c3d 7052 f9bc
000000b0: 2e35 cbbd 3472 19bd e82d 403d 90d3 373d
000000c0: 8c24 63bd 381c db3c efbd 1bbe 3047 2d3d
000000d0: 1e5e bebd 80a0 b0ba 080b 0abe 00dd f83d
000000e0: 4a19 b4bd 07a9 0bbe 806f 553d a10d b5bd
000000f0: 6274 323e b4fd 193e c05d f43d dbcd 87bd
00000100: 84ce 033d d41e e4bd ec7d 0d3e f05b ce3d
00000110: 2877 1f3e 8875 ce3c 2075 d73c ac38 67bd
00000120: fb8e e9bd 3030 0a3d 5a70 1f3e 24d4 02be
00000130: b023 0c3e 6639 013e f3db 12be ff2e b2bd
00000140: 68ab 643d e549 29be 9861 0d3e b797 a1bd
00000150: 8f28 a0bd 64d3 e53d 2c24 763d 6856 78bd
00000160: 9c42 e6bd e221 f5bd e48b 0c3d 808c 9c3d
00000170: a09d 803d 24aa 9e3d 40a5 193d c895 10be
00000180: 737b d5bd 9564 11be be5f 8ebd b476 e03d
00000190: 4cda 273e d8e0 813d bef3 bdbd 404a 183e
000001a0: 48c3 d43d c00e 3d3c 8838 81bc e252 163e
000001b0: 80e5 f1bc ae1e 1ebe 24c7 083e d38b 81bd
000001c0: 9a06 003e d026 a3bd e068 c1bd fcc5 773d
000001d0: 25c4 21be 600e 2dbc 4e98 cebd 00c6 d7bc
000001e0: 1c6c 143d 68d7 fd3d 580d fbbd dc55 fb3d
000001f0: eaa9 22be 5887 63bd 94df 8d3d 3228 2bbe
-0.1563514 0.041814417 -0.072623 0.010293171 -0.056784406 -0.17337252 -0.15893191 -0.019479647
0.050551683 -0.046467572 -0.025656238 -0.08680146 0.12888634 0.14703527 0.07906929 0.05488725
-0.10931035 -0.0950085 0.03798099 -0.13028681 -0.054367185 -0.08873409 0.096589595 0.07118729
-0.09004039 -0.13759552 -0.039875805 -0.08135647 -0.14861195 0.13812482 0.022391617 0.052080497
0.15929127 0.1442438 0.13315544 -0.113069065 -0.09309849 0.056282446 -0.077981144 0.097478986
-0.13168329 0.08642575 0.034203872 -0.030434817 -0.099222526 -0.03746243 0.04691878 0.044879496
-0.055454776 0.026746854 -0.15209173 0.042304218 -0.09295295 -0.0013475567 -0.1348077 0.121515274
-0.08793886 -0.13638698 0.052108288 -0.0884049 0.17427209 0.15038186 0.11931944 -0.06631061
0.03217937 -0.111386925 0.13817567 0.100761294 0.15572798 0.025202528 0.026300967 -0.05645053
-0.114042245 0.03373736 0.15570202 -0.12776238 0.13685489 0.12619552 -0.14341716 -0.0870037
0.05582753 -0.16532095 0.1380676 -0.078902654 -0.07820236 0.1122196 0.06009309 -0.06062928
-0.112431735 -0.11969353 0.034313098 0.07643986 0.062800646 0.077472955 0.03751111 -0.14119637
-0.10423937 -0.14198525 -0.06951855 0.10960141 0.16391867 0.06341714 -0.09275006 0.14872074
0.103888094 0.011539161 -0.015774027 0.14680055 -0.02952838 -0.15441391 0.13357216 -0.063254975
0.12502518 -0.07966387 -0.094438314 0.060491547 -0.1579748 -0.010562509 -0.100876436 -0.026339531
0.036235914 0.12394601 -0.122584045 0.12272236 -0.1588513 -0.055548996 0.0692741 -0.16714552

encoder.layers.0.linear1.weight f4 [50, 128]
00000000: fe0c a5bd 7668 493d 50e8 8ebb 60f7 403c
00000010: 8454 0e3d 6a6f 093d f021 da3c 7074 61bc
00000020: 610e 9fbd c03e 2fbc 4770 9a3d f470 08bd
00000030: 0ba2 3cbd 0dfe 893d 407e e5bc 3dae 3fbd
00000040: 8653 653d bfe8 9f3d 908c 9dbd d231 76bd
00000050: 55c1 8ebd 9c03 86bc 9efd 7c3d be59 b3bd
00000060: 390d ad3d f32f a43d 12c2 413d ccd4 97bc
00000070: 5ee8 9bbd 4a43 703d 607a 483b f6e4 3a3d
00000080: 25bc 803d 74b9 71bd 29c4 a23d 0059 e0bc
00000090: 6aeb 603d b450 5ebd 0cce cc3c c920 45bd
000000a0: 78ac a33c 9c24 87bd 4a5b 73bd 8bd1 933d
000000b0: 9e5d 30bd a60a f8bc 87f8 7cbd fd75 873d
000000c0: b67f d5bc a1a0 4fbd 00e8 2338 f359 b23d
000000d0: e81a 38bc c125 adbd 7ce1 7fbd 0c8f ae3c
000000e0: c0a0 aabb 32ff 613d 4edc 473d 5ac6 3abd
000000f0: 3697 3c3d 00e1 9abc 3b76 50bd 46fa 99bd
00000100: e018 51bb c131 a03d c83c 11bc b155 9a3d
00000110: 9654 35bd 569e 513d 3872 7abc e042 c9bc
00000120: 50b6 bdbb 8036 5cbb 28c8 793c 27b2 ae3d
00000130: 2ceb a3bd be36 243d d45c ef3c c01a 2d3b
00000140: 5cdf c5bc a01a 57bd 32b2 783d 55e1 8c3d
00000150: 6590 8a3d 946d a93c 4e7e 603d 06ad 9dbd
00000160: dc46 9c3c 843b d93c ad47 71bd ea84 4abd
00000170: 08a0 4dbd 2006 49bc a6f5 313d 8eb6 28bd
00000180: 73d1 98bd a4b1 7ebd f003 643c f8f1 4bbc
00000190: 72cf 753d 32ce 29bd d1ae a03d b83b 233c
000001a0: 16b7 363d 0a93 5ebd e4b0 a1bd 746d 143d
000001b0: bec2 a1bd f0fe 53bc 7809 95bc 53e4 913d
000001c0: 4819 263c 2040 d73b e0d6 b5bb bce3 e83c
000001d0: 597d 52bd 1e1c 5b3d 411d 1ebd 9286 653d
000001e0: 5814 343c 48d6 6d3c bc8d efbc 8271 6a3d
000001f0: c691 fcbc 686f 84bc ec54 afbd ea38 6a3d
00000200: e0ac 093d f437 97bd f0fb bcbc 8a8c 9abd
00000210: 51c8 27bd 5577 a53d 14c5 38bd ee38 53bd
00000220: 4052 7b3b e8c0 103c c0ef 59bd 9ec8 3d3d
00000230: 604b dbbc 60fb 25bc 4e6c 433d d8a6 7c3c
00000240: 303e 53bc 50a5 21bd ba2a 6c3d 4cbc 86bc
00000250: 6dec 1abd 1edd 80bd b8db a3bc a09c 22bd
00000260: 504a 55bc 9ef5 393d b65c 2b3d 9a02 27bd
00000270: 401f 143b 1c75 bdbc 0812 30bc fa0f 2b3d
00000280: 637a 4cbd 1e58 1dbd 91e3 1abd 68ee 0cbc
00000290: 8006 673a 8e97 f6bc c019 843c d0f3 e03b
000002a0: e056 a73c af36 9c3d c0f1 b93a 5129 9a3d
000002b0: ba9a b3bd f3a6 823d cfe0 ac3d 8513 03bd
000002c0: 424f 95bd 84bc c8bc 5cc0 c4bc a9c9 803d
000002d0: 5cc1 b1bd 4330 93bd de80 013d 82a3 293d
000002e0: 8d6a a3bd 6272 333d dacd 1c3d d83d ad3c
000002f0: 122f 7c3d f3e8 39bd 32eb a1bd 4a06 253d
00000300: 8694 763d 00e4 f639 08e3 743c 18e5 6bbc
00000310: 6c89 35bd fcf7 fb3c 022e 4cbd 1038 10bc
00000320: 0e96 333d 304d ffbb 2515 a33d 204c 17bd
00000330: 1016 c8bc 9c66 d9bc 589e edbc 6a65 a5bd
00000340: 3d94 61bd 3121 983d e730 a2bd 4c53 ae3c
00000350: 982c 96bd a058 5ebc cd2e 61bd 6c46 6abd
00000360: 3476 49bd d3f9 8c3d 4ab4 2fbd 20c7 d03c
00000370: 2fe6 8c3d f4e3 e33c ce69 fbbc 512a 8fbd
00000380: e701 893d 1f2a 903d 0257 3c3d b45b 8cbc
00000390: 6322 6fbd 026f 4c3d 173a 953d 0068 aa39
000003a0: 6dae 81bd 9c93 a8bc 18fa cf3c 00db d5b9
000003b0: 5f02 803d 3429 91bc c05c a6bb b0d9 3fbc
000003c0: 00fd d9b9 4fc0 903d de7b 11bd 44fd e03c
000003d0: 0067 9e39 ccf4 aa3c 8097 61bb 638f 833d
000003e0: 5e13 773d b2ea 773d ccfa 883c f8a3 30bc
000003f0: 0584 823d 7754 a53d a66c 98bd da9f 28bd
-0.08059119 0.049171887 -0.00436119 0.011777729 0.03474857 0.03355352 0.02662751 -0.013760671
-0.077664144 -0.010696113 0.075409465 -0.033310845 -0.046052974 0.067379095 -0.028014302 -0.046797026
0.055987857 0.07808065 -0.07692826 -0.060106106 -0.06970469 -0.016359143 0.061765306 -0.08757351
0.08449788 0.08016958 0.04730422 -0.018534087 -0.0761268 0.05865792 0.003059052 0.04562851
0.06285886 -0.059014753 0.07947571 -0.027386189 0.05491201 -0.054276183 0.025000595 -0.04812697
0.0199797 -0.065987796 -0.059413232 0.072177015 -0.04305803 -0.030278515 -0.06176045 0.06614301
-0.026061874 -0.050690297 3.9078295e-05 0.08708563 -0.011236884 -0.084544666 -0.062470898 0.021308444
-0.005207151 0.055175014 0.048794083 -0.04559932 0.046042643 -0.018906116 -0.050894003 -0.07518439
-0.0031905696 0.0782199 -0.008864589 0.075358756 -0.04427012 0.05117639 -0.015286021 -0.024568021
-0.0057895556 -0.003360182 0.015245475 0.085300736 -0.0800384 0.04009127 0.029219069 0.002641365
-0.024154358 -0.052515626 0.060716815 0.06878916 0.06765822 0.020682134 0.054807954 -0.07699017
0.019076757 0.026517637 -0.058906246 -0.049443163 -0.050201446 -0.012269527 0.04344716 -0.041189723
-0.07461824 -0.06218113 0.013916954 -0.012447827 0.06001229 -0.04145641 0.078458436 0.0099629685
0.044608198 -0.054339446 -0.07895067 0.036237195 -0.07898472 -0.0129392 -0.018192992 0.071236275
0.010137863 0.0065689236 -0.0055492967 0.028428905 -0.051389072 0.05349361 -0.038602117 0.05603654
0.010991178 0.014516421 -0.029242389 0.057237156 -0.030831229 -0.016166404 -0.085611194 0.057183184
0.033612132 -0.07383719 -0.023069352 -0.07546337 -0.04096252 0.080794014 -0.045109823 -0.051567964
0.0038348585 0.008835055 -0.05320716 0.0463339 -0.02676934 -0.010130733 0.04771071 0.015420638
-0.012893245 -0.039464295 0.057657935 -0.016447209 -0.03782313 -0.06292175 -0.020002231 -0.03970015
-0.013018206 0.045400254 0.041836463 -0.040773965 0.0022601634 -0.023127131 -0.0107464865 0.041763283
-0.049921405 -0.038414113 -0.03781468 -0.008601762 0.0008812919 -0.030101564 0.01612556 0.006865002
0.020427167 0.076276176 0.0014186427 0.07527412 -0.08769746 0.06379499 0.08441316 -0.032001037
-0.07290508 -0.024503954 -0.024017505 0.062884636 -0.086794585 -0.071869396 0.031617038 0.0414157
-0.07979307 0.043810256 0.038282253 0.021147653 0.061568327 -0.045388173 -0.07906188 0.0402892
0.060200237 0.0004709065 0.014946707 -0.014397882 -0.04432051 0.030757897 -0.049848564 -0.008802429
0.043844275 -0.007791184 0.079630174 -0.036937833 -0.024424583 -0.026538186 -0.029006168 -0.08075984
-0.05507301 0.07428206 -0.07919484 0.021279953 -0.07332724 -0.0135709345 -0.054976273 -0.057196066
-0.049184993 0.06883588 -0.042896546 0.025485575 0.068798415 0.027818657 -0.0306901 -0.06990493
0.06689816 0.07039284 0.045981415 -0.017133571 -0.058382403 0.049910553 0.072864704 0.00032502413
-0.06332097 -0.020578198 0.025387809 -0.00040789694 0.06250452 -0.017719842 -0.0050769746 -0.011709616
-0.00041577965 0.0706793 -0.03551852 0.027464516 0.0003021285 0.020868681 -0.0034422576 0.06423833
0.060321204 0.060526557 0.016721152 -0.010781281 0.06372837 0.08072751 -0.07442598 -0.04116807

encoder.layers.0.linear1.bias f4 [50]
00000000: 0744 9a3d 8b2e 3ebd b0be 853c 043f 12bd
00000010: a346 853d 50c2 32bc a406 a63c f380 a23d
00000020: d4cf c13c 61a2 1ebd c6e5 203d 5cd7 91bd
00000030: e7d5 b2bd b7bb b4bd 1fad 2abd 5c6a 66bd
00000040: 3e4a 6abd b9e4 1abd fe17 a6bd 3b61 883d
00000050: 5cf2 74bd 805d 133b 6d73 22bd f1c5 12bd
00000060: d81e 71bd 611c 9e3d 2857 7c3c dd01 823d
00000070: f164 8e3d 67bc 15bd c3c2 9cbd febf 7d3d
00000080: 1cd6 bf3c 7584 7dbd ce73 6f3d fb88 873d
00000090: e029 02bd 0f62 ac3d 1a00 583d 9846 f23c
000000a0: 389b 2b3c 12bf 1b3d f7da 813d 76a0 083d
000000b0: a401 003d 0839 753c a811 e43c fc7e 833c
000000c0: 663c adbd e885 ca3c
0.075325064 -0.046431106 0.016326278 -0.035704628 0.065076135 -0.0109105855 0.020266838 0.07934751
0.02365867 -0.038729075 0.03928163 -0.07121155 -0.08732205 -0.08824866 -0.041669007 -0.056253776
-0.05719971 -0.037815783 -0.08110045 0.0665917 -0.059801444 0.002248615 -0.03966086 -0.035833303
-0.058867306 0.077202566 0.015401639 0.06348012 0.06952847 -0.036556628 -0.07654335 0.061950676
0.023417525 -0.0618939 0.05846005 0.06617924 -0.031778216 0.08417141 0.05273447 0.029574677
0.010474019 0.038024016 0.06340592 0.033356152 0.031251565 0.014967211 0.02784045 0.016051762
-0.08458786 0.024722055

encoder.layers.0.linear2.weight f4 [50, 50]
00000000: 58cb ae3d 40cf f43b dd85 10be 4c69 cf3d
00000010: eacc a93d 495a 0d3e 8a04 fd3d c899 d6bc
00000020: 30ef 0f3d 338e 07be d803 d63d 0035 263a
00000030: 24f0 d43d d49a b9bd b841 833d 3c96 b6bd
00000040: da4e e1bd e98b 96bd 40de 893d ee90 07be
00000050: e66c d53d f482 7a3d dc93 033d e21b f83d
00000060: 40f7 8b3b e459 84bd 342f 263d e6d9 d73d
00000070: 20ad 0fbc 1a55 e13d 380f d3bd 1857 343d
00000080: 6847 c53c 848e c2bc fbb3 92bd f4f1 473d
00000090: cab3 07bd 423f db3d 322e 2fbd faf7 ae3d
000000a0: 001c 7b3d b019 fa3c 68da dfbc e7f9 0cbe
000000b0: dc18 9fbc 90b0 02be d6ea 9abd 8b2c c8bd
000000c0: 38ba 26bd 9faf 063e 8de2 cbbd 685f 983d
000000d0: 9866 c1bc 72bc d7bd ea63 863d 209e 1a3d
000000e0: 7094 79bd 6074 133c cce4 723d e779 dbbd
000000f0: 2ae4 32bd c011 3c3d 207a a03c ff61 023e
00000100: e0a2 b3bd fe1d c8bd 2601 48bd 605b 10bc
00000110: 6c29 c13d 9a23 8dbd 28c2 3e3d a089 f33b
00000120: 0c47 c0bd 206b 79bc 5854 593d fc82 7fbd
00000130: c4e8 e1bd f444 c03d 8894 00be 5037 ed3c
00000140: fec2 afbd 7c6b 75bd 50c0 fa3c 1ee4 e9bd
00000150: afb3 85bd 644d 253d d21f 21bd 32e4 5ebd
00000160: 3aa2 c43d 0055 973d 15d7 0fbe 1140 ffbd
00000170: 9c3b 09be bc8b 2fbd a63b e23d 8b2d 0a3e
00000180: 3ac9 73bd 86f7 b4bd 3400 e5bc 687e fc3c
00000190: 4860 06be 6641 efbd 80b3 8dbc 0c22 42bd
000001a0: c622 de3d bee0 01be 8e7d e73d 40a8 bf3b
000001b0: aa4e e53d 9c94 383d c83c 7abd 4415 f0bd
000001c0: 0c28 17bd 2871 70bd 6833 f83c 70f7 a13d
000001d0: 93a1 80bd ddc0 c3bd 9af9 cebd 20c4 d03b
000001e0: 408c cfbc 104d 423c 80f5 46bc 4080 3f3b
000001f0: 7e00 9e3d dbd8 0e3e 5c62 743d 1441 d53d
00000200: 7475 5e3d d6f9 44bd 35dd 0f3e 7c6a 06be
00000210: a4a3 533d 99ea 92bd 382b c03d e863 4a3d
00000220: caed a3bd 0030 e23a 32fa ce3d 4719 85bd
00000230: b6d6 e4bd fcd9 01be 4e9e d43d a554 003e
00000240: 0891 e63c 30e1 18bc c6df 10bd de1d da3d
00000250: 50e6 113c 9a2e 79bd 3095 033d 803b 84bd
00000260: c822 ae3c 66be fe3d 126a 91bd 1808 6f3d
00000270: 08d9 6a3d 0066 953b c070 cc3d 8dd6 093e
00000280: a0d3 063c d4a9 8a3d c9fb 093e 2a71 a23d
00000290: 0012 593c 5037 7e3d fafb 9d3d 7cf8 583d
000002a0: 4893 0dbe 4eb6 1abd 2141 9ebd 12c3 a63d
000002b0: a00e a5bd 60dd a5bc 8ccd ecbc c091 a9bc
000002c0: bd85 90bd 1c16 a0bc bd25 033e 9cb4 a63d
000002d0: 0ee9 f43d caaa a8bd 5287 dcbd 2505 99bd
000002e0: 9dd7 82bd 00c8 573d e447 85bd b229 6bbd
000002f0: ff53 0dbe 5ebb d03d c0e6 a8bd 5a1e dc3d
00000300: 1e51 e23d 78ec db3c d0c5 423d ae74 d1bd
00000310: 7370 8bbd 8036 cebd 78bf acbd 2a4f d43d
00000320: 9a49 cd3d 0c9d 6d3d 1c44 0fbe 1e2e bebd
00000330: 404d 52bc f43e c63d bf30 10be 19af 063e
00000340: 7280 d73d 3610 00bd de71 e93d 6c92 a73d
00000350: 88b4 c13d 4238 e33d 3874 07be 2ba8 0a3e
00000360: e0ca a73c c0d1 7cbb 1051 433d 289b 70bd
00000370: f299 59bd ba5c de3d 563f 993d df1b 0fbe
00000380: b7da b0bd 382d 9c3d 0d2c cfbd e0be d03c
00000390: d493 d73d be03 b7bd 34f1 d1bc 60fd cfbd
000003a0: 2637 f03d 7446 bcbd 6ccd 643d 0ace 893d
000003b0: 593c 083e b973 d3bd 5874 3d3d b75d b2bd
000003c0: d0fe 8fbd 40d8 39bd 7d62 01be 52bd e4bd
000003d0: 114b 9cbd b0b2 233c 54e2 02be d40a 323d
000003e0: a812 f4bd 6cd4 b8bd f846 72bd 8e37 c63d
000003f0: a88a c73c 0e33 b53d 460a b2bd d69d bf3d
0.085348785 0.007470995 -0.14113565 0.10127506 0.082910374 0.13803972 0.123543814 -0.026196375
0.035140216 -0.13237838 0.10449952 0.0006340295 0.10397366 -0.09062734 0.06409019 -0.08915374
-0.11001368 -0.073509045 0.06731844 -0.1323888 0.10421161 0.061160043 0.03212343 0.12114693
0.004271418 -0.06462458 0.04057236 0.10539608 -0.008769304 0.1100256 -0.10305637 0.04402837
0.0240819 -0.023749597 -0.07163235 0.04881473 -0.033130445 0.10705425 -0.042768665 0.085433915
0.061306 0.030529827 -0.027325824 -0.13767205 -0.019421034 -0.12762666 -0.07564323 -0.09774121
-0.040704936 0.13152932 -0.099553205 0.07440072 -0.02360849 -0.1053399 0.06562026 0.037748456
-0.060932577 0.008999914 0.05930023 -0.107166104 -0.043674625 0.045915365 0.019589484 0.12732695
-0.087713 -0.097713456 -0.04882922 -0.008810848 0.09431729 -0.06891556 0.04657188 0.0074321777
-0.09388551 -0.0152232945 0.053058952 -0.062380776 -0.11030725 0.09388152 -0.1255666 0.02895704
-0.08582114 -0.05991696 0.03060928 -0.11420463 -0.065284126 0.04035701 -0.039336987 -0.054416843
0.09601255 0.07389259 -0.14046891 -0.124633916 -0.13401645 -0.04285787 0.11046533 0.13493936
-0.059518076 -0.08836274 -0.027954198 0.030821994 -0.13122666 -0.11682396 -0.017297506 -0.04739575
0.10846476 -0.12683389 0.113032445 0.0058489144 0.111966446 0.0450636 -0.06109312 -0.11722806
-0.036903426 -0.058701664 0.03029795 0.07908523 -0.06280818 -0.0955827 -0.101062015 0.006371036
-0.025335431 0.011859193 -0.012143493 0.002922073 0.077149376 0.13949911 0.059664115 0.10412803
0.05431123 -0.048089825 0.14049228 -0.13126558 0.05166973 -0.07173652 0.09383243 0.049411684
-0.08004339 0.0017256737 0.10106315 -0.06498962 -0.11173765 -0.1268081 0.10381757 0.1253229
0.028145328 -0.009331033 -0.035369657 0.10650228 0.008905008 -0.06083546 0.0321247 -0.06456661
0.02125682 0.12438659 -0.071003094 0.05835733 0.057335883 0.0045592785 0.09982443 0.13460751
0.008229166 0.067706734 0.13474955 0.079317406 0.01324892 0.06206447 0.07714076 0.05297135
-0.13825715 -0.037771516 -0.07727266 0.081426755 -0.0805943 -0.020247161 -0.028906606 -0.020699382
-0.070567586 -0.019541793 0.12807365 0.08139917 0.11958514 -0.082357004 -0.10767998 -0.07471684
-0.06388781 0.05268097 -0.06507853 -0.05741281 -0.13801573 0.101919875 -0.08247137 0.107479766
0.11050628 0.026846156 0.04755193 -0.10227333 -0.06808557 -0.10068989 -0.08434957 0.10366662
0.10023804 0.0580111 -0.13990825 -0.0928614 -0.012835801 0.09679976 -0.14081095 0.13152732
0.10522546 -0.03126546 0.113986716 0.08182225 0.09458262 0.11094715 -0.13227928 0.13540713
0.02048248 -0.003857717 0.04768473 -0.05874172 -0.05312533 0.1085753 0.074827835 -0.13975476
-0.086354665 0.07625812 -0.10115824 0.025481641 0.10526243 -0.08936261 -0.02562771 -0.10155749
0.11729269 -0.09193125 0.055859968 0.06728752 0.13304271 -0.10324807 0.046253532 -0.08709281
-0.070310235 -0.045372248 -0.12635227 -0.111689225 -0.07631505 0.009991333 -0.1278165 0.043467358
-0.11917621 -0.09024891 -0.059149712 0.09678565 0.024358109 0.088476285 -0.08693366 0.09356277

encoder.layers.0.linear2.bias f4 [50]
00000000: 7c7d 7f3d c837 fabc 0143 0e3e d4c0 edbd
00000010: f97d 0d3e 1938 f1bd c008 8e3b 564a fc3d
00000020: 98f8 c1bd 9076 4f3c fc66 873d dcc2 94bc
00000030: 9856 07bd be0f 04be 42aa c63d 4a02 ce3d
00000040: ac1d 0e3d 68f7 d8bd 753d 8abd 0024 2dbb
00000050: 027a 9dbd 36cb c53d c0d7 bc3d fb3d 81bd
00000060: 54c4 4b3d 1012 7b3d 079f 0f3e e6ea a5bd
00000070: a6b2 53bd 806e be3c 1cf9 2f3d 7491 053d
00000080: 3edc 27bd d497 d53d 812b a3bd 14f6 6d3d
00000090: 5ee8 913d 70de 403c 0c90 5a3d 206c 8b3b
000000a0: a0a2 41bd 2c6a ac3d fb4c 043e 5224 c03d
000000b0: 7420 f6bc 1d6a 08be 36a5 0fbe e349 cbbd
000000c0: 916f 033e 364a d0bd
0.06237553 -0.030544177 0.13892747 -0.11609045 0.13817586 -0.11778278 0.004334539 0.12318866
-0.094712436 0.012662545 0.066114396 -0.018159322 -0.033041567 -0.1289663 0.09700443 0.1005903
0.034696266 -0.10594064 -0.06750003 -0.0026419163 -0.07689287 0.096579 0.092208385 -0.0631065
0.04974778 0.061296523 0.14025508 -0.08101444 -0.051684044 0.02324605 0.04296218 0.032609418
-0.040981524 0.104293495 -0.07967282 0.058096007 0.07124399 0.011771783 0.05336003 0.004254833
-0.047274232 0.08418688 0.1291999 0.093819275 -0.030044772 -0.13321729 -0.14027867 -0.09926202
0.12835528 -0.101704046

encoder.layers.0.shortcut.weight f4 [50, 128]
00000000: da16 ebbc 6541 993d e8ec 21bd 38db 053c
00000010: c066 ad3c 1a7b 563d 18b8 2e3c 0de7 9d3d
00000020: d430 a63c c4cc a93c bb04 28bd 46da 74bd
00000030: 4ed8 dbbc a0b2 5b3c 92d1 84bd 3eaa 493d
00000040: cc81 9bbd d36c 9d3d 4980 ac3d d05e 30bc
00000050: bf85 1bbd 3cd6 d1bc c06d 043d 08ea 72bc
00000060: 0e9b e3bc 50d5 76bc 1ef8 35bd 4c4e 8abc
00000070: 0e4f 093d dc3b 90bc aee9 373d c313 af3d
00000080: 6621 89bd 0c4e 7abd 3420 18bd 5408 1abd
00000090: a163 0cbd 3936 b03d 6dda 57bd b294 1b3d
000000a0: 08ca 0d3d 21af 983d c406 d23c 2c3e a7bc
000000b0: 58b5 c23c c457 98bc 2772 a23d c855 6cbc
000000c0: 5ccc fc3c a0d9 c83c 0615 1a3d e295 8fbd
000000d0: d809 f13c be97 553d dfea a03d 1642 343d
000000e0: 508e adbd e010 85bd 88cd 03bc 57ce 83bd
000000f0: f8bf f13c 739b 23bd 74af cf3c 508e ff3b
00000100: 4345 70bd 5569 8b3d 08e9 e13c 67d9 78bd
00000110: 35e8 9b3d 4af6 16bd bade ddbc ac2c 0a3d
00000120: 4fba ad3d 5606 553d efaf a83d e844 60bc
00000130: e65d a9bd 006b cabb def3 86bd e5e9 53bd
00000140: b28c 06bd dd60 9b3d 49c1 b13d 4094 a9bd
00000150: de5a 4b3d 1e12 7e3d 9c89 87bd a481 f43c
00000160: 689d 4f3c 0aaf 0a3d 401b 4e3c 2af9 5a3d
00000170: b917 a03d 5220 e9bc 00e8 7ebd 985e 87bc
00000180: e621 433d 6eea 363d 50fa 353c 2269 5cbd
00000190: ecab aabd ab42 3dbd 3686 82bd 05ba 9e3d
000001a0: 600c e3bc 886f 57bd 400e 19bc 3076 fe3c
000001b0: 1344 923d d935 843d 32b5 8fbd 978b 873d
000001c0: 0310 8d3d d78c a23d 8069 52ba 8059 39ba
000001d0: 265a 1c3d 1af5 0a3d d7e4 93bd 9674 423d
000001e0: 8076 c3bc 67a0 afbd 2112 ad3d f434 99bc
000001f0: bcdf b4bc 1bff 5ebd 7c0f a2bc 201f de3c
00000200: 3816 88bc d30d 81bd 7cc9 82bd c023 a03b
00000210: a8ec 803c b6aa 15bd faca 0e3d a0e3 633c
00000220: b5ef b4bd 7f19 af3d 2033 753b 6521 863d
00000230: 2860 24bc 6eb3 f8bc a0bb cd3c 6807 c6bc
00000240: a0dd 0ebc 54c3 b3bc a0e0 6b3c 94d9 eb3c
00000250: 72ac 31bd 4e8a 143d 8316 af3d e66f 663d
00000260: 4c1a bdbc 0eef 2dbd d243 6f3d 369a 653d
00000270: e0db 23bb adbb 27bd 18d0 2d3c b22b 683d
00000280: 6844 123c a288 abbd b065 d43b d4e5 8fbd
00000290: a06b f73b f79d 843d 49e5 843d e109 17bd
000002a0: 00a6 e33b c7df 9a3d 4e0a 68bd cef2 593d
000002b0: f031 ce3c d65b 1c3d 429e 163d 19bb 9e3d
000002c0: 3ca0 093d e018 40bc 921e 74bd d4a0 db3c
000002d0: 885c 18bc 7624 343d e8da 0a3c 802e 50bc
000002e0: 8087 393a ecc3 a73c f887 82bc e6a3 5cbd
000002f0: c999 983d f915 97bd 1261 9bbd d7a3 813d
00000300: 88a9 52bd 1878 5abc f449 a9bd be99 9cbd
00000310: b726 ac3d 64d4 873c a8b7 9fbc b2a9 613d
00000320: 2e22 2bbd 0087 643b aa1e 25bd bf64 25bd
00000330: 7547 73bd a5b5 93bd 0cf3 f0bc c915 66bd
00000340: f4a5 7ebd f201 163d 7086 45bc 3276 3f3d
00000350: 1758 9e3d d19e 853d a825 5cbc a87d 9a3c
00000360: 023e 6b3d e4f6 4cbd 4ad8 e7bc 8853 04bc
00000370: 2410 013d a56d 05bd f027 ab3c 8581 9abd
00000380: a0f9 433b 82c5 2a3d 8d7a 963d 1405 acbc
00000390: 6074 623c e001 80bd 4c42 893c 1618 9dbd
000003a0: 32b1 413d 4094 ccba a63b 2fbd 5cd7 853c
000003b0: d037 6cbd e4cc 8b3c 10cd 983c b6ad 4d3d
000003c0: 5f14 6abd 068e 5f3d aafe 413d 1633 59bd
000003d0: c349 883d 484c 103d 1144 99bd d097 a23b
000003e0: 6bf5 b0bd 8090 1f3b e056 31bb fafe 9bbd
000003f0: 2c3b 14bd b25c 66bd a630 5c3d 74d2 82bd
-0.02869742 0.07483176 -0.039532572 0.008169942 0.02116716 0.052363493 0.010664009 0.07710085
0.020286955 0.020727523 -0.041020136 -0.059778474 -0.02683654 0.013409287 -0.06485285 0.04923462
-0.07593116 0.07686772 0.08422906 -0.010764793 -0.037969347 -0.02561485 0.03233123 -0.014826305
-0.027783897 -0.015065506 -0.044426076 -0.016883038 0.033522658 -0.017606668 0.04490059 0.08548691
-0.06695823 -0.061109588 -0.037140086 -0.0376056 -0.0342747 0.08604092 -0.05269854 0.037983604
0.0346165 0.07455278 0.025637992 -0.020415388 0.023768112 -0.018596537 0.07931929 -0.014424749
0.030859165 0.024517834 0.037617706 -0.0701101 0.02942364 0.052146666 0.07857298 0.044008337
-0.084744096 -0.06497359 -0.008044608 -0.064358406 0.029510483 -0.03994317 0.025352217 0.0077989474
-0.058659803 0.068072 0.027576938 -0.060754206 0.07612649 -0.036855973 -0.027083743 0.03373401
0.08482801 0.052007996 0.08236682 -0.0136883035 -0.08269863 -0.006177306 -0.06589483 -0.05173673
-0.03284902 0.075868346 0.08679444 -0.082802296 0.049647205 0.062028997 -0.06618044 0.029846974
0.012671806 0.033858337 0.012579739 0.053460278 0.07817025 -0.028457794 -0.06223297 -0.016524598
0.04763975 0.044657163 0.011107042 -0.0538112 -0.08333573 -0.046206158 -0.06373255 0.07750324
-0.027715862 -0.0525966 -0.009341776 0.031062216 0.071418904 0.06455583 -0.07016982 0.066184215
0.068878196 0.07937019 -0.0008026585 -0.00070705265 0.03817191 0.033925153 -0.07221382 0.047474466
-0.023860216 -0.08575516 0.084507234 -0.018702008 -0.022079341 -0.054442506 -0.019782774 0.027114451
-0.016612157 -0.06301465 -0.06386086 0.004887074 0.015737846 -0.036539756 0.034861542 0.0139092505
-0.08834783 0.08549785 0.0037414506 0.06549338 -0.010032691 -0.030358996 0.02511388 -0.024173453
-0.008719832 -0.021943726 0.0143968165 0.028790273 -0.043377347 0.03626471 0.08549216 0.05625906
-0.023083828 -0.04246431 0.058414288 0.05605527 -0.0025002882 -0.040950466 0.010608695 0.056682296
0.008927442 -0.0837567 0.0064818487 -0.07026258 0.0075506717 0.06475442 0.06489045 -0.036874656
0.006947279 0.075622134 -0.056650452 0.053210072 0.025170296 0.03817352 0.03677202 0.0775053
0.033600077 -0.011724681 -0.059599467 0.026810087 -0.009299405 0.043980084 0.008475043 -0.012706399
0.0007077381 0.020479165 -0.015933976 -0.053867243 0.07451207 -0.07377238 -0.07586874 0.06330078
-0.05143121 -0.013334297 -0.082660586 -0.076465115 0.08405822 0.016580768 -0.019496754 0.055093475
-0.041780643 0.0034870505 -0.040312447 -0.040379282 -0.05939432 -0.0721238 -0.029412769 -0.05617312
-0.062169984 0.03662295 -0.012055978 0.04674358 0.077316456 0.065244325 -0.013436712 0.018858746
0.057432182 -0.05004014 -0.028301377 -0.008076556 0.031509534 -0.03257527 0.020893067 -0.07544235
0.0029903427 0.041692264 0.073475935 -0.020998515 0.013821691 -0.06250358 0.016755246 -0.0767061
0.047288127 -0.0015608147 -0.042781495 0.016338043 -0.057670414 0.017065473 0.018652469 0.05021449
-0.057148334 0.054578803 0.047362007 -0.053027235 0.06654694 0.035228997 -0.07483686 0.004961945
-0.0864056 0.0024347603 -0.0027059838 -0.07616992 -0.036189243 -0.056240745 0.053757332 -0.06387797

encoder.layers.0.shortcut.bias f4 [50]
00000000: 7b1b a6bd fc06 093d d65c 7e3d 7902 1abd
00000010: 7354 a23d 863d 623d 4c73 cf3c d202 513d
00000020: f273 763d ee32 4e3d aba3 1dbd dcc3 3dbd
00000030: 77d5 abbd f834 ebbc 7dd3 07bd 7ca2 f43c
00000040: 070d 65bd db65 8abd 9147 10bd 877a 9b3d
00000050: a82f 173c 0032 2f39 cc17 8cbc db28 b1bd
00000060: a090 b93c 0002 0f3c 90b9 c7bb 31de 73bd
00000070: 0a86 97bd 7a88 573d d096 033d 363d 2c3d
00000080: cbc8 68bd 24f0 a6bd e69e 5a3d 11b7 67bd
00000090: 6031 e43c c507 ac3d e85b a1bd 8842 333c
000000a0: f8e1 5abc be5b 7f3d 4c9e 99bd 8052 a2bd
000000b0: 30b7 6abc 127f fabc 18dd 38bc aecd 5a3d
000000c0: 36eb 42bd c5f3 66bd
-0.0811071 0.033453926 0.062100254 -0.037600014 0.07926264 0.055234455 0.025323533 0.05102808
0.060169168 0.05034154 -0.038486164 -0.046329364 -0.083903246 -0.02871178 -0.033160675 0.029862635
-0.055920627 -0.06757709 -0.0352245 0.075917296 0.009227671 0.00016707927 -0.017101191 -0.08650371
0.02265197 0.008728504 -0.006095119 -0.05953807 -0.07398613 0.05262039 0.032126248 0.042050563
-0.056832116 -0.08151272 0.053374194 -0.05657107 0.027855575 0.083999194 -0.07878858 0.010941155
-0.013359539 0.06234335 -0.07500896 -0.07925892 -0.014325902 -0.03057817 -0.011283182 0.053418808
-0.047587596 -0.05638482

encoder.layers.0.layer_norm.weight f4 [50]
00000000: 0000 803f 0000 803f 0000 803f 0000 803f
00000010: 0000 803f 0000 803f 0000 803f 0000 803f
00000020: 0000 803f 0000 803f 0000 803f 0000 803f
00000030: 0000 803f 0000 803f 0000 803f 0000 803f
00000040: 0000 803f 0000 803f 0000 803f 0000 803f
00000050: 0000 803f 0000 803f 0000 803f 0000 803f
00000060: 0000 803f 0000 803f 0000 803f 0000 803f
00000070: 0000 803f 0000 803f 0000 803f 0000 803f
00000080: 0000 803f 0000 803f 0000 803f 0000 803f
00000090: 0000 803f 0000 803f 0000 803f 0000 803f
000000a0: 0000 803f 0000 803f 0000 803f 0000 803f
000000b0: 0000 803f 0000 803f 0000 803f 0000 803f
000000c0: 0000 803f 0000 803f
1.0 1.0 1.0 1.0 1.0 1.0 1.0 1.0
1.0 1.0 1.0 1.0 1.0 1.0 1.0 1.0
1.0 1.0 1.0 1.0 1.0 1.0 1.0 1.0
1.0 1.0 1.0 1.0 1.0 1.0 1.0 1.0
1.0 1.0 1.0 1.0 1.0 1.0 1.0 1.0
1.0 1.0 1.0 1.0 1.0 1.0 1.0 1.0
1.0 1.0

encoder.layers.0.layer_norm.bias f4 [50]
00000000: 0000 0000 0000 0000 0000 0000 0000 0000
00000010: 0000 0000 0000 0000 0000 0000 0000 0000
00000020: 0000 0000 0000 0000 0000 0000 0000 0000
00000030: 0000 0000 0000 0000 0000 0000 0000 0000
00000040: 0000 0000 0000 0000 0000 0000 0000 0000
00000050: 0000 0000 0000 0000 0000 0000 0000 0000
00000060: 0000 0000 0000 0000 0000 0000 0000 0000
00000070: 0000 0000 0000 0000 0000 0000 0000 0000
00000080: 0000 0000 0000 0000 0000 0000 0000 0000
00000090: 0000 0000 0000 0000 0000 0000 0000 0000
000000a0: 0000 0000 0000 0000 0000 0000 0000 0000
000000b0: 0000 0000 0000 0000 0000 0000 0000 0000
000000c0: 0000 0000 0000 0000
0.0 0.0 0.0 0.0 0.0 0.0 0.0 0.0
0.0 0.0 0.0 0.0 0.0 0.0 0.0 0.0
0.0 0.0 0.0 0.0 0.0 0.0 0.0 0.0
0.0 0.0 0.0 0.0 0.0 0.0 0.0 0.0
0.0 0.0 0.0 0.0 0.0 0.0 0.0 0.0
0.0 0.0 0.0 0.0 0.0 0.0 0.0 0.0
0.0 0.0

encoder.layers.1.linear1.weight f4 [50, 50]
00000000: 7d6d 8cbd 7c17 343d 101e d33c 4e2d df3d
00000010: fe6e d23d f03e 7e3c 10ee 1ebc e258 893d
00000020: 28a9 7fbd c057 893d e021 3e3d 88a6 ac3c
00000030: 6012 de3b 2123 0d3e 80ef ad3a bcc5 8b3d
00000040: b8aa 92bd 7022 1d3d 7008 433c 4e33 d43d
00000050: 8184 053e f8c7 223d 7cbc e5bd f7d5 03be
00000060: 9762 96bd ed70 a0bd 6a54 58bd dce9 923d
00000070: 7b8b dfbd 1813 93bd 8177 a9bd 0c14 5fbd
00000080: 7eee 0abe d011 ad3d a6c9 0ebe 783a 753d
00000090: a6c0 f03d 38f3 26bd c0c0 9b3b a53f 093e
000000a0: d328 dcbd cb59 dabd 4e85 04be 3aab 893d
000000b0: 2c46 45bd fcc2 263d c484 933d a05f cb3b
000000c0: c72b 8cbd 3e0b 853d 0012 1cbc 9949 0a3e
000000d0: 46da b73d 5a65 e53d de38 adbd a27c 953d
000000e0: 449d 6c3d 85e3 02be f8f2 f4bc a0ab af3c
000000f0: 5e63 f33d b28c d8bd 987c 8d3c 17f0 063e
00000100: c2f2 01bd c49c 1fbd 68f0 db3c 40a5 41bc
00000110: fc2d 4d3d aa44 cabd 7184 d7bd fbcc c3bd
00000120: f08c c33d e068 703d f803 ac3d e897 c53d
00000130: bc49 1abd 68ec d5bd 1079 2e3d 8a82 ed3d
00000140: 20f6 afbb 3cc2 0c3d 3f5f aebd c9c4 c6bd
00000150: 33bc 0fbe a562 d4bd e41b 653d 8a55 f03d
00000160: 00d0 973b 42ed f83d aef0 0fbd 1470 d4bd
00000170: fc63 bc3d a618 56bd aebc e13d fce6 143d
00000180: c132 04be e069 0abc 2208 803d 7794 81bd
00000190: 2074 973d 2842 e13c 9043 02be 0aab b0bd
000001a0: c4cf 663d e6e9 b93d 8003 e0bb a0d3 63bc
000001b0: 6ce6 a63d eeea 913d 1c3c 03be 6002 c6bb
000001c0: 8080 3bbd ec7e 793d 8fdc 073e 1a39 b93d
000001d0: 1805 cb3c 2895 253d 4a68 a03d 3845 bc3c
000001e0: 881b 773d affe 093e 3cab 05bd 548f 373d
000001f0: f6f3 d83d 94b4 8bbc c040 52bc dcad e6bd
00000200: cce8 163d 5e04 a63d 64ac 6e3d b8c1 f2bd
00000210: 9d19 fcbd 90a7 b33d b881 a53d a9cd 083e
00000220: 40bd 463c e801 c13c a005 8b3b 0000 33bc
00000230: 0062 a0ba e01f be3b 4022 afbc cecd e83d
00000240: 00dc a63b 421c 98bd 9a80 debd d8a7 89bd
00000250: ac57 fabd e3c0 093e 2c72 293d e2d4 833d
00000260: f4a9 363d 00c5 9abc 32df 8a3d 609c 223c
00000270: b62b 20bd c649 df3d 3a90 f53d 877b fdbd
00000280: 0069 7aba 6c5d 7fbd c8df 123d 46e5 d4bd
00000290: dc5c 7dbd 0491 403d 0cc0 cf3d 3a75 f53d
000002a0: c003 8abd bb11 08be 003f 313c 901d 363d
000002b0: f42a 513d be52 ae3d 0869 cfbd 1079 b93d
000002c0: e49c bb3d 93c2 88bd c02d cd3d 2e30 e73d
000002d0: 208c 5bbc 77a8 053e a595 073e 73bc 023e
000002e0: 40e9 723c 4ecd 08be 0c2a 453d c663 cc3d
000002f0: 204e 71bc 90d4 1c3c 6cf0 28bd e25d e43d
00000300: 6cad 5fbd 8e26 39bd b036 29bd e0c8 c8bd
00000310: 00ec 613b c0f2 903c 5ea2 dabd c0c1 4d3d
00000320: fd4f 06be 38d1 a5bc 206a bb3d eb12 95bd
00000330: 9525 023e ce6d 80bd 4aa4 c03d 4d1b 99bd
00000340: d03d 413c 181d eebc 7485 c93d 7c8d cfbc
00000350: e30e 023e ee7c d43d aa1b a23d a09c 4e3d
00000360: b4b8 683d 74e8 643d 9041 f63c ec1d 053d
00000370: 5064 b4bd 1297 dd3d 4ac5 af3d 20cc ff3c
00000380: 80ee ceba 9302 0cbe dfda 89bd ead9 fc3d
00000390: be30 24bd c47b d43d 627d a93d ae72 00be
000003a0: cee1 e6bd 2cbc 503d 8210 d2bd 1003 a1bc
000003b0: 3064 54bc 5108 e3bd 6c5a a9bd dace bebd
000003c0: 4662 f93d c8b3 ae3d d021 37bc 3be5 9cbd
000003d0: 7c0a 4fbd e410 573d c6b7 3dbd 401c 123b
000003e0: 00a6 7d3c b60d 55bd f878 d63c c85b 253d
000003f0: 86d5 29bd 41a6 0d3e c893 6a3d 38fb c0bd
-0.06856821 0.04396771 0.02577117 0.10897313 0.10275076 0.015517935 -0.009700313 0.06706406
-0.06241718 0.0670619 0.046419024 0.021075502 0.006777093 0.13782932 0.0013270229 0.06824824
-0.07161468 0.03836292 0.011903867 0.10361348 0.13038827 0.039741486 -0.11217591 -0.1287459
-0.07343023 -0.07834039 -0.05281488 0.071735114 -0.10915276 -0.07181376 -0.08274747 -0.054462478
-0.1356754 0.08450663 -0.1394411 0.059870213 0.11755495 -0.040759295 0.004753202 0.13403185
-0.10749974 -0.10661658 -0.12941477 0.06722112 -0.048162624 0.040713295 0.072030574 0.0062064677
-0.06844287 0.06496285 -0.009525776 0.13504638 0.08977179 0.11200972 -0.08458112 0.072991624
0.057767168 -0.12782104 -0.029901013 0.021444142 0.11884187 -0.105737105 0.017271325 0.13177525
-0.031725653 -0.038967863 0.026848033 -0.011819184 0.050092682 -0.09876378 -0.10523308 -0.09560581
0.09548366 0.058693767 0.083991945 0.096481144 -0.037667975 -0.104454815 0.042595923 0.11597164
-0.0053699166 0.034364924 -0.085142605 -0.097055025 -0.14036636 -0.103703775 0.0559348 0.11735065
0.00463295 0.12154628 -0.03514164 -0.1037294 0.09198758 -0.0522696 0.11022316 0.036353096
-0.12909986 -0.008448094 0.06251551 -0.063271455 0.07395196 0.027497366 -0.12721086 -0.08626373
0.056350484 0.09077816 -0.0068363547 -0.013905436 0.08149418 0.071248874 -0.12815899 -0.0060427636
-0.045776844 0.060912058 0.1326773 0.090440944 0.024782702 0.04042545 0.078323916 0.022982225
0.06032899 0.1347606 -0.032634005 0.044814423 0.10593407 -0.01705388 -0.01283282 -0.1126363
0.036843106 0.08106302 0.058269873 -0.11853355 -0.12309573 0.087721944 0.080813825 0.13359703
0.012130082 0.02356048 0.004242614 -0.010925293 -0.0012236238 0.0058021396 -0.021378636 0.11367379
0.005092144 -0.07427265 -0.108643726 -0.06721467 -0.12223753 0.13452487 0.04136865 0.064370885
0.044595674 -0.018892765 0.067808524 0.009924978 -0.039104186 0.10902743 0.119904 -0.123770766
-0.00095523894 -0.062344953 0.035857946 -0.10395293 -0.061856136 0.047013298 0.10144052 0.1198525
-0.067389965 -0.13288014 0.010818243 0.044461787 0.051066354 0.085118756 -0.10127455 0.09056294
0.09160784 -0.06677737 0.10018492 0.112884864 -0.013400108 0.13052545 0.13240679 0.127672
0.014826119 -0.13359568 0.048135802 0.09979968 -0.014728099 0.009572163 -0.04124491 0.11150719
-0.054608747 -0.045202784 -0.04131192 -0.09803939 0.0034472942 0.017693877 -0.106755 0.050233603
-0.1311645 -0.020241365 0.09151101 -0.07278999 0.12709649 -0.062709436 0.09406336 -0.0747591
0.011794522 -0.029066607 0.09839907 -0.02533602 0.12700991 0.10375391 0.07915433 0.050442338
0.05681677 0.055885747 0.03006056 0.03249924 -0.088081956 0.1081983 0.08582552 0.031225264
-0.0015787631 -0.13672857 -0.067311995 0.12346251 -0.040085547 0.10375169 0.08275868 -0.12543747
-0.112735376 0.050960705 -0.10257055 -0.01965478 -0.01296334 -0.110855706 -0.082692 -0.093167976
0.12176947 0.08530384 -0.011177495 -0.0766091 -0.050547108 0.052506343 -0.046317838 0.002229467
0.015481472 -0.05201503 0.02618073 0.040370733 -0.041463397 0.13832952 0.05726984 -0.09422916

encoder.layers.1.linear1.bias f4 [50]
00000000: 7e9d c53d 9c52 8fbc ea50 a0bd ce91 81bd
00000010: b881 d03d 4cb7 bcbd 0198 0bbe 806e 6a3d
00000020: d004 64bc c80b fe3c ee9f b83d a205 913d
00000030: c420 993d e0bf 0ebe 8479 40bd 92db 9ebd
00000040: b6d6 25bd 1af1 a6bd 040e d23d 506e 9c3d
00000050: 29ec 0e3e d0fe 3fbc 60be 13bc bc6b 6e3d
00000060: 54de 4c3d f321 023e f26a f3bd 884a 383d
00000070: cde0 ffbd 80e3 85ba 8a6f a03d dded 9fbd
00000080: f05d 20bc 201d 393c 64eb b83d 10b4 443d
00000090: 91c2 023e 9a2b 07bd b07a 5e3c cc84 65bd
000000a0: 2768 103e b82a 9b3c 5954 d9bd d660 923d
000000b0: d81f 0fbe 4d15 013e ea7d f63d dcf9 ffbd
000000c0: e059 57bc 8f83 053e
0.0964918 -0.017495446 -0.07827933 -0.06326638 0.10180992 -0.092146486 -0.13632204 0.057234287
-0.013917163 0.031011477 0.09014879 0.070811525 0.07476953 -0.13940382 -0.046990886 -0.077567235
-0.040487967 -0.08151455 0.102565795 0.07638228 0.13957275 -0.011718467 -0.009017557 0.058208212
0.050016716 0.12708263 -0.118856326 0.044992954 -0.12494049 -0.0010214895 0.078337744 -0.07809041
-0.009788021 0.011298448 0.09029272 0.048023283 0.12769534 -0.033000566 0.013579056 -0.056034848
0.14102231 0.018941268 -0.10611791 0.07147376 -0.13976991 0.12605782 0.12035735 -0.12498829
-0.013143986 0.13038467

encoder.layers.1.linear2.weight f4 [50, 50]
00000000: aefa 0ebd 5a5d f73d 82c6 febd f03a 6fbc
00000010: 8b39 ccbd c0b7 013b b0ec 01bc b703 f5bd
00000020: 42f2 39bd 87c2 b6bd 6ef6 ae3d 306a f63c
00000030: f01c b8bd 903f 5d3c ab02 83bd 43bd bdbd
00000040: 70a0 a9bd f06e 4f3d 4bf2 89bd a214 bfbd
00000050: eabc 8e3d 8817 293d 7613 fc3d 7499 ad3d
00000060: 60ba 6fbc 20a2 a13c 770c 013e 8886 dcbd
00000070: 450a 0b3e e02d 853c 3c82 3e3d 1f33 86bd
00000080: c0a4 593d 5d78 013e 34c1 063d 395b 06be
00000090: 485a 98bd c897 603d 3654 ad3d 25dc 0bbe
000000a0: 50a3 103d cc16 b9bd 7896 04be 485f c4bd
000000b0: 3cfe 783d 2d28 8bbd b52c 013e 33a0 0c3e
000000c0: 60bc ed3c dc35 06bd ec8c 643d 7228 53bd
000000d0: a070 dbbc e071 41bd 5858 163d b07c 20bd
000000e0: d431 04be 7443 eabd ecba d23d 0660 efbd
000000f0: 50c1 5abc 7983 07be 2cdc bd3d 58fe 34bd
00000100: dac3 9e3d 0077 82bb 02ef f13d d44d aebd
00000110: c0f6 643c d405 53bd 1cc9 9f3d 67ca cbbd
00000120: 7329 063e 97ef 86bd 0061 7fba 6edc a73d
00000130: 6a77 30bd 88fb 20bd 7bd5 0d3e 18d2 48bd
00000140: 98ac 84bd 5c8a 8b3d 4d9c 023e 0e77 9bbd
00000150: 0211 8c3d e0b1 ef3c e813 61bd 50d4 403d
00000160: e00e 83bd 149c a13d 4c49 223d 4036 f43c
00000170: e8d0 d93d 5909 0d3e d6d6 58bd c81a 953c
00000180: ac10 d23d 1438 1b3d 4766 e9bd 788c 593d
00000190: a8ff 8a3c 8253 86bd f26a bf3d 46aa de3d
000001a0: 803d 45bc 9c9e 54bd 4029 6d3d 8024 fe3c
000001b0: 380d 993d 0765 a4bd 2046 b63d 38c0 b5bd
000001c0: bb47 07be c794 0abe a455 ac3d b0aa 59bc
000001d0: 806a 5bbd 2a92 ddbd f892 d7bc f448 13bd
000001e0: c074 ea3b e015 a8bb 6e48 9b3d 2045 d33d
000001f0: 8685 d0bd 4068 653b 2037 043d f4ce 2a3d
00000200: 088d 683d c6e0 acbd eeab 03be f4e9 933d
00000210: 4e81 8c3d 00da 1abb d842 7ebd 2037 053d
00000220: 183b 0fbd 3d41 003e 9c9a 193d 28df debd
00000230: fad9 f93d 5ab5 0dbe 06e9 843d 2cd8 80bd
00000240: 2068 c5bb f40c c9bd 4a6a 34bd bc19 093d
00000250: 3ac8 ce3d 6d3c 0cbe a4d9 9abc c2d6 7fbd
00000260: 248d 8bbd c2d7 c03d 746c be3d 244c 3e3d
00000270: bcbc 7d3d 0907 e5bd ab7b e8bd 8800 3c3d
00000280: aa31 edbd 3c2d 69bd e47d ad3d e25b b3bd
00000290: 5061 0dbc 8003 cfba 526e 7dbd 9aa3 abbd
000002a0: da1e e33d e970 d5bd 80d3 8ebc 4021 683d
000002b0: ba35 f93d f042 efbc f0b4 5ebc 64fc 03be
000002c0: d498 f5bd bd19 01be a6e0 f03d c0e5 763d
000002d0: de3a 49bd 10cc 6dbd 5680 f53d f4d3 85bd
000002e0: 1f40 053e 4646 e03d 1e5b 45bd 1e78 a53d
000002f0: 5bd0 00be 1922 013e 5212 fdbd a8c1 493d
00000300: e0ba bfbb 60a0 e1bc 006e b43c 92c6 32bd
00000310: 6f29 f0bd 68fc b13c 3edd c03d 1e5a d13d
00000320: 6052 6cbc 1468 1f3d 6ced c2bd a0c9 923c
00000330: fea3 c9bd 324f 81bd 2407 d9bd 60cc 133c
00000340: 80a9 903a 868f 53bd c09b 6b3b 9c17 07be
00000350: 80b6 a6ba 92c2 0ebd 3df6 0c3e 80ca b63b
00000360: daa2 a33d 973d 0a3e 697e 073e a076 cebb
00000370: 0070 9db9 b0ec 66bc 4d81 07be 885f 0e3d
00000380: b0dc 09bd 406e 703c c0d5 973b 489e a63c
00000390: 24c5 5e3d d2f4 a73d befe c83d 1a9f 9c3d
000003a0: 4c3d 283d 5022 42bd 74f2 ba3d 4e08 bc3d
000003b0: 00d9 023b e0bd 713c d003 ec3c 9889 01bd
000003c0: 5226 e73d 70e0 7a3d 94f4 bbbd 821a 3fbd
000003d0: 7863 10be 3cec 773d 7cdd 14bd 189c 233d
000003e0: c203 ee3d 4412 07be b02a 0ebc a02b fe3c
000003f0: c42d 2d3d 3d91 e4bd b204 fa3d 025a e83d
-0.034907036 0.12078352 -0.12440206 -0.014601454 -0.09971913 0.0019793361 -0.007929966 -0.11963599
-0.04539705 -0.08923822 0.085430965 0.030079931 -0.089898944 0.013503924 -0.06396993 -0.092646144
-0.08282554 0.050642908 -0.06735667 -0.09330107 0.06969626 0.041282207 0.123083994 0.084765345
-0.014631838 0.019730628 0.12602411 -0.10767847 0.13578136 0.016257226 0.04651092 -0.06552719
0.053135633 0.12643571 0.032899097 -0.13120736 -0.07439095 0.05483225 0.084633276 -0.13658197
0.035311997 -0.09037551 -0.12948024 -0.09588486 0.06078933 -0.06794772 0.1261471 0.13732986
0.029020488 -0.032766208 0.055798456 -0.051552244 -0.026787102 -0.04722774 0.036705345 -0.03918141
-0.12909633 -0.11438647 0.10289559 -0.11688237 -0.013351753 -0.13233747 0.0927051 -0.044187874
0.077521995 -0.003981471 0.11813165 -0.08510938 0.013974845 -0.05151923 0.078020304 -0.099507146
0.13101749 -0.06588667 -0.0009741932 0.081963405 -0.043082632 -0.03930238 0.13850968 -0.049028486
-0.06478232 0.06813499 0.12754937 -0.07591067 0.068391815 0.029259622 -0.054950625 0.047077477
-0.063993216 0.07891098 0.039620683 0.029811025 0.10635549 0.13773097 -0.05293926 0.018201247
0.10257086 0.037895277 -0.11396461 0.053112477 0.01696761 -0.065588966 0.0934657 0.10872321
-0.0120385885 -0.051909074 0.057900667 0.031023264 0.074732244 -0.08027082 0.08900094 -0.088745534
-0.13210957 -0.13533317 0.08414772 -0.013285324 -0.053568363 -0.10818894 -0.026315197 -0.035958245
0.007155031 -0.005129561 0.07582174 0.10315919 -0.101817176 0.0035004765 0.032279134 0.041701272
0.056775123 -0.0844131 -0.12858555 0.072223574 0.068606004 -0.0023628473 -0.062075466 0.032523274
-0.034968466 0.12524886 0.037500963 -0.108824074 0.12199779 -0.13838711 0.06489758 -0.062912315
-0.0060243756 -0.09816924 -0.044046678 0.033471808 0.10096784 -0.13694926 -0.018902607 -0.06246067
-0.0681403 0.094161525 0.092980295 0.046459332 0.06194757 -0.111829825 -0.11351713 0.045898944
-0.11581738 -0.056927904 0.08471277 -0.0875776 -0.008629158 -0.001579389 -0.061872788 -0.08380814
0.11089869 -0.104219265 -0.017434835 0.056672335 0.12168451 -0.029206723 -0.013592944 -0.12889248
-0.1199204 -0.12607475 0.11761598 0.0602777 -0.049128406 -0.058055937 0.11987369 -0.065345675
0.13012742 0.109509036 -0.0481826 0.08079551 -0.12579481 0.12610663 -0.1235701 0.04925695
-0.0058511347 -0.027542293 0.022025108 -0.043646403 -0.11726653 0.021726802 0.094171986 0.102222666
-0.014423937 0.038917616 -0.09517941 0.017918408 -0.09845732 -0.063139334 -0.10597065 0.009020895
0.0011036843 -0.051650546 0.0035950989 -0.131926 -0.0012719184 -0.034853525 0.13765807 0.005578339
0.07990046 0.13500057 0.13231815 -0.0063007623 -0.0003002882 -0.014094517 -0.13232918 0.034759074
-0.03365773 0.014674723 0.0046336353 0.020339146 0.054387227 0.08200993 0.09814213 0.07647534
0.041074082 -0.047396004 0.091282755 0.091812715 0.0019965768 0.014754742 0.028810412 -0.03162536
0.11286606 0.061249197 -0.09177509 -0.04665614 -0.14100444 0.060528025 -0.036344036 0.039943784
0.116218105 -0.13190562 -0.00867717 0.031026661 0.042279974 -0.111605145 0.12207927 0.11345293

encoder.layers.1.linear2.bias f4 [50]
00000000: 8054 d7ba 8075 403d 1894 80bc 604a 2cbc
00000010: 972a 0ebe 9447 b73d 6381 9dbd 927f b03d
00000020: 380f d33c 9072 723c 14fa 57bd 0060 283b
00000030: d09e 06be 46ef d33d 5fe2 063e fcb4 1a3d
00000040: 4f64 043e 71c3 0abe 0ac4 ee3d 47dd 033e
00000050: 4c77 4c3d 66f2 9c3d 26e0 a9bd 007f 473c
00000060: bc53 c7bd 7e49 f1bd 0e78 91bd bc13 653d
00000070: e493 e0bc 003f 59ba 187f 833c 30cd 5c3c
00000080: 98ab 363d 6c40 173d be42 7abd f4c1 303d
00000090: 5813 c3bc 1009 2bbd a4e3 f1bc 20ae 7e3c
000000a0: b06b 92bd 6227 c5bd d2b9 15bd f41b 87bd
000000b0: eab5 a93d a2d9 fa3d 809e c83b 2030 d0bd
000000c0: c5db acbd a8b1 d33c
-0.0016428381 0.046987057 -0.015695617 -0.010515779 -0.13883434 0.08949199 -0.07690694 0.08618082
0.025764093 0.014797822 -0.052728727 0.0025691986 -0.1314652 0.10348372 0.13172291 0.037770256
0.1292889 -0.13551117 0.11658485 0.1287738 0.049918458 0.07663421 -0.08294706 0.012176275
-0.09732768 -0.11781596 -0.07102977 0.055927023 -0.02741427 -0.0008287281 0.016051814 0.013476655
0.04459724 0.03692667 -0.061098807 0.043153718 -0.023812935 -0.04175669 -0.029527493 0.015544444
-0.07149446 -0.09626652 -0.036554165 -0.065971285 0.082866505 0.122485414 0.0061224103 -0.10165429
-0.08440355 0.025841549
