Weights/DQNAAPL_2_128_128_0.2_32_11_target.pth (torch, 322091 bytes, 14 tensors)

rnn1.weight_ih_l0 f4 [128, 32]
0	0x3d8cb872	0.06871118
1	0xbaf9cae4	-0.0019057659
2	0xbd7b111e	-0.06129562
3	0xbbb77f81	-0.0055999164
4	0xbd47f3a7	-0.04881635
5	0xbc4f0261	-0.0126348445
6	0x3d99b514	0.07505241
7	0x3d80f6ee	0.06297098
8	0x3de16791	0.11006082
9	0x3dac9c01	0.08428193
10	0x3d9e0705	0.077161826
11	0x3db5b751	0.088728555
12	0x3cb31cc3	0.0218643
13	0xbd570798	-0.052497476
14	0x3d7bc40b	0.061466258
15	0x3dd11c65	0.10210494
16	0xbba99773	-0.005175525
17	0x3d9b1d11	0.07573903
18	0x3cd9ddf7	0.026595099
19	0x3d67a56d	0.056554247
20	0xbc6180e8	-0.013763644
21	0xbb83cb71	-0.004022055
22	0x3de4e195	0.11175839
23	0x3cfd56fa	0.030925263
24	0xbd1b67fb	-0.03794096
25	0xbd527bc3	-0.05138756
26	0x3d84d84a	0.06486566
27	0x3d0f07c0	0.0349195
28	0x3d6438c3	0.055718195
29	0xbd0114b7	-0.031513896
30	0x3da9c317	0.082891636
31	0xbb0dac5a	-0.0021617622
32	0x3d6ebac5	0.058283586
33	0xbc9d5ee5	-0.019210288
34	0xbc954e85	-0.018225918
35	0x3d8ad4bb	0.06778856
36	0x3ca7ee51	0.02049938
37	0x3df754e7	0.12076741
38	0x3defa8b0	0.117020965
39	0x3dc25cf2	0.09490384
40	0x3db81faa	0.089904144
41	0x3e01ca0d	0.12674733
42	0xbcd8b405	-0.026453028
43	0x3dc70c2d	0.09719119
44	0x3d842271	0.06451882
45	0xbd12feda	-0.035887577
46	0x3dd90b1a	0.105978206
47	0x3dde6ecd	0.10860977
48	0x3a167c2d	0.00057405495
49	0x3defbd2e	0.11706005
50	0x3d70c217	0.05877885
51	0x3d6332fb	0.05546854
52	0x3d5ec3ea	0.054386057
53	0x3dd2271e	0.10261367
54	0x3d5fdac8	0.054652005
55	0xbd22bedc	-0.0397328
56	0x3da9e257	0.08295124
57	0xbc44b4df	-0.012006014
58	0x3ca31904	0.01990939
59	0x3d9e4ee3	0.0772989
60	0x3de188b5	0.11012403
61	0x3d661d77	0.056180444
62	0x3db059d1	0.08610881
63	0xbd84d98a	-0.06486805
64	0x3c15b9d4	0.009138543
65	0x3c0877ae	0.008329315
66	0x3d6cb67a	0.05779121
67	0xbd45acae	-0.048260383
68	0xbd346270	-0.04403919
69	0x3c3a6063	0.011375519
70	0x3d00998d	0.031396437
71	0x3c5395d3	0.012914139
72	0xbc57c293	-0.013168949
73	0x3ceae1a3	0.028672045
74	0x3dd1397a	0.10216041
75	0x3d88c0f7	0.0667743
76	0xbcb9a352	-0.022660885
77	0xbd1f9c44	-0.038967386
78	0x3c702fbf	0.014659821
79	0xbd6efa0e	-0.05834394
80	0x3ce716bf	0.028209088
81	0xbcc7d37c	-0.024392836
82	0xbc12e493	-0.008965629
83	0x3ddd4f97	0.10806196
84	0xbb426807	-0.0029664056
85	0x3d724dda	0.059156276
86	0x3cea7589	0.028620498
87	0x3dbc8f10	0.092069745
88	0x3cd25cd3	0.025679028
89	0x3dc59383	0.09647276
90	0xbd4e3e1e	-0.05035221
91	0x3d9e2da0	0.07723546
92	0x3da53481	0.08066655
93	0xbd7d8ae3	-0.06190003
94	0x3dd91980	0.10600567
95	0x3d80d3ee	0.062904224
96	0x3d9e1139	0.07718129
97	0x3c48ac2c	0.01224808
98	0x3ce11e45	0.027480254
99	0x3bd9dc63	0.0066485866
100	0x3c84df71	0.016219826
101	0x3d5940d3	0.053040337
102	0x3cff8220	0.031189978
103	0xbc8520d2	-0.016251002
104	0xbcdf2880	-0.027240992
105	0xbc84f9db	-0.016232422
106	0x3d2dd2d4	0.04243739
107	0xba948c6b	-0.0011333352
108	0x3d6b64ce	0.05746918
109	0x3cfa250d	0.030535245
110	0x3d05bec0	0.032652617
111	0x3bcd87cd	0.006272292
112	0xbcf9d74d	-0.030498171
113	0x3ca8fd45	0.02062858
114	0x3d1c3e96	0.038145624
115	0x3d3a27e9	0.045448218
116	0xbc3b39be	-0.011427341
117	0xbd6c45ba	-0.057683684
118	0x3d7c6414	0.06161888
119	0x3dbac04f	0.09118711
120	0xbc675301	-0.014118911
121	0x3dcdabc9	0.10042531
122	0x3d28ca89	0.041208778
123	0x3e08c2ca	0.13355556
124	0x3dc5a009	0.09649665
125	0x3de62afd	0.11238668
126	0x3e0be253	0.13660555
127	0x3dda65e9	0.10663969
128	0x3dbc2bcc	0.09188041
129	0x3df8efd0	0.121551156
130	0x3dd91635	0.10599939
131	0x3cc69db9	0.02424513
132	0xbd1b6f0e	-0.037947707
133	0x3df58d98	0.119898975
134	0x3d45c406	0.048282646
135	0xbc006f3b	-0.007839019
136	0x3d949c39	0.072563596
137	0x3dc39706	0.0955029
138	0x3cebf5b7	0.02880369
139	0x3d0b9681	0.03407908
140	0x3da4c34c	0.080450624
141	0x3df4d29b	0.11954232
142	0x3c8aa641	0.01692498
143	0xbd466b58	-0.048442215
144	0x3ceaa453	0.028642809
145	0xbcf11caf	-0.029432623
146	0x3d9b9331	0.07596434
147	0xbd05e70b	-0.032691043
148	0x3d359062	0.044327147
149	0xbca0e47c	-0.0196402
150	0x3daa5ceb	0.08318504
151	0x3d1c1b11	0.03811175
152	0x3df6fdd6	0.12060134
153	0x3d59d6a2	0.053183205
154	0xbcf53b78	-0.029935583
155	0x3bdc5676	0.006724174
156	0x3df74433	0.12073555
157	0x3cbe75a7	0.02324946
158	0x3c0fe4c7	0.008782572
159	0x3d977abe	0.07396458
160	0x3b8dce80	0.0043275952
161	0x3d349380	0.04408598
162	0xbc241595	-0.010014911
163	0x3da9e6a9	0.08295948
164	0xbd48669f	-0.048925992
165	0x3d6d4f3f	0.057936903
166	0x3ce8b90d	0.028408552
167	0xbcaed170	-0.021340102
168	0x3cc17b64	0.023618408
169	0xbd52d4b3	-0.051472377
170	0x3cd88041	0.026428344
171	0x3db580ac	0.08862433
172	0x3ca5703c	0.02019512
173	0x3d5deb5f	0.054179545
174	0x3db7d412	0.08975996
175	0xbcf40b7b	-0.02979063
176	0x3db31a3c	0.08745238
177	0x3c11f175	0.0089076655
178	0x3cd8e3e8	0.026475862
179	0x3dc17151	0.094454415
180	0xbd0b478b	-0.034003776
181	0x3c8b7fce	0.017028715
182	0x3deb807b	0.11499115
183	0x3c60bc3f	0.013716756
184	0x3d81b07a	0.06332488
185	0x3d0d424a	0.034487046
186	0x3dc8d54c	0.09806308
187	0xbc6b1818	-0.014349006
188	0x3d6f36af	0.05840176
189	0x3dd154d9	0.102212615
190	0x3df7ea2f	0.12105214
191	0xbc396348	-0.011315174
192	0x3dd3b93b	0.10338064
193	0x3d2f8d50	0.042859375
194	0x3c6e4d20	0.014544755
195	0x3d51f830	0.05126208
196	0x3b0e3914	0.0021701502
197	0x3cd7ed84	0.026358373
198	0x3d47d808	0.048790008
199	0x3d806db6	0.06270926
200	0x3838b29e	4.403537e-05
201	0xbd759886	-0.05995991
202	0x3da551d1	0.08072246
203	0x3c5af199	0.013363265
204	0xbca63aae	-0.020291653
205	0x3d8f4239	0.06995053
206	0x3d7725bf	0.06033873
207	0xbb859741	-0.0040768688
208	0x3d9f14da	0.07767649
209	0x3c079559	0.008275353
210	0x3d5e36d2	0.0542515
211	0xbd413a5d	-0.0471748
212	0xbcdc48d2	-0.026890192
213	0x3da10292	0.078618184
214	0x3d18e66e	0.03732913
215	0xbd7d7fb8	-0.06188938
216	0x3dd39446	0.10331015
217	0xbb962e82	-0.004583181
218	0xbd69a75b	-0.05704437
219	0x3c5a30ab	0.013317267
220	0x3d43e8d5	0.047829468
221	0x3ccedbf1	0.02525136
222	0x3de3fff1	0.11132801
223	0x3dc235b8	0.09482902
224	0x3d26290f	0.0405665
225	0x3d95a2ff	0.0730648
226	0xbd28422c	-0.04107873
227	0x3c55d6b3	0.013051677
228	0x3a7f1af0	0.0009731492
229	0xbd4dc0ef	-0.050232824
230	0xbd059110	-0.032609046
231	0xbd3046b7	-0.04303619
232	0x3c7b216a	0.015327791
233	0xbd54b72e	-0.051932506
234	0x3da56d56	0.08077495
235	0xbbddf3b5	-0.006773437
236	0x3df0727d	0.11740587
237	0x3d87d634	0.06632653
238	0x3d89acd2	0.06722416
239	0x3d840b72	0.064474955
240	0xbd152a4f	-0.0364173
241	0xbd089d75	-0.033353288
242	0x3a97c5c3	0.0011579323
243	0x3d809fb9	0.06280465
244	0x3c88fddf	0.016722618
245	0xbd206c33	-0.039165687
246	0x3debfad9	0.11522455
247	0xbb105fc2	-0.0022029732
248	0x3d6eac2d	0.05826967
249	0xbc1d970b	-0.009618531
250	0xb986277c	-0.0002558789
251	0x3cbcde9b	0.023055365
252	0x3deeb138	0.116548955
253	0xbd5525e4	-0.05203809
254	0x3de7d6a2	0.11320235
255	0x3d98f3cb	0.07468375

rnn1.weight_hh_l0 f4 [128, 128]
0	0x3dac4dff	0.08413314
1	0x3d58f583	0.052968513
2	0xbd34cf80	-0.0441432
3	0x3df51ca4	0.119683534
4	0x3d90dce3	0.07073381
5	0x3dd7fb91	0.10546029
6	0xbd434e55	-0.047682125
7	0x3c78ebad	0.015192908
8	0x3dc89caf	0.0979551
9	0xbde5ca20	-0.11220193
10	0xbbc86d9f	-0.0061165835
11	0xbd095afd	-0.03353404
12	0xbd0aa333	-0.033847045
13	0xbc571b29	-0.013129034
14	0x3d0d4f5f	0.034499522
15	0xbcde15d2	-0.027110014
16	0xbdd9099e	-0.105975375
17	0xbd292821	-0.041298036
18	0x3dd201f0	0.10254276
19	0x3d882754	0.06648126
20	0x3dbab9c2	0.09117462
21	0x3dc9e6a2	0.09858443
22	0x3dbdcf49	0.09268052
23	0xbd3b8d25	-0.045788903
24	0x3ca8622c	0.020554624
25	0xbdbd75a1	-0.092509516
26	0xbca88726	-0.020572256
27	0x3d1ed1a6	0.038774155
28	0xbd063bd5	-0.032771904
29	0xbd327828	-0.04357162
30	0x3d48a50d	0.04898553
31	0xbcee2a8f	-0.029073028
32	0xbd42f35e	-0.047595374
33	0xbc370844	-0.011171404
34	0xbd6a2fec	-0.057174608
35	0x3ddb11d5	0.106967606
36	0x3bfe6a01	0.0077641015
37	0xbc5a6cf8	-0.013331644
38	0xbb4a2735	-0.0030846123
39	0x3d7c8898	0.061653703
40	0xbd802d7f	-0.06258678
41	0xbd81a644	-0.06330541
42	0x3ca61ba9	0.020276861
43	0x3d0807c6	0.03321054
44	0xbdd67f16	-0.104734585
45	0x3d08d35c	0.033404693
46	0xbd89e2e1	-0.06732727
47	0x3d830909	0.06398208
48	0xbdb11f64	-0.086485654
49	0x3a7c0042	0.00096130755
50	0xbd288a5a	-0.041147567
51	0xbbcd5b49	-0.0062669856
52	0x3cafb06a	0.021446425
53	0x3d657ad2	0.056025334
54	0x3ccdbaa6	0.025113415
55	0x3de75f80	0.11297512
56	0x3cf356c6	0.029704463
57	0xbd292558	-0.04129538
58	0xbde39c36	-0.11113779
59	0x3b0b7a2b	0.0021282535
60	0xbcac7307	-0.021050943
61	0xbc3493aa	-0.011021534
62	0xbce01b5d	-0.027356798
63	0x3dc7cb89	0.09755618
64	0xbc8a09c6	-0.016850363
65	0xbdbfde31	-0.093685515
66	0x3deeb794	0.116561085
67	0xbdfef2fe	-0.12448691
68	0x3bfaca8d	0.0076535405
69	0xbcaf8dc5	-0.021429906
70	0x3cc737a7	0.02431853
71	0x3db3ed50	0.08785498
72	0xbd1e0286	-0.038576625
73	0x3dc7dccb	0.0975891
74	0x3df5ad77	0.119959764
75	0xbc1331c6	-0.008984035
76	0xbd82b344	-0.063818485
77	0xbd2df3f6	-0.042468987
78	0x3b1d9671	0.002404597
79	0x3c88e547	0.01671089
80	0x3c22e356	0.009941896
81	0x3cfcd87a	0.030864943
82	0x3ca239f3	0.019803023
83	0x3cd0af57	0.025474234
84	0xbdb2616f	-0.0870999
85	0x3d44a007	0.048004176
86	0xbcaca641	-0.02107537
87	0xbd33bd5b	-0.043881755
88	0x3daca1af	0.08429276
89	0x3ca3e9eb	0.020009002
90	0x3cfe1e22	0.031020228
91	0xbc36aa02	-0.011148931
92	0x3c71ee5a	0.0147663
93	0xbd773bd0	-0.060359776
94	0xbd11f91d	-0.035637964
95	0x3df3cc05	0.11904148
96	0x3d5580ab	0.05212466
97	0x3dfa62a2	0.12225844
98	0x3d8a710c	0.06759843
99	0xbcb8be7b	-0.022551766
100	0xbc402354	-0.011727173
101	0xbd1e0fd9	-0.038589332
102	0xbdbce334	-0.09223023
103	0x3cd3da04	0.025860794
104	0xbdafc5a5	-0.085826196
105	0x3d8ed8f4	0.06974974
106	0xbd5c2f52	-0.053756066
107	0xbd917c67	-0.07103806
108	0xbdf4fb11	-0.119619496
109	0x3ccb8974	0.024845816
110	0xbdac1bc4	-0.084037334
111	0xbd81764b	-0.06321391
112	0x3d83f26c	0.06442723
113	0x3cd04801	0.02542496
114	0xbd99bab4	-0.07506314
115	0xbcae3d3e	-0.021269437
116	0xbd332d75	-0.043744523
117	0x3c1292d3	0.008946138
118	0xbd457e85	-0.04821636
119	0xbb84bb29	-0.0040506315
120	0xbbcb9b03	-0.006213547
121	0x3da81307	0.08206754
122	0xbda3e3e7	-0.08002453
123	0xbaf4f77f	-0.0018689482
124	0xbd70384c	-0.05864744
125	0x3df1e2b1	0.11810816
126	0xbc2e57ff	-0.010641097
127	0xbd2fcb65	-0.04291858
128	0x3dd0cf05	0.10195736
129	0xbb931751	-0.0044888635
130	0x3c8f86f3	0.017520403
131	0x3dd151cb	0.10220679
132	0x3c33adfd	0.010966775
133	0x3da8f47f	0.08249759
134	0x3de4033c	0.111334294
135	0xbd32c200	-0.043642044
136	0x3dc40a8d	0.09572325
137	0xbdfdc37f	-0.123908035
138	0xbdc77975	-0.09739963
139	0xbbc1f9c7	-0.0059196684
140	0x3c8c91a9	0.0171593
141	0x3da73ca6	0.08165865
142	0x3d107d98	0.035276026
143	0x3ca7a21b	0.02046304
144	0x3cb6e09f	0.022323905
145	0x3d6c26a8	0.057654053
146	0x3d3b5fc9	0.045745645
147	0xbbc38157	-0.0059663462
148	0x3de5f16b	0.112276874
149	0xbd13f532	-0.03612251
150	0x3dc32644	0.09528783
151	0x3d81eabf	0.063436024
152	0x3d818c2e	0.06325565
153	0x3d1eb53a	0.03874705
154	0x3dd6a52d	0.104807235
155	0xbde87c9c	-0.11351892
156	0xbd2adb5a	-0.041713096
157	0x3d621184	0.055192485
158	0x3df9b90d	0.12193499
159	0xbca3abe9	-0.019979434
160	0x3dd23d5c	0.102656096
161	0xbce4711a	-0.027885962
162	0x3c38b12a	0.011272708
163	0x3daa8762	0.083266035
164	0xbd95ad3d	-0.07308433
165	0x3de18e78	0.11013502
166	0x3c00828b	0.007843624
167	0x3ceab03b	0.028648486
168	0xbdb92de0	-0.09041953
169	0xbdd8d660	-0.10587764
170	0x3e0044f8	0.1252631
171	0x3d49e264	0.04928817
172	0x3d230242	0.039797075
173	0x3c81274b	0.015765807
174	0xbbb6e718	-0.0055817477
175	0xbcefa0f0	-0.029251546
176	0xbce75ccf	-0.028242497
177	0x3e061d45	0.13097103
178	0x3d239ae6	0.039942645
179	0xbc71236b	-0.014717917
180	0xbd806ca7	-0.06270724
181	0x3b2057b5	0.002446634
182	0x3d89579a	0.06706162
183	0x3d8c4609	0.06849296
184	0x3da79a90	0.08183777
185	0xbc15cf86	-0.009143716
186	0xbded5651	-0.11588729
187	0x3de0e6b6	0.109815046
188	0x3d4b7034	0.049667552
189	0x3d01291e	0.031533353
190	0x3ccfa4d0	0.025347143
191	0x3d4f38f1	0.050591413
192	0xbcf2b9b6	-0.02962957
193	0x3cfb8290	0.030701905
194	0x3db2b23a	0.087254
195	0xbbeed4d2	-0.0072885538
196	0xbd1c66a0	-0.03818381
197	0xbde90d7e	-0.113795266
198	0x3c9fcaba	0.019505847
199	0x3e01bd0f	0.12669776
200	0x3d4995e6	0.04921522
201	0x3cd6acc5	0.02620543
202	0xbb6ca268	-0.0036107544
203	0xbd16e941	-0.036843542
204	0x3ce48a0c	0.027897857
205	0x3c2233a9	0.009900012
206	0xbd1a5820	-0.0376817
207	0xbdc3c95d	-0.095598914
208	0x3cd899bd	0.026440496
209	0x3af040a7	0.0018329815
210	0x3db6a49d	0.08918116
211	0x3ca05c6e	0.019575324
212	0xbd70603f	-0.058685537
213	0x3cdcb6cf	0.026942639
214	0xbce6bcb4	-0.028166153
215	0x3e01c54f	0.12672924
216	0x3d92991c	0.071581095
217	0xbc70f306	-0.014706379
218	0xbdf7593c	-0.12077567
219	0xbd0991b3	-0.033586215
220	0x3caef0a0	0.021354973
221	0xbd852fe8	-0.06503278
222	0x3c75d2d3	0.015003878
223	0x3d9b521e	0.07584022
224	0x3c7dbb63	0.015486571
225	0x3dc888e6	0.09791736
226	0x3d7ebf0b	0.06219391
227	0x3c5d8e35	0.013522674
228	0x3da8fb31	0.08251036
229	0xbde8ffeb	-0.113769375
230	0xba82ce26	-0.000997965
231	0x3ba0b293	0.0049041
232	0xbdd00100	-0.10156441
233	0x3ddd2d1b	0.10799619
234	0xbc6efc2a	-0.014586488
235	0xbdf10c9b	-0.117699824
236	0xbdc5ee5e	-0.096646056
237	0x3e04afcc	0.12957686
238	0x3c82855c	0.015932731
239	0xbda2e0f8	-0.07953066
240	0x3b8dffa0	0.0043334514
241	0x3e0364cc	0.1283142
242	0xbb92540f	-0.004465587
243	0x3b07bda6	0.0020712405
244	0x3dc398a9	0.09550602
245	0x3c8da44e	0.01729026
246	0xbb99a202	-0.0046885023
247	0xbdaab253	-0.08334794
248	0xbdb3ac1b	-0.08773061
249	0x3cb6d66a	0.022319037
250	0xbd1546d2	-0.036444493
251	0xbbe5a383	-0.0070080175
252	0x3d182636	0.037145816
253	0x3b81ebb0	0.0039648637
254	0x3c64a6db	0.013955797
255	0x3c58eebf	0.013240515

rnn1.bias_ih_l0 f4 [128]
0	0x3ddbc527	0.10730963
1	0xbd028769	-0.03186742
2	0xbd278fe2	-0.0409087
3	0x3db73c74	0.089470774
4	0x3dc08079	0.09399504
5	0x3d2955d7	0.04134163
6	0xbcb77a99	-0.022397326
7	0x3d95a406	0.073066756
8	0xbd1329e9	-0.03592864
9	0x3cc61b96	0.024183076
10	0x3d2ed346	0.042681955
11	0x3dc13ba4	0.09435204
12	0xbbb5619b	-0.005535317
13	0x3dba8633	0.09107628
14	0xbdf1abe9	-0.118003674
15	0xbcd4f42e	-0.02599534
16	0xbd2191fa	-0.039445855
17	0x3d53bde1	0.051694755
18	0x3d26e5a9	0.040746365
19	0x3d7697f2	0.0602035
20	0x3cba945a	0.022775818
21	0x3c662b6b	0.014048438
22	0xbd78df0a	-0.06075958
23	0xbdf06123	-0.11737277
24	0xbd27e9a5	-0.040994305
25	0xbdd5a653	-0.104321145
26	0x3d8af87e	0.067856774
27	0xbb039749	-0.0020079187
28	0x3daae4b7	0.08344405
29	0xbc35db5f	-0.011099665
30	0xbbceb277	-0.0063078958
31	0x3c99e06b	0.018783769
32	0xbcf02519	-0.029314565
33	0x3ddd184f	0.10795652
34	0x3db587fa	0.08863826
35	0x3d303f32	0.043029018
36	0x3bc85b86	0.006114426
37	0xbd488064	-0.048950568
38	0x3c0b64d1	0.008507923
39	0xbd16e89b	-0.036842924
40	0xbcd7abfa	-0.026327122
41	0xbda7dd86	-0.08196549
42	0x3d998399	0.074958034
43	0x3df61f43	0.120176814
44	0xbc4e5ce4	-0.012595389
45	0x3dbd54c2	0.09244682
46	0xbcb0bcf2	-0.021574471
47	0x3dd8e9e2	0.105914846
48	0xbd8ba173	-0.06817903
49	0x3db3906d	0.087677814
50	0xbdb308b5	-0.08741895
51	0xbd9e05d8	-0.07715958
52	0x3d46dae7	0.048548605
53	0xbdb58064	-0.08862379
54	0xbcc82cab	-0.024435362
55	0x3d9bd109	0.0760823
56	0x3d853f50	0.065062165
57	0x3d770302	0.060305603
58	0x3d838ba1	0.064231165
59	0xbba0af6d	-0.004903725
60	0xbcf409e8	-0.02978988
61	0x3d2059ab	0.039148014
62	0x3d3e5431	0.04646701
63	0x3de04228	0.10950118
64	0x3dd24488	0.102669775
65	0x3d5f37ab	0.05449645
66	0x3c29f35f	0.010372966
67	0xbd16812d	-0.036744285
68	0xbdf3538f	-0.11881172
69	0x3db6b2f4	0.08920851
70	0x3ce0e00f	0.02745059
71	0x3d57bf66	0.052672766
72	0x3daa70e3	0.08322313
73	0x3dbcb1d0	0.092136025
74	0xbd740b72	-0.059581228
75	0x3d585efc	0.05282496
76	0x3d3b0494	0.045658663
77	0x3cd084cb	0.025453946
78	0xbcc8e5e6	-0.024523687
79	0xbb8c6462	-0.0042844275
80	0x3ca3b037	0.019981487
81	0x3d020318	0.03174123
82	0x3bd31ddb	0.006442768
83	0x3d3efda1	0.046628598
84	0xbded9525	-0.11600713
85	0xbd10e024	-0.035370007
86	0xbd343761	-0.043998126
87	0x3c12eed6	0.008968076
88	0x3dd1862e	0.10230671
89	0x3da83c56	0.08214633
90	0xbd870373	-0.06592455
91	0xbd2ec27f	-0.042665955
92	0xbd8c26ea	-0.0684336
93	0xbd3ea4ad	-0.046543766
94	0x3db42b3f	0.08797311
95	0x3d3b6fc4	0.045760885
96	0xbd503ee2	-0.05084122
97	0x3baf2a68	0.0053456314
98	0x3dc60150	0.09668219
99	0x3c79354e	0.015210463
100	0x3cd47e30	0.025939077
101	0xbd85fb41	-0.065420635
102	0x3cb29dbb	0.021803727
103	0x3d2e9c2a	0.0426294
104	0xbca3e227	-0.020005299
105	0x3d968152	0.07348885
106	0x3d404781	0.04694319
107	0x3cd8f6b3	0.026484823
108	0x3c8158df	0.015789447
109	0x3ce9d479	0.028543698
110	0xbd1b0240	-0.037843943
111	0x3d8135fa	0.06309123
112	0x3db59384	0.08866027
113	0xbd4fbe49	-0.05071858
114	0xbdd203a9	-0.10254604
115	0xbd1357c1	-0.03597236
116	0x3cf3988b	0.029735824
117	0x3cc46386	0.023973238
118	0x3c96ec07	0.018423093
119	0xbd986e17	-0.07442873
120	0xbdb8fb73	-0.09032335
121	0xbbe93f33	-0.0071181296
122	0xbd939fca	-0.07208212
123	0xbcb7ad32	-0.022421453
124	0xbc1fa869	-0.009744742
125	0x3db483d5	0.088142075
126	0x3c5b52b1	0.013386414
127	0xbc6296c9	-0.013829895

rnn1.bias_hh_l0 f4 [128]
0	0x3cbb7f19	0.022887753
1	0x3d228a17	0.039682474
2	0x3ccb1b44	0.024793275
3	0x3e037b7f	0.12840079
4	0x3ccc2f85	0.024925003
5	0xbcbd11eb	-0.023079833
6	0x3d5a08f3	0.05323119
7	0x3da286d9	0.079358764
8	0x3d854295	0.0650684
9	0xbdd174c8	-0.102273524
10	0xbc20ef04	-0.009822611
11	0xbb6406a7	-0.0034794004
12	0xbd82f454	-0.06394258
13	0x3d1b45f6	0.037908517
14	0xbdc62d63	-0.096766256
15	0x3d359559	0.044331882
16	0x3d19a830	0.03751391
17	0x3d329b8e	0.04360538
18	0x3d93aab1	0.07210291
19	0x3d39efbf	0.045394655
20	0x3da67607	0.08127981
21	0x3d926261	0.071476705
22	0xbbd3c997	-0.0064632404
23	0xbdb9e8ea	-0.09077628
24	0x3cd18d71	0.02558014
25	0xbd53a8a4	-0.0516745
26	0xbd4e52ae	-0.05037182
27	0xbdb850d6	-0.08999793
28	0x3de7df81	0.11321927
29	0x3dabdc5d	0.0839164
30	0xbd7d0d6e	-0.061780386
31	0xbd10ead9	-0.03538022
32	0xbd802ffd	-0.06259153
33	0x3dc78e57	0.09743946
34	0xbd313569	-0.043263827
35	0xbd642282	-0.05569697
36	0x3c88821e	0.016663607
37	0x3d1048a4	0.035225525
38	0x3dc6d2b7	0.097081594
39	0x3cecffb3	0.02893052
40	0x3cd290cf	0.025703816
41	0x3d6b4743	0.057441007
42	0x3dfa8711	0.12232793
43	0x3d760719	0.060065363
44	0x3bebc5f5	0.007195229
45	0xbc94e98a	-0.018177766
46	0xbdd41112	-0.103548184
47	0xbca8e90f	-0.020618943
48	0xbdccce07	-0.10000234
49	0xbd2ab1ce	-0.041673474
50	0xbde676b8	-0.112531126
51	0x3cfc0879	0.030765759
52	0x3c032686	0.00800479
53	0x3c7bcfd4	0.015369374
54	0x3d2cc8b0	0.042183578
55	0x3d5ef9b6	0.05443736
56	0xbd2f65b7	-0.042821612
57	0xbc5030d0	-0.01270695
58	0x3bdec9e4	0.0067989696
59	0x3d109646	0.035299562
60	0x3d639ad9	0.055567596
61	0x3d858e98	0.06521338
62	0xbd146749	-0.036231313
63	0x3d637fd0	0.055541813
64	0x3dd03826	0.101669595
65	0xbd5a1e1b	-0.053251367
66	0x3d275f51	0.040862385
67	0x3d49de05	0.049284
68	0xbd448123	-0.047974717
69	0x3cc6ff43	0.02429164
70	0xbd554f9c	-0.052077875
71	0xbcb4723d	-0.02202713
72	0xbca3f458	-0.020013973
73	0x3df92e98	0.1216709
74	0x3dc62107	0.09674268
75	0x3d93f754	0.072249085
76	0xbca57407	-0.020196928
77	0xbdaf1304	-0.08548549
78	0x3afa9e1a	0.0019120604
79	0xbb0f6a9a	-0.0021883608
80	0x3ba85092	0.005136558
81	0x3cf9ddda	0.030501295
82	0xbda775a1	-0.08176733
83	0xbb057f56	-0.0020370088
84	0xbc53aae0	-0.012919158
85	0x3d8db73d	0.069197156
86	0x3d8ba30e	0.068182096
87	0x3cc0015f	0.023438154
88	0x3bb2fa6e	0.0054619825
89	0x3cc72120	0.024307787
90	0xbd20e52b	-0.03928105
91	0x3d195dda	0.03744302
92	0x3dd10809	0.10206611
93	0xbcaac58c	-0.02084615
94	0x3d8d8d78	0.06911749
95	0x3ddeb606	0.10874562
96	0xbcb60176	-0.022217494
97	0x3d98bcea	0.074579075
98	0x3daa1023	0.08303859
99	0x3d72625f	0.059175845
100	0x3ae7ef3b	0.0017695198
101	0xbe062615	-0.13100465
102	0xbd8b8f87	-0.06814485
103	0xbdb9d0aa	-0.09073003
104	0x3c9a283d	0.018818015
105	0xbc8862d8	-0.016648695
106	0x3ca079b2	0.019589279
107	0xbddad674	-0.10685435
108	0xbd3d1c9d	-0.046169866
109	0xbdc3ef1c	-0.09567091
110	0xbd67f1b1	-0.05662698
111	0xbcbbde0d	-0.02293303
112	0x3cdfc999	0.027317809
113	0x3de0e4dc	0.109811515
114	0xbda31c43	-0.07964375
115	0xbd82433c	-0.0636048
116	0x3c90c5ab	0.01767238
117	0x3ddd09a7	0.10792857
118	0xbdb50e92	-0.0884067
119	0x3cbbe2fd	0.022935385
120	0xbe01ad7f	-0.1266384
121	0xbcebdbd8	-0.028791353
122	0xbdddbdf6	-0.10827248
123	0x3d18fb17	0.037348833
124	0xbc994813	-0.018711125
125	0x3d7e71e6	0.06212034
126	0x3b8ae09f	0.0042382027
127	0xbd0ce376	-0.03439661

rnn2.weight_ih_l0 f4 [128, 128]
0	0x3c97efc7	0.018546952
1	0x3d50a8c6	0.050942205
2	0x3d6e0f2e	0.058119945
3	0x3d7cdfe7	0.061736967
4	0x3d82f726	0.06394796
5	0x3db5e63f	0.088818066
6	0x3e0221a8	0.12708151
7	0x3ca53523	0.02016694
8	0xbc962cfb	-0.018331995
9	0x3d55429c	0.052065477
10	0xbcccdc0e	-0.025007274
11	0x3adbf612	0.0016781709
12	0x3ce2e0e9	0.027695136
13	0x3bae1b9b	0.0053133494
14	0xbcb7bc39	-0.022428619
15	0x3cf6ea72	0.03014109
16	0xbcce9b5e	-0.02522057
17	0x3d62542b	0.05525605
18	0x3e0eb3f1	0.1393583
19	0xbbad5207	-0.0052893194
20	0xbbfa1acb	-0.0076325885
21	0xbcce7917	-0.025204225
22	0x3c8801a9	0.016602354
23	0xbde26a8f	-0.11055481
24	0x3d4ff3cb	0.05076961
25	0xbd3ccd39	-0.046094153
26	0x3d194d7d	0.037427414
27	0xbdeb8568	-0.115000546
28	0x3dd9747e	0.10617922
29	0x3da9fe72	0.08300485
30	0x3d4e6a60	0.050394416
31	0xbc88f209	-0.016716974
32	0x3cd32b46	0.02577747
33	0x3d5f746f	0.0545544
34	0x3cf524dd	0.029924804
35	0x3dcba9e1	0.09944511
36	0xbd814490	-0.063119054
37	0xbba227db	-0.004948599
38	0x3d4b7fb7	0.049682345
39	0x3d9c90fc	0.07644841
40	0xbaba998a	-0.0014236432
41	0xbd572ffd	-0.052536
42	0x3d9bf9b8	0.076159894
43	0xbcab87e8	-0.020938829
44	0xbd9037c6	-0.07041888
45	0x3d850b99	0.06496353
46	0xbd58c96c	-0.052926466
47	0x3d49e767	0.049292948
48	0xbbaef440	-0.0053391755
49	0x3da97df3	0.08275976
50	0x3cbe43e9	0.023225741
51	0xbdcfb929	-0.10142738
52	0x3d2879cc	0.04113178
53	0xbe8cc68a	-0.27495223
54	0x3d56613a	0.052338816
55	0x3dd7b16c	0.105318874
56	0x3e1a7d4b	0.15086858
57	0x3d9844ca	0.074349955
58	0x3bee275b	0.007267875
59	0xbd23c42e	-0.039982013
60	0xbd84bf95	-0.06481854
61	0x3d07027e	0.03296136
62	0x3c62de52	0.013846951
63	0x3dc26a5a	0.09492941
64	0xbd971f49	-0.07379014
65	0xbd7d27e0	-0.061805606
66	0xbd8349f2	-0.06410588
67	0xbc243978	-0.010023467
68	0xba3f0e91	-0.00072882423
69	0x3c8b306a	0.016990859
70	0xbcad99b5	-0.021191457
71	0xbd0e8769	-0.034797106
72	0x3e19ddc2	0.15026
73	0xbcce6508	-0.02519466
74	0xbd957bee	-0.07299028
75	0x3dd8a31d	0.105779864
76	0xbc14d6a4	-0.009084377
77	0xbcbeb80f	-0.023281125
78	0xbd946507	-0.07245832
79	0x3cea6226	0.028611254
80	0xbd0d0d99	-0.034436796
81	0xbd9b58f7	-0.07585328
82	0x3cd64ad1	0.026158722
83	0xbd17a8d1	-0.03702623
84	0xbc239354	-0.009983856
85	0xbd94e426	-0.07270078
86	0x3d8300cf	0.063966386
87	0xbd1961d0	-0.037446797
88	0x3e0ff98b	0.14060037
89	0x3d66150f	0.056172427
90	0x3c4cea1c	0.012506988
91	0x3dfdc669	0.12391359
92	0x3d856e20	0.06515145
93	0xbdfccd01	-0.12343789
94	0xbc18c452	-0.00932415
95	0x3d8bc6e2	0.06825043
96	0x3d035781	0.032065872
97	0xbd38d0b3	-0.045120906
98	0x3d727f6c	0.05920355
99	0x3caf8609	0.021426218
100	0xbc3b95f6	-0.011449328
101	0xbdc070a4	-0.093964845
102	0x3c511a2d	0.012762588
103	0xbd308929	-0.043099556
104	0x3b2e6895	0.0026612629
105	0x3de4cfc7	0.11172443
106	0xbd2bc546	-0.04193618
107	0xbddfcc01	-0.109275825
108	0xbde34464	-0.11097029
109	0x3d3c1699	0.04591999
110	0xbcce5738	-0.025188074
111	0xbd3a29ca	-0.04545001
112	0x3dbe94f0	0.09305751
113	0x3d9729d7	0.07381027
114	0xbd918503	-0.07105448
115	0xbc95124d	-0.018197203
116	0xbd73cae0	-0.05951965
117	0x3c89beb3	0.016814565
118	0xbd4c9427	-0.049945977
119	0x3cdeb675	0.027186612
120	0xbdbe9e80	-0.09307575
121	0xbb78d805	-0.0037970555
122	0xbd77aa52	-0.060465164
123	0x3e11f513	0.14253645
124	0xbc9197bc	-0.017772548
125	0x3e00ab90	0.12565446
126	0xbe105ea0	-0.14098597
127	0xbd192b9e	-0.037395112
128	0x3d2cac28	0.04215637
129	0x3ba088c7	0.0048991176
130	0x3db35e82	0.0875826
131	0x3da4d55a	0.08048506
132	0x3dd75cd1	0.1051575
133	0x3df282a2	0.118413225
134	0x3c99c30b	0.018769762
135	0xbca7eb90	-0.020498067
136	0xbb94ce89	-0.0045412225
137	0x3cf51391	0.029916557
138	0xbd2ec397	-0.042666998
139	0xbdc49594	-0.09598842
140	0xbdd66037	-0.1046757
141	0x3d89f1e7	0.06735592
142	0xbd44e3c0	-0.04806876
143	0x3d13c747	0.036078718
144	0xbdb8196d	-0.089892246
145	0x3d14eab9	0.03635666
146	0x3ddadcb5	0.10686628
147	0x3c5acb36	0.013354113
148	0x3d659870	0.05605358
149	0x3dec82e5	0.11548404
150	0x3e024242	0.12720588
151	0xbd66a3ff	-0.056308743
152	0xbd552b9d	-0.052043546
153	0xbddd014e	-0.107912645
154	0x3b140b45	0.0022589725
155	0xbdacabaa	-0.0843118
156	0x3d961095	0.073273815
157	0x3cc4946a	0.02399655
158	0x3d9f71ff	0.07785415
159	0xbd7780f0	-0.0604257
160	0x3d85fd19	0.06542415
161	0x3cec2efd	0.028831
162	0xbdab8b2b	-0.083761536
163	0x3d47d8ca	0.04879073
164	0xbca5e849	-0.020252364
165	0x3d73407c	0.05938767
166	0xba6d53c9	-0.00090533175
167	0x3d44f771	0.04808754
168	0xbd7a24ea	-0.06107036
169	0x3c011553	0.007878619
170	0x3d9d2c6b	0.07674488
171	0x3e06d902	0.1316872
172	0xbd29ca64	-0.04145278
173	0x3ddd9bc9	0.10820729
174	0x3bee81cc	0.0072786566
175	0x3d0db521	0.034596566
176	0xbc067e46	-0.008208817
177	0x3d982c35	0.07430307
178	0x3d3a259f	0.045446035
179	0x3b7cdf28	0.003858516
180	0xbc80789d	-0.015682513
181	0x3d1b3019	0.037887666
182	0x3de1c460	0.11023784
183	0x3d1b2e22	0.037885793
184	0x3dfda022	0.123840585
185	0x3d198ca2	0.037487634
186	0xba4e41be	-0.0007868073
187	0x3ca17700	0.019710064
188	0x3c793ace	0.015211774
189	0x3db51de7	0.08843594
190	0x3d3b0bd0	0.045665562
191	0xbc5a9145	-0.013340299
192	0xbc48fc82	-0.012267234
193	0xbcbbde68	-0.0229332
194	0x3dd12dab	0.102137886
195	0xbc8238ac	-0.015896164
196	0xbdca9741	-0.09892131
197	0xbdac917d	-0.08426187
198	0xbdf2b6e9	-0.118512936
199	0x3db2e2d1	0.08734668
200	0x3c0252bf	0.0079542985
201	0x3d0aad2f	0.033856567
202	0x3c37d88f	0.011221065
203	0x3dac7f0f	0.08422672
204	0xbd15d786	-0.036582492
205	0xba853c31	-0.0010165033
206	0xbd1d4831	-0.038398925
207	0xbce4654f	-0.027880339
208	0xbc7b28ce	-0.015329553
209	0xbccea823	-0.025226658
210	0x3da710a5	0.081574716
211	0x3ccd9060	0.025093257
212	0xbde6cd16	-0.11269586
213	0x3d7cff7b	0.061767083
214	0x3c919eac	0.017775856
215	0x3ba41f8e	0.0050086444
216	0x3d08c748	0.033393174
217	0x3d6f6ca0	0.058453202
218	0xbdfe69f5	-0.124225534
219	0x3d7a0874	0.061043218
220	0xbcab6386	-0.02092148
221	0xbd2b8920	-0.04187882
222	0x3ddffdfb	0.10937115
223	0x3c15ff0b	0.009155045
224	0xbd01fe4c	-0.031736657
225	0x3df36509	0.11884505
226	0xbbbf956b	-0.0058466694
227	0x3d01451e	0.031560056
228	0x3dbc93c5	0.09207872
229	0x3c838d51	0.016058596
230	0xbd2995b8	-0.04140255
231	0x3bd078c7	0.006362054
232	0x3c488f94	0.012241263
233	0x3d77a369	0.060458574
234	0xbda7c44f	-0.0819174
235	0x3cd85464	0.026407428
236	0xbcca1e2c	-0.02467259
237	0x3d8643ad	0.06555877
238	0xbd0b170f	-0.033957537
239	0x3be8cf72	0.0071048075
240	0x3ddd7950	0.10814154
241	0x3cca1bd7	0.024671478
242	0x3d620780	0.055182934
243	0xbccc596e	-0.024944987
244	0xbd84e62c	-0.06489214
245	0xb93def4a	-0.00018113587
246	0x3d04728d	0.032335807
247	0xbb8e21b5	-0.0043375143
248	0xbaba394e	-0.0014207752
249	0xbb29c615	-0.002590542
250	0x3c0c04f4	0.008546103
251	0xbc87bf83	-0.016570812
252	0x3cb0f9d4	0.021603502
253	0x3d6df1f5	0.058092076
254	0xbd2c6da4	-0.04209675
255	0xbdad8e75	-0.08474437

rnn2.weight_hh_l0 f4 [128, 128]
0	0x3bcc7888	0.0062399544
1	0x3dbf6726	0.09345846
2	0xbdd51991	-0.10405267
3	0x3d9c3337	0.07626956
4	0x3d45b277	0.0482659
5	0xbdbe7091	-0.09298814
6	0xbcb7798b	-0.022396823
7	0x3cdc4216	0.026886981
8	0x3dda77e1	0.10667396
9	0x3dbaaee9	0.09115393
10	0x3d3f9f1c	0.046782598
11	0xbdae81e2	-0.08520867
12	0xbd2f4df0	-0.042798936
13	0x3c4cddea	0.01250408
14	0x3d25dab9	0.040491793
15	0x3cd5096a	0.026005466
16	0xbde0cfa6	-0.10977106
17	0xbd08353b	-0.03325389
18	0xbc05f269	-0.008175471
19	0x3a67f2f3	0.0008848153
20	0xbcfd79fd	-0.030941958
21	0x3c57df81	0.013175846
22	0x3dfa437d	0.122199036
23	0xbd814edb	-0.063138686
24	0x3d571a19	0.052515123
25	0x3d71d175	0.059037644
26	0xbe022487	-0.12709247
27	0xbd7d5fa9	-0.061858807
28	0xbd2a3f17	-0.041564073
29	0x3c2add79	0.01042878
30	0xbd457057	-0.04820284
31	0x3dc3ae52	0.09554733
32	0x3ddd8aed	0.108175136
33	0x3db9b48a	0.09067638
34	0xbd2d99b2	-0.042382903
35	0x3bf0d8f8	0.0073500834
36	0x3ddd2b87	0.10799318
37	0x3d744a25	0.059641022
38	0xbd016558	-0.03159079
39	0xbd6f23ed	-0.05838387
40	0x3d8f10d4	0.069856316
41	0xbc44be09	-0.012008199
42	0xbd15bb2a	-0.036555447
43	0xbdb25f7d	-0.08709619
44	0xbdfdb1c6	-0.12387423
45	0xbd0a1fe6	-0.033721827
46	0x3ca7e1ef	0.020493476
47	0x3c3c408f	0.011490001
48	0xbddc805e	-0.107666716
49	0xbd02c345	-0.031924505
50	0x3d3a9cd2	0.04555971
51	0x3da1e7fc	0.07905576
52	0xbda355e3	-0.07975366
53	0x3b6df3e6	0.0036308705
54	0xbdf560c0	-0.11981344
55	0xbdb43ac8	-0.08800274
56	0xbd56d634	-0.052450374
57	0xbdd6ef2e	-0.10494839
58	0x3dc3f9b9	0.09569115
59	0xbdbc502f	-0.09194981
60	0x3cc6cfb8	0.02426897
61	0x3dbd0445	0.0922933
62	0x3c946692	0.018115316
63	0xbd741149	-0.059586797
64	0x3b98f2e2	0.0046676258
65	0x3ce854d7	0.028360767
66	0xbd129d97	-0.03579482
67	0x3d13869b	0.03601704
68	0x3cc67fd4	0.024230875
69	0x3d5c7551	0.05382282
70	0x3bd4fcba	0.006499854
71	0xbd239d35	-0.039944846
72	0xbd2dee37	-0.042463508
73	0x3dd7d525	0.10538701
74	0xbdb7d587	-0.08976274
75	0x3cb4cc52	0.022070084
76	0x3c645bfb	0.0139379455
77	0xbcec0593	-0.028811252
78	0xbd2e4669	-0.042547617
79	0xbe00c58c	-0.12575358
80	0xbd58670d	-0.052832652
81	0x3bdd0cb0	0.0067458972
82	0xbda68620	-0.08131051
83	0x3da3842c	0.07984194
84	0xbde46688	-0.11152369
85	0xbc3a2434	-0.011361171
86	0x3bb3e6fb	0.0054901815
87	0x3bc29850	0.005938567
88	0xbdfb0ec3	-0.12258675
89	0x3d0503c0	0.03247428
90	0x3d617bdb	0.05504976
91	0xbd0ccfda	-0.03437791
92	0x3de8e420	0.113716364
93	0xbdf5db84	-0.1200476
94	0x3abd0d77	0.0014423569
95	0xbd53c51c	-0.05170165
96	0xbdaa0e71	-0.08303536
97	0x3d00db1b	0.031458955
98	0x3ddb8704	0.107191116
99	0xbdcc3e05	-0.09972767
100	0xbdb8a3a5	-0.09015588
101	0xbd5d9356	-0.05409559
102	0x3dc5f515	0.09665886
103	0x3d212a2a	0.03934685
104	0xbc0125bd	-0.007882533
105	0xbd255485	-0.040363807
106	0xbd3a5cf7	-0.045498814
107	0x3c72c037	0.014816335
108	0xbda4bbad	-0.08043609
109	0xbcebceff	-0.028785227
110	0xbcecf461	-0.028925123
111	0xbda59eb3	-0.0808691
112	0x3d2dab16	0.04239949
113	0x3d1caab0	0.038248718
114	0x3dd98938	0.106218755
115	0xbcc89f42	-0.024490003
116	0x3da9f57c	0.082987756
117	0xbc66eea6	-0.014094984
118	0x3d873ecf	0.06603777
119	0xbdb9274a	-0.09040697
120	0xbe04c5df	-0.12966107
121	0xbd2937c1	-0.041312937
122	0xbd6441a4	-0.055726662
123	0xbb860f61	-0.004091189
124	0xbdc2662a	-0.094921425
125	0xbccea4a5	-0.025224993
126	0x3d2a0e80	0.041517735
127	0xbcef02ba	-0.029176105
128	0x3d73c750	0.05951625
129	0x3cf662b5	0.030076364
130	0xbdf05936	-0.11735766
131	0x3c758989	0.014986404
132	0x3c0bb44f	0.008526876
133	0xbdee94f3	-0.116495036
134	0x3d81689e	0.06318782
135	0x3d99a796	0.075026676
136	0x3dccbdc1	0.0999713
137	0x3d02d8fd	0.031945217
138	0xbca972bc	-0.020684592
139	0xbccdcb4c	-0.025121354
140	0xbdf50b16	-0.11965005
141	0x3df2ca2d	0.11854968
142	0xbe015286	-0.12629136
143	0x3d972ba4	0.07381371
144	0x3cb8ff12	0.022582565
145	0x3ddf2438	0.1089558
146	0x3deb9179	0.11502356
147	0xbdeca744	-0.11555341
148	0x3d143089	0.0361791
149	0x3d42b9bc	0.04754041
150	0xbccb059f	-0.024782954
151	0xbd81ef3e	-0.0634446
152	0x3c8a6476	0.016893607
153	0x3ca8de02	0.020613674
154	0xbde1162c	-0.10990557
155	0xbdf11b2c	-0.11772761
156	0xbd1a237a	-0.03763149
157	0xbdfb04a1	-0.12256742
158	0x3b055606	0.0020345463
159	0x3ca41a62	0.020032112
160	0x3df63f03	0.12023737
161	0x3d9a8084	0.07544044
162	0xbd3bd149	-0.045853887
163	0x3d9d9382	0.076941505
164	0x3d08b2b0	0.033373535
165	0x3d5cdea8	0.05392328
166	0xbdc4461c	-0.09583685
167	0xbde620bd	-0.11236713
168	0x3cc3c4f0	0.023897618
169	0xbce8d557	-0.02842204
170	0xbd09a4f1	-0.033604566
171	0xbd92cb20	-0.07167649
172	0x3d433afc	0.047663674
173	0xbd282532	-0.041051097
174	0xbb101ae3	-0.0021988682
175	0xbd62c8ce	-0.055367284
176	0xbce14f92	-0.027503762
177	0xbdab4e44	-0.08364537
178	0xbd201eb8	-0.039091796
179	0x3d76d5e9	0.060262594
180	0xbcea7d15	-0.028624097
181	0x3db1f6e7	0.08689671
182	0xbd3ad6f5	-0.045615155
183	0xbd037c20	-0.032100797
184	0xbdd786e5	-0.10523776
185	0xbde16b03	-0.11006739
186	0xbc18d868	-0.009328939
187	0x3b85afc7	0.004079792
188	0x3d44616a	0.047944464
189	0x3c480ceb	0.012210111
190	0x3d4679be	0.048455946
191	0xbcea474b	-0.028598448
192	0x3d806622	0.0626948
193	0x3d26527a	0.040606
194	0x3d81ccfd	0.063379265
195	0xbda6564d	-0.08121929
196	0x3d007503	0.03136159
197	0x3dbb8f27	0.091581635
198	0xbd89762b	-0.06711992
199	0xbd12be79	-0.03582618
200	0x3d995e1f	0.07488655
201	0x3ddefcd0	0.10888064
202	0xbd3b5ffe	-0.045745842
203	0x3dce439d	0.1007149
204	0xbd715f18	-0.05892858
205	0xbcd636e1	-0.026149215
206	0x3ce4bbf5	0.027921656
207	0xbd59a989	-0.053140197
208	0xbdffacb9	-0.12484116
209	0x3dc54293	0.09631839
210	0xbba336da	-0.004980904
211	0xbd1061c2	-0.03524948
212	0xbddf7607	-0.10911184
213	0xbc71f72e	-0.014768405
214	0xbb6d934c	-0.0036251126
215	0x3e004617	0.12526737
216	0xbcceac6e	-0.025228705
217	0xbd451ca1	-0.048123006
218	0xbb80f10b	-0.0039349846
219	0x3c902207	0.01759435
220	0x3de21475	0.11039058
221	0x3c3de231	0.011589573
222	0xbd54944b	-0.051899236
223	0x3db0cd1b	0.08632871
224	0xbb757dd6	-0.0037459037
225	0xbc9304de	-0.017946657
226	0xbcf1b024	-0.029502936
227	0xbde1580f	-0.11003124
228	0xbd5ad2b6	-0.053423606
229	0xbdbaf284	-0.091282874
230	0x3d62d0f1	0.055375043
231	0x3ccab6fa	0.024745453
232	0x3d859dbf	0.06524228
233	0x3d824a78	0.0636186
234	0x3d1bd8ba	0.038048483
235	0x3ceb41fd	0.02871799
236	0x3c67a6c4	0.014138881
237	0x3d935fdd	0.07196019
238	0x3d2122e4	0.039339915
239	0x3cd758c6	0.026287448
240	0xbc1cc1eb	-0.009567718
241	0x3cd4c7f3	0.02597425
242	0x3d8b7f60	0.06811404
243	0xbd0ff370	-0.03514427
244	0xbd08c1de	-0.03338801
245	0x3cb02009	0.02149965
246	0xbbe68676	-0.007035072
247	0xbd1a0746	-0.037604593
248	0x3d167817	0.03673562
249	0xbdaa03c4	-0.083014995
250	0x3d0099c0	0.031396627
251	0x3dc60d57	0.09670513
252	0xbd9fd088	-0.07803446
253	0xbddd62ad	-0.108098365
254	0x3d2cb6ad	0.0421664
255	0xbd476d64	-0.048688307

rnn2.bias_ih_l0 f4 [128]
0	0xbd066f44	-0.032820955
1	0x3df1f314	0.118139416
2	0x3d271069	0.040787134
3	0x3c458c13	0.012057322
4	0xbdc66582	-0.0968733
5	0x3cd9668e	0.02653816
6	0xbc278d43	-0.0102265505
7	0x3cbf9fa9	0.023391562
8	0xbd1ed413	-0.03877647
9	0x3cc11a94	0.023572244
10	0x3d9ec41b	0.07752248
11	0xbd1b1d4d	-0.03786974
12	0xbd9fd48a	-0.078042105
13	0xbc984bb8	-0.018590793
14	0xbdbdbc60	-0.09264445
15	0x3c1f9ae0	0.009741515
16	0xbd975753	-0.07389703
17	0xbd136978	-0.035989255
18	0x3df7dbde	0.12102483
19	0x3d184c9f	0.037182447
20	0xbd996b9c	-0.07491228
21	0xbda91439	-0.0825581
22	0x3dd03fbb	0.101684056
23	0xbd5d6fd9	-0.054061744
24	0xbbe55838	-0.006999042
25	0xbcdec2e5	-0.027192542
26	0xbcd193b8	-0.025583133
27	0xbdb6b555	-0.08921305
28	0xbc9c6623	-0.019091671
29	0xbc8100a3	-0.015747374
30	0xbd93a7b5	-0.07209722
31	0x3d1262bd	0.035738695
32	0x3da85abf	0.082204334
33	0xbce175a7	-0.027521921
34	0x3d982ded	0.07430635
35	0x3d4a5e9f	0.049406644
36	0xbc32eb87	-0.010920412
37	0xbd81600b	-0.06317147
38	0xbca1f628	-0.019770697
39	0xbde7bcc3	-0.113153
40	0x3ddc40df	0.10754561
41	0xbae52ca6	-0.001748462
42	0x3c5d31c5	0.0135006355
43	0x3ca8a3f9	0.020586
44	0xbd903165	-0.07040671
45	0xbcffcb81	-0.031224968
46	0xbd8cbbd8	-0.06871766
47	0xbd8e90d6	-0.06961219
48	0xbdeb6d1f	-0.114954226
49	0xbd80c651	-0.06287826
50	0xbdb23806	-0.08702092
51	0x3d0b6450	0.034031212
52	0xbd0cc8be	-0.03437113
53	0x3cdbeb40	0.026845574
54	0xbda9cd4b	-0.0829111
55	0x3cc964e6	0.024584245
56	0xbc89a9d3	-0.016804611
57	0xbdd863fc	-0.105659455
58	0x3d47448b	0.048649352
59	0xbd8a4cc3	-0.067529224
60	0xbab710bc	-0.0013966779
61	0xbd569c38	-0.052395076
62	0x3da3d804	0.08000186
63	0xbdb3136a	-0.08743937
64	0x3dcf568b	0.10123929
65	0xbd3cfac0	-0.04613757
66	0x3d8d0f59	0.06887693
67	0x3ceae6a9	0.02867444
68	0x3d92e50c	0.071725935
69	0x3dda982e	0.10673557
70	0xbd54942e	-0.051899128
71	0xbda02a9b	-0.07820626
72	0xbc335d86	-0.010947591
73	0xbd14b474	-0.036304906
74	0x3d643161	0.055711154
75	0x3d3b0931	0.045663062
76	0xbda17956	-0.07884471
77	0x3da6a136	0.08136217
78	0xbdac7cc3	-0.08422234
79	0xbd661fb0	-0.056182563
80	0xbd986311	-0.074407704
81	0x3cff4eab	0.031165441
82	0xbd581aad	-0.052759815
83	0xbc95aa5c	-0.01826971
84	0x3c30cb37	0.010790638
85	0xbcdd5822	-0.027019564
86	0xbd402e83	-0.046919357
87	0x3dd5c1c3	0.10437348
88	0xbd892cc0	-0.066979885
89	0x3d88f15c	0.06686661
90	0x3a08c386	0.00052171235
91	0xbc322ec5	-0.010875409
92	0x3dd99ea7	0.10625964
93	0x3d481124	0.04884447
94	0xbda06d2f	-0.07833325
95	0x3d896bae	0.067099914
96	0x3ba5bb01	0.005057693
97	0xbd9652bb	-0.07339998
98	0x3d81e90a	0.06343277
99	0x3d52dca0	0.051479936
100	0x3cb74814	0.022373237
101	0xbd3fb16b	-0.04680006
102	0xbd42f039	-0.047592375
103	0x3d96dc49	0.07366235
104	0x3d64cd85	0.05586006
105	0x3d83d523	0.06437137
106	0x3dca4b81	0.098776825
107	0xbcdd15c7	-0.026987923
108	0xbda0468b	-0.07825955
109	0x3d7aeb06	0.061259292
110	0xbdbce51a	-0.09223385
111	0x3d5c33c6	0.053760312
112	0x3d86eebd	0.065885045
113	0x3c9c66de	0.01909202
114	0x3de401d5	0.11133162
115	0xbcb63fa1	-0.022247138
116	0xbbb5cb2b	-0.005547901
117	0xbda5ff0c	-0.08105287
118	0xbd0519d2	-0.032495327
119	0xbcf48cba	-0.02985226
120	0x3baadcd3	0.0052143126
121	0x3c7d96c9	0.0154778445
122	0xbde9e8d2	-0.1142136
123	0x3cc7fdd6	0.02441303
124	0xbd6f3b1e	-0.058405988
125	0xbd6b5677	-0.057455506
126	0xbd822bc6	-0.06356005
127	0xbda27f2b	-0.079344116

rnn2.bias_hh_l0 f4 [128]
0	0x3cce7876	0.025203925
1	0x3c8c741b	0.017145207
2	0xbd208093	-0.039185118
3	0x3ca5ddfd	0.020247454
4	0xbdac50b8	-0.084138334
5	0x3b60893b	0.0034261483
6	0xbc526b42	-0.012842955
7	0x3dbc740f	0.09201824
8	0xbd793395	-0.060840208
9	0x3bfcd2d3	0.007715562
10	0x3d2aa58a	0.041661777
11	0xbde516bf	-0.11185979
12	0x3c5fe95b	0.013666476
13	0x3c75901b	0.014987971
14	0xbd9080d2	-0.070558205
15	0x3dca89fc	0.098896
16	0x3caed482	0.021341566
17	0x3d989219	0.07449741
18	0x3d90d08b	0.070710264
19	0xbd4f6f37	-0.050643172
20	0x3d5b1358	0.053485245
21	0xbce46149	-0.02787842
22	0x3d9a1218	0.07522982
23	0x3ce125ca	0.02748384
24	0xbd82cabc	-0.06386325
25	0xbcd27374	-0.025689818
26	0xbdd85ba4	-0.10564354
27	0xbdcbd6ba	-0.09953065
28	0xbdc9e5b8	-0.098582685
29	0xbd2eaad4	-0.042643383
30	0xbc44ae21	-0.012004406
31	0xbcb40ac2	-0.021977786
32	0xbd59340f	-0.053028163
33	0x3dabb031	0.08383215
34	0xbcaaeeec	-0.02086588
35	0x3bc53bdd	0.006019099
36	0x3c88db9c	0.01670628
37	0xbd895104	-0.06704906
38	0xbc71add2	-0.014750915
39	0xbb9e21a9	-0.00482579
40	0x3d2f139f	0.04274332
41	0x3caad945	0.020855555
42	0x3dc6c2d4	0.09705129
43	0xbcf7bf87	-0.030242695
44	0xbab09a83	-0.0013473782
45	0xbd047d43	-0.03234602
46	0x3c9ddfbd	0.019271726
47	0xbb0e210d	-0.002168718
48	0xbdd90a75	-0.10597698
49	0xbc242e14	-0.0100207515
50	0xbddf86b6	-0.10914366
51	0xbd3cabba	-0.04606221
52	0xbd239ba1	-0.03994334
53	0xbb968854	-0.0045938883
54	0x3d0df88f	0.034660872
55	0xbce81d64	-0.028334327
56	0xbcdc2b41	-0.026876094
57	0xbd28095b	-0.041024547
58	0x3c2e6a6b	0.010645489
59	0xbde57645	-0.11204199
60	0xbd49b7ea	-0.04924766
61	0x3db52b4b	0.08846148
62	0x3d14bd58	0.036313385
63	0xbcdd69b7	-0.027027948
64	0x3e01d92d	0.12680502
65	0x3b7c4154	0.0038491087
66	0x3a04fc59	0.0005073003
67	0x3d1cf9ce	0.03832417
68	0x3cfd0cef	0.030889956
69	0x3d4cdfb0	0.050018013
70	0xbcce5b15	-0.025189916
71	0xbdd1e42f	-0.10248601
72	0x3cd66f9c	0.026176266
73	0x3dd57d0a	0.1042424
74	0xbd64c7fb	-0.05585478
75	0x3d9c3b23	0.07628467
76	0xbdb69f14	-0.089170605
77	0x3dbc90d8	0.09207314
78	0x3c171c25	0.009223019
79	0xbdc5cf8f	-0.09658729
80	0x3c7b35b9	0.015332633
81	0x3da57567	0.08079033
82	0xbd3ca1b5	-0.046052653
83	0x3cba040b	0.022707006
84	0xbd55f3be	-0.052234404
85	0x3d8a5183	0.067538284
86	0x3d2f7997	0.042840566
87	0x3ca4cd9d	0.020117575
88	0xbd984f19	-0.07436962
89	0x3c594cd8	0.01326295
90	0x3d987ad2	0.07445301
91	0x3d3dca63	0.04633559
92	0xbd706d3c	-0.058697924
93	0xbc6381b7	-0.013885907
94	0x3c16a166	0.009193754
95	0xbcea81d8	-0.028626367
96	0xbd83ee0c	-0.06441888
97	0xbdc3beb7	-0.0955786
98	0x3d0dae6b	0.034590166
99	0xbd0821c7	-0.033235338
100	0x3d37a682	0.04483653
101	0xbd992f4a	-0.07479723
102	0x3d827589	0.06370074
103	0x3dc94d87	0.0982924
104	0x3d9f2a58	0.07771748
105	0xbce0e9d0	-0.02745524
106	0x3d2e9f12	0.04263217
107	0xbdc3a947	-0.095537715
108	0x3b8af0c6	0.004240128
109	0x3c3083ec	0.01077364
110	0xbccb07fc	-0.02478408
111	0xbd11b1e6	-0.035570048
112	0xbd650e46	-0.055921815
113	0x3c14e2f1	0.00908731
114	0xbd1b03d6	-0.037845455
115	0x3a2f3484	0.00066835457
116	0x3dcb04ae	0.09913002
117	0xbc775278	-0.015095346
118	0x3db400d9	0.08789224
119	0xbc8577c1	-0.016292455
120	0xbd99cb55	-0.07509486
121	0xbdd37b71	-0.10326279
122	0x3c04f137	0.008114151
123	0x3db003f6	0.085945055
124	0xbd119d32	-0.035550304
125	0xbd124617	-0.035711374
126	0xbd3ce9eb	-0.04612152
127	0x3ce19229	0.027535515

dense_layers.0.weight f4 [128, 128]
0	0x3e13abf8	0.1442107
1	0xbbb9a69b	-0.005665613
2	0xbddb8625	-0.107189454
3	0x3e067863	0.13131861
4	0xbdd51cf5	-0.10405914
5	0xbe00430b	-0.12525575
6	0x3e1f464a	0.15554157
7	0x3da33044	0.0796819
8	0x3e141b9a	0.14463654
9	0x3d0125c6	0.031530164
10	0x3ddca796	0.10774152
11	0x3cb8a6f6	0.02254055
12	0xbdc234d9	-0.09482736
13	0x3de8bdfe	0.11364363
14	0xba27f47e	-0.00064069766
15	0x3b88760a	0.004164462
16	0xbd461f64	-0.04836978
17	0x3e01e658	0.12685525
18	0x3dc84407	0.097786
19	0xbdcc2af7	-0.099691324
20	0xbdcdb751	-0.100447305
21	0xbcb7551c	-0.02237945
22	0x3d8a8255	0.0676314
23	0xbaa85eee	-0.0012845674
24	0x3e1e14a5	0.15437563
25	0x3c745bb0	0.014914438
26	0xbde4c249	-0.111698695
27	0xbd57a27c	-0.05264519
28	0xbd9d1b9f	-0.07671284
29	0xbe1acae9	-0.15116467
30	0xbe1b36a4	-0.15157562
31	0x3dc3b7f5	0.095565714
32	0x3dcde4d4	0.10053411
33	0x3d9ae78a	0.07563694
34	0xbc00342e	-0.007824941
35	0x3db2309e	0.08700679
36	0x3d346ec6	0.044050954
37	0x3e0bc810	0.13650537
38	0xbe0fb68f	-0.14034484
39	0xbe215766	-0.15755996
40	0xbc4afc6e	-0.0123892855
41	0x3d884026	0.0665286
42	0x3d11865a	0.03552852
43	0xbe1d89f5	-0.15384658
44	0xbdda0a09	-0.10646445
45	0xbdcf66f7	-0.10127061
46	0xbd04a710	-0.032385886
47	0x3b3e5bb4	0.0029046359
48	0xbdf81968	-0.12114221
49	0x3c5f316e	0.013622625
50	0xbcde96fe	-0.027171608
51	0x3e02476d	0.1272256
52	0xbdfdae77	-0.12386792
53	0x3ba03170	0.004888706
54	0xbe139d2d	-0.14415427
55	0xbe1433e9	-0.14472927
56	0xbdcc2a82	-0.09969045
57	0xbd331ec0	-0.043730497
58	0x3ce9d0f7	0.028542025
59	0xbe0703c3	-0.13185029
60	0x3e1535df	0.14571331
61	0x3dd51d12	0.10405935
62	0x3e0b3294	0.13593513
63	0xbd9a469f	-0.07533001
64	0x3de321c1	0.110904224
65	0xbd8b0ab4	-0.06789151
66	0x3d66734f	0.05626231
67	0xbe0389bf	-0.12845515
68	0x3df4f85a	0.11961432
69	0x3db3cbf8	0.08779138
70	0xbcfeb494	-0.031091966
71	0xbcb92003	-0.022598272
72	0x3d9c8986	0.07643418
73	0x3c8dfce2	0.017332498
74	0xbe0fcaca	-0.14042202
75	0x3db442fa	0.08801837
76	0xbdce5c1e	-0.10076164
77	0x3db58319	0.088628955
78	0x3abbe76e	0.0014335939
79	0xbdbe49f9	-0.09291453
80	0xbd04cfee	-0.03242486
81	0x3d3075ca	0.043081082
82	0x3b960e3f	0.004579335
83	0xbc76e96e	-0.015070302
84	0xbd38f09c	-0.045151338
85	0x3d396462	0.045261748
86	0x3cd1354e	0.025538113
87	0x3db0ec25	0.08638791
88	0xbd8c0efb	-0.06838795
89	0x3dea310e	0.11435138
90	0x3e08bd36	0.13353428
91	0xbe1e385b	-0.15451185
92	0x3db7d726	0.08976583
93	0xbd978785	-0.07398895
94	0xbd56f158	-0.052476257
95	0x3e214913	0.15750532
96	0x3be3aa36	0.006947781
97	0xbd79e84e	-0.06101256
98	0x3d493d7a	0.049130894
99	0xbb8758ea	-0.0041304724
100	0xbdce7763	-0.10081365
101	0xbc8eab54	-0.01741568
102	0x3c16609c	0.009178307
103	0xbc20ed27	-0.0098221665
104	0x3e0103a2	0.12599042
105	0xbe087969	-0.13327564
106	0x3dbeda55	0.09318987
107	0xbd83386e	-0.064072475
108	0xbd9183b5	-0.07105199
109	0x3ca3cf18	0.019996211
110	0xbdf687f2	-0.12037648
111	0xbd6ad30e	-0.057330184
112	0x3c853d70	0.016264647
113	0x3c4c47b4	0.012468267
114	0x3e1c972d	0.15292044
115	0xbe13c085	-0.14428909
116	0x3db0cb68	0.08632547
117	0x3bb3b593	0.005484292
118	0x3d8a6441	0.06757403
119	0xbb60cb25	-0.003430077
120	0xbd9d2e5f	-0.0767486
121	0xbb900839	-0.0043955115
122	0xbdb10ec5	-0.08645395
123	0x3e05b037	0.13055502
124	0xbe066148	-0.13123047
125	0xbded781e	-0.11595176
126	0xbe00d5d9	-0.12581576
127	0xbe1da9ba	-0.15396777
128	0xbd54b703	-0.051932346
129	0x3dac530d	0.08414278
130	0x3d8bf973	0.06834688
131	0x3c8430ec	0.016136609
132	0x3c866a60	0.016408145
133	0x3d4d2e96	0.050093256
134	0x3d8019a5	0.06254891
135	0xbd8d107c	-0.0688791
136	0x3d8a2583	0.06745436
137	0x3c828f54	0.015937485
138	0xbc93c240	-0.018036962
139	0x3cb9e22c	0.022690855
140	0xba8a9880	-0.0010574013
141	0xbcc0eef8	-0.02355145
142	0xbda82264	-0.082096845
143	0xbdb26cd6	-0.08712165
144	0x3d794a72	0.060862012
145	0x3d94b381	0.072608
146	0xbc2d1ec0	-0.010566413
147	0x3cc60efc	0.024177067
148	0xbcddd81a	-0.027080584
149	0xbd2665c2	-0.040624388
150	0x3d33a97a	0.043862797
151	0x3d9ecc9d	0.07753871
152	0x3c9e0014	0.019287147
153	0xbdb207ed	-0.08692918
154	0x3c56a6d0	0.013101295
155	0x3d1fc986	0.039010547
156	0xbc6cd408	-0.014454849
157	0x3d1a15ea	0.037618555
158	0xbd91a16c	-0.07110867
159	0x3d36b26a	0.044603743
160	0x3d89dcd3	0.06731572
161	0x3d989f75	0.07452289
162	0x3bef3920	0.007300511
163	0x3d3b2c2e	0.04569643
164	0x3d763f42	0.06011892
165	0x3d6b092e	0.0573818
166	0x3d67f6aa	0.05663172
167	0x3d25323a	0.040331103
168	0xbcf05a0c	-0.029339813
169	0xbc74ca68	-0.014940836
170	0xbd979aaa	-0.07402547
171	0xbd0ce12a	-0.03439442
172	0x3b9b1260	0.004732415
173	0x3c7938e0	0.015211314
174	0xbc064d58	-0.008197151
175	0xbd27d13e	-0.040971033
176	0xbd9a07c0	-0.075210094
177	0x3c358b70	0.011080608
178	0xbd2b702f	-0.041855033
179	0xbcfcf378	-0.030877814
180	0x3d26dfbe	0.04074072
181	0x3c708738	0.014680676
182	0xbdaee087	-0.08538919
183	0xbd1296cc	-0.035788342
184	0xbd140e5f	-0.036146518
185	0x3db1a333	0.08673706
186	0xbdb200db	-0.086915694
187	0x3d058758	0.032599777
188	0x3da1f01d	0.07907126
189	0xbbd13da0	-0.00638552
190	0x3ccf3714	0.025294818
191	0xbcc4b2c0	-0.024011016
192	0xbd2d2ab9	-0.04227707
193	0x3dabdfa5	0.08392266
194	0xbd5f4fd1	-0.05451948
195	0xbd9c0175	-0.076174654
196	0xbd58e083	-0.052948486
197	0xbcbf32dc	-0.023339681
198	0xbc9ac4f4	-0.018892743
199	0xbd533eda	-0.05157361
200	0xbc530a48	-0.012880869
201	0x3c1a7cc8	0.009429164
202	0xbda6a92d	-0.081377365
203	0x3daffb47	0.08592849
204	0xbdac26f6	-0.08405869
205	0x3d7eaba6	0.062175415
206	0x3d7f30ca	0.06230239
207	0x3d318116	0.043335997
208	0x3d4ea726	0.050452374
209	0xbcb55cbc	-0.022138946
210	0x3c553ea0	0.013015419
211	0x3d0a0662	0.033697493
212	0x3d61d48a	0.055134334
213	0xbd396b5c	-0.0452684
214	0xbd8d4797	-0.0689842
215	0x3d4837da	0.04888139
216	0x3c6c9130	0.014438912
217	0x3d710376	0.05884119
218	0xbbb75660	-0.0055950135
219	0x3d7d2672	0.061804242
220	0xbcc13e5c	-0.023589306
221	0x3b72ef20	0.00370688
222	0x3d1b564a	0.03792409
223	0x3d29a192	0.04141385
224	0x3db4aa81	0.088215835
225	0xbca549a0	-0.020176709
226	0x3d9860b9	0.074403234
227	0xbd41e6c6	-0.047339223
228	0x3d6a6f02	0.05723477
229	0xbc4d2b80	-0.012522578
230	0x3d91cd99	0.07119293
231	0x3ba26ea0	0.004957035
232	0xbda48308	-0.08032805
233	0xba91cfc0	-0.0011124536
234	0x3cc5ad2c	0.024130426
235	0xbc216c40	-0.009852469
236	0x3d931f89	0.07183749
237	0xbd57a009	-0.052642856
238	0x3d81e569	0.06342585
239	0x3d8ac6dd	0.067762114
240	0x3c1e4448	0.009659834
241	0x3d89167f	0.06693744
242	0xbc81ad40	-0.015829682
243	0x3d1fe522	0.039036877
244	0x3d7b9966	0.06142559
245	0xbd906d92	-0.07052149
246	0x3be74920	0.0070582777
247	0xba7d5c00	-0.0009664893
248	0x3cbc2994	0.022969045
249	0xbcff41d0	-0.031159312
250	0x3d9e7263	0.07736661
251	0x3cf90f48	0.030402794
252	0x3cd24488	0.025667444
253	0x3da3ac77	0.079918794
254	0x3d7d4c0a	0.061840095
255	0x3d501c86	0.050808452
