Weights/DQNAAPL_target.pth (torch, 489003 bytes, 14 tensors)

rnn1.weight_ih_l0 f4 [128, 32]
000000 52 86 1c 3d 73 10 d3 3d 64 cd a8 3d 5b 2d 0d 3c
       0.038214035 0.10305872 0.082423 0.008616771
000010 36 9c 25 3d 17 7e f5 3c a9 77 76 3d bb eb d0 3c
       0.040432177 0.02996735 0.06017271 0.02550303
000020 06 91 c6 3d a4 46 54 bd f2 bc c6 bc d0 2a ba 3d
       0.0969563 -0.05182518 -0.024260018 0.09090197
000030 0d c0 a9 3d 7a fe c2 3d b4 2a c9 3d d1 95 b4 bc
       0.08288584 0.09521194 0.09822598 -0.022044094
000040 fe 44 3a bd 2b ce 8f 3c 9e 2b 15 3c fe ac 83 3c
       -0.045475952 0.017554363 0.009104637 0.0160737
000050 ae 00 1b bd 49 10 5d 3d b6 0c fd 3d 57 e0 00 3d
       -0.037842445 0.05397061 0.1235594 0.031463947
000060 97 b4 d7 3c 8e e7 57 bd d2 fd b2 3c 8b d5 1a 3d
       0.02633123 -0.052711062 0.021849547 0.037801307
000070 ff a7 9a 3c 59 ed 7e 3d 4f 68 b0 bc 09 00 c7 3d
       0.018878935 0.06223807 -0.021534113 0.097168036
000080 2a 63 1f bd e1 20 5f bc d6 88 a3 3c 89 41 31 bc
       -0.03891293 -0.013618679 0.01996271 -0.010818847
000090 a4 fe 37 3d 1e 99 3b bd 04 9f 1a 3d 12 cc e3 3d
       0.04492058 -0.04580032 0.037749305 0.11122908
0000a0 57 e3 c2 3d 23 7b 92 3c 06 62 c6 3d 62 f6 7f bc
       0.09516018 0.017880982 0.09686665 -0.015622707
0000b0 57 20 82 3b da 4c 99 3d cc d4 b2 3c cd 21 dc 3c
       0.0039711404 0.074853614 0.021829985 0.026871586
0000c0 56 7b b1 3d 95 cf 93 bc b0 c7 5b 3d b3 c9 a7 bc
       0.086661026 -0.018043319 0.053657234 -0.02048192
0000d0 f7 b9 d9 3d 38 1b 4f bc d4 33 ce 3d 15 6a e1 3d
       0.10631173 -0.012640767 0.10068479 0.11006562
0000e0 62 80 bf 3d f8 b6 8d 3c 3f ee a7 3d dd a3 13 bd
       0.09350659 0.01729916 0.08199739 -0.036044944
0000f0 e0 d3 5b 3d aa d7 0d bd 60 ce 25 3c 1d 1d 32 bc
       0.053668857 -0.0346295 0.010120004 -0.010871199
000100 a1 93 d5 bc 17 61 35 3d cc cd 84 3d 27 9b 98 bc
       -0.026071372 0.044282045 0.06484565 -0.01862867
000110 c1 3d 15 bd 92 fa fc bc c9 92 c9 3c 31 0e 2d 3d
       -0.036435846 -0.0308812 0.024606125 0.042249862
000120 16 44 72 bb 94 bc de 3c 0b cb ca bd f8 c7 09 bd
       -0.0036966852 0.02718953 -0.099020086 -0.03363797
000130 81 9a 8c bc b2 b4 b5 bc 13 02 eb bd 27 a0 a6 3c
       -0.017163517 -0.022180889 -0.11475005 0.020340038
000140 cc 1f 59 3c 76 63 85 bd 0f 4b 3e 3d cd a1 5f bd
       0.01325221 -0.06513111 0.0464583 -0.054597665
000150 1d fa 6f bc 3c e7 9d bd 59 c6 81 bd 99 b8 97 bd
       -0.014647034 -0.0771012 -0.0633666 -0.07408256
000160 e3 ff cf bd 7a 23 02 3d 31 e0 ff bc 45 71 67 bd
       -0.101562284 0.031772114 -0.031234832 -0.056504507
000170 d7 49 94 bd 96 cf 17 bc 13 76 56 bd 61 ad 1a bb
       -0.07240646 -0.009265801 -0.052358698 -0.0023601877
000180 96 e0 fa bc 80 f3 3b bd 6f 80 35 bd 5e 06 a6 3c
       -0.030624669 -0.045886517 -0.044311937 0.020266708
000190 54 e3 37 3d f7 1a c1 bd 2c 9d d5 bd 70 2c bd bd
       0.04489453 -0.09428971 -0.10430369 -0.092369914
0001a0 4a ec 2e 3d ff 8d d6 bd d7 9d 78 3d d9 fc c0 bd
       0.04270581 -0.10476302 0.060697403 -0.09423227
0001b0 65 bf 4f 3c d5 b4 10 3d 79 a6 9a bc fa 2e bf 3b
       0.012679909 0.035328705 -0.018878208 0.0058344575
0001c0 2a 71 cb bc d6 ea 90 3d 31 dd 82 3c d1 d3 f1 3c
       -0.024834234 0.070760414 0.015974613 0.029519947
0001d0 3f 29 c9 bd 54 66 63 bd 91 93 47 bd b8 1e 98 bd
       -0.0982232 -0.05551751 -0.048724715 -0.07427734
0001e0 95 50 b6 bd 67 7d 98 bd a7 e9 6f 3a 86 5a 3f bd
       -0.089020886 -0.074457936 0.00091519434 -0.04671719
0001f0 ec fc da bc ed 26 d3 bd 94 11 05 bd 67 21 73 bd
       -0.02673193 -0.10310159 -0.032487467 -0.059358027
000200 57 73 6e 3d 56 42 2c bd c7 a9 e1 3c 5f 9b 5a bc
       0.058215465 -0.04205545 0.027546776 -0.013342707
000210 2a 4a 94 bd ce 4b 98 3b 18 30 b1 bd f7 4d 44 3d
       -0.07240708 0.0046477085 -0.08651751 0.047925916
000220 55 12 2e 3d 5d 1d 6a 3c c2 58 f1 bb 4f 59 22 bd
       0.04249795 0.014289227 -0.007365317 -0.039635953
000230 15 b6 f2 bd 87 c9 c8 bd 63 60 08 be 07 ea 65 bd
       -0.11851136 -0.09804063 -0.13318019 -0.05613139
000240 33 97 65 3a 45 ac cc bc bf b9 d1 bc f0 49 89 bd
       0.0008758187 -0.024984488 -0.025601266 -0.067035556
000250 34 bf d3 bd c3 dc ea 3c b3 2d b1 bd 36 64 0d 3c
       -0.103392035 0.02866972 -0.086512946 0.008629849
000260 46 e9 ed bd 85 01 19 bb f1 26 e0 bd eb fb 85 bd
       -0.11616759 -0.0023346853 -0.109449275 -0.0654219
000270 d6 11 3a 3d f9 25 d0 bd 8f 84 c9 3c 91 8e 7d bd
       0.045427166 -0.10163493 0.024599342 -0.06190354
000280 20 cc 02 3c f9 3d 83 ba c3 0e 59 3d d5 85 f8 bb
       0.0079832375 -0.0010012976 0.052992593 -0.0075843134
000290 98 43 3c bd 58 ba 82 bd 74 2f 42 3d 34 34 51 3d
       -0.0459629 -0.063831985 0.047408536 0.051075175
0002a0 1f cf 80 3d 92 ff 8b bd b6 ee 73 3d 54 c8 a1 3d
       0.06289505 -0.068358555 0.059553824 0.07899538
0002b0 b5 a4 82 3d 46 0b a5 bb 7a 6e 73 bc f1 c8 a0 3d
       0.063790716 -0.0050367443 -0.014857883 0.078508265
0002c0 61 a5 cf bc 52 ba 41 3d a2 04 5c bd 50 39 9f 3d
       -0.025347413 0.04729683 -0.053715356 0.07774603
0002d0 fd 9a c7 bc 39 14 42 bd 97 40 a9 bc 3e 89 59 3d
       -0.024365896 -0.047382567 -0.020660682 0.0531094
0002e0 58 2d c2 3d 05 9e cd 3d 9b 30 63 bb 3d 66 df 3c
       0.09481305 0.100399055 -0.0034666422 0.02727043
0002f0 30 5c 24 3d 8d 81 c1 3d 70 39 0f 3d e1 d8 91 3d
       0.04012698 0.09448538 0.034966886 0.071214445
000300 65 0f a8 bc 1c 92 46 bd 59 c9 d2 bd 42 c8 4a 3c
       -0.020515153 -0.048479185 -0.1029231 0.012376847
000310 8e 3a 21 bb a4 80 b2 bd e9 39 61 bd 27 2d 45 3d
       -0.0024601552 -0.087159425 -0.054986868 0.048138764
000320 df fb b1 bd 6b bf 43 3d ad 6d 71 bd cd 1a 90 bc
       -0.08690619 0.047789972 -0.058942486 -0.017590905
000330 58 84 f8 3c 10 d7 c7 bd 49 28 f8 3c a7 86 9a bd
       0.030336544 -0.09757817 0.030292647 -0.07545214
000340 0c af 32 3d 11 b9 47 bd ad 5b ce 3b b0 bd 25 3d
       0.04362397 -0.048760477 0.0062975497 0.040464103
000350 8b c9 3d bd 09 bf 3e 3d c3 e2 bf bd 11 96 d6 bd
       -0.046334784 0.046568904 -0.09369423 -0.10477842
000360 a4 ca 82 3d 07 cc da 3c 5e 66 76 bc 1f 97 bf bd
       0.06386307 0.026708616 -0.015039055 -0.09354996
000370 62 c1 d2 bc 27 36 5b 3d 68 ef d2 bc 38 fb 9c bd
       -0.025726978 0.05351844 -0.025748923 -0.07665104
000380 f5 c8 68 bc 51 06 0c bd 89 2c b4 3d 7a d4 00 3d
       -0.014208068 -0.03418571 0.08797557 0.031452633
000390 8a f0 67 3d 89 17 ef 3a b4 59 31 3c 4f 22 1c 3c
       0.05662588 0.0018241267 0.01082461 0.009529664
0003a0 3a 06 73 bd 56 8b 86 3d 5f 4e bf 3d 38 5e 77 bc
       -0.05933211 0.06569545 0.0934112 -0.015098147
0003b0 ac 69 d4 3d ed da 55 3d cc f7 38 3d cf 08 b4 3d
       0.10371718 0.052210737 0.045158193 0.087907426
0003c0 b5 10 34 bc 4b c3 8a bd bc 36 b8 3b d1 25 fb 3c
       -0.010990311 -0.067755304 0.005621759 0.03065768
0003d0 7e a5 7d ba 5d 33 1e 3c 4f 87 bd 3b 0f 27 01 bd
       -0.00096758443 0.009655801 0.0057839523 -0.03153139
0003e0 9e ea 56 3d be a1 28 bd 13 5f 91 3d 9a f5 a6 3d
       0.052469842 -0.041169874 0.07098212 0.081523135
0003f0 8b 2f 57 3d 74 d1 d4 3d 11 43 e9 3d b1 4e 96 3d
       0.052535575 0.103915125 0.11389745 0.07339228

rnn1.weight_hh_l0 f4 [128, 128]
000000 52 0d 5f 3c 7b 52 59 3b 95 98 7e bd e8 12 f7 bd
       0.013614016 0.0033160734 -0.062157232 -0.12064153
000010 c6 24 06 be ea b3 05 3e 00 cd ab bd 63 dc 15 bc
       -0.13099965 0.13056913 -0.0838871 -0.009146783
000020 2a 98 b4 bd 2e e7 86 bc 36 1e b4 3d 4a c1 c6 3d
       -0.088180855 -0.016467657 0.08794825 0.09704836
000030 7f 08 08 bd c6 08 93 bb 7b a6 d5 39 a3 96 40 b9
       -0.033211228 -0.00448713 0.00040750563 -0.00018366663
000040 33 6a e9 bc 29 b6 68 bc 32 1c 57 3d d8 be 00 be
       -0.028493023 -0.014203587 0.052517124 -0.12572801
000050 32 4d 68 3d 15 dc ed bc df 68 aa 3c 6c 29 bc bd
       0.056714244 -0.029035607 0.02080196 -0.09187588
000060 f1 47 d7 3d 6c d1 5a bc ec 18 d8 bd cd 0d c1 bd
       0.105117686 -0.013355594 -0.105516285 -0.094264604
000070 c1 b6 82 bc b4 c9 d7 3b 24 fc b3 3c b8 e6 7f bd
       -0.015956284 0.006585324 0.021970816 -0.06247589
000080 6b cb 0d 3b 4d a8 b5 bd 15 79 c8 bc 2a 84 d9 3d
       0.002163614 -0.088699915 -0.024471799 0.106209114
000090 93 70 2c 3d c7 68 6e bc 8a 2f 04 bd 28 e0 6e bd
       0.042099547 -0.014551348 -0.0322719 -0.05831924
0000a0 5c 9f 8c bb f4 c8 d5 bd d0 7f bc 3d c7 ad 02 3c
       -0.004291458 -0.104387194 0.09204066 0.007976002
0000b0 77 00 f3 bd 9e d0 b4 3d ac 08 d6 bd 19 4e e0 bd
       -0.11865323 0.08828853 -0.10450873 -0.10952396
0000c0 cf e7 ae 3d c7 b7 34 bd 6d 91 ec 3b 83 c6 dc 3d
       0.08540308 -0.044120576 0.0072194845 0.107800506
0000d0 70 ae 1a bd 84 59 8e bd b0 f7 70 3c 9c 4f d7 bd
       -0.037764013 -0.069506675 0.014707491 -0.10513231
0000e0 cc d9 1a bc 10 5a d8 bd 63 c0 71 3d 44 ce eb 3d
       -0.009451341 -0.10564053 0.059021365 0.115139514
0000f0 da df c9 bd af 5a 2d bd a9 18 b0 3c e5 e4 f9 bb
       -0.098571494 -0.04232281 0.021496134 -0.0076261633
000100 2a 7c 07 be 25 83 98 3c 7f ad e5 bc d0 64 3c 3d
       -0.13230959 0.018617222 -0.028036831 0.04599458
000110 da 71 9b bb a9 e1 04 be 82 81 64 bc 4f 78 f8 3d
       -0.004743797 -0.12976708 -0.013946893 0.12132322
000120 9c 19 04 3e 6c 55 d6 bc c8 8c 18 3c 73 1a 0b 3d
       0.12900394 -0.02616378 0.009310909 0.03396077
000130 d6 00 83 bd 73 81 7d 3d 30 0f a6 3c 0b 8e f8 bc
       -0.06396644 0.06189103 0.020270914 -0.030341169
000140 45 a9 b8 3d da fc 23 3d f8 ed 65 3d 16 be 94 3d
       0.090166606 0.04003606 0.056135148 0.072628185
000150 5c 0a ab 3d 90 d7 53 bb 41 39 00 3d 48 55 08 3e
       0.08351585 -0.003232453 0.0313046 0.13313782
000160 67 fb 64 bc 06 d2 62 3d 2d 0e 40 3d ea 69 d8 3b
       -0.013975955 0.055376075 0.04688852 0.006604423
000170 c4 b6 c1 bc 0f 13 68 3d 50 ec 1f 3d 17 5e 5f bd
       -0.02364672 0.0566588 0.039043725 -0.05453309
000180 8c f6 8b bd 3e 73 e4 3c 0e d2 0f bc c1 52 bf bd
       -0.068341345 0.027886983 -0.008778108 -0.09341956
000190 1a 7a f6 3d cf 16 95 bc c3 a5 9d 3d 96 1f 88 bc
       0.12035008 -0.018199353 0.07697632 -0.016616624
0001a0 31 1d d3 bc a3 50 01 be 73 50 0a 3e ad 35 d2 bd
       -0.025770755 -0.12628417 0.13507251 -0.10264144
0001b0 91 4e d9 bd 75 f5 3e 3d 2c ae 8d bd d7 08 c4 3d
       -0.106106885 0.046620805 -0.06917986 0.095719986
0001c0 81 7c e6 bd 0b 81 3d bb 14 ad d9 bd cc 23 e5 bd
       -0.11254216 -0.0028916027 -0.10628715 -0.11188468
0001d0 16 27 e6 3d f9 8a b3 3d 33 49 48 bd e9 48 f8 3a
       0.11237924 0.08766741 -0.048897933 0.0018942627
0001e0 02 ce e5 bd 5c 38 c2 bc 00 c7 e8 bd ed 5f 70 bd
       -0.112209335 -0.023708515 -0.11366081 -0.058685232
0001f0 0e a5 03 be d6 1b a1 3d 93 33 02 3e cb f3 cb bd
       -0.12855932 0.078666374 0.12714987 -0.09958609
000200 c1 a4 7c 3d 3b a8 e1 3d 41 f8 26 bd c7 c2 c4 bb
       0.06168056 0.110184155 -0.040764097 -0.0060046646
000210 74 de 17 3d 4d 9d 57 3d 57 13 c8 ba fe 25 e5 3c
       0.037077382 0.052640248 -0.0015264553 0.027972218
000220 42 29 94 bd bf d4 85 bc 74 fe 62 3c 6c 5b 88 3c
       -0.07234432 -0.016336797 0.013854612 0.016645156
000230 85 43 a5 bd 09 d1 a4 bd 64 1a 61 bd 8f 1f b8 bd
       -0.08069519 -0.08047683 -0.05495681 -0.08990394
000240 6f 28 b6 3d 54 d7 cd 3c d7 dd f3 3c e2 1b de bd
       0.08894431 0.02512709 0.029768867 -0.10845162
000250 7f 53 4e bb 4d b6 b9 3d 47 3d 17 bc 5b e2 9c bc
       -0.0031482873 0.09067974 -0.009230918 -0.019150903
000260 30 cd 27 bd 1c 46 ac 3c 80 6c 90 bd 48 4f b6 bd
       -0.040967166 0.021029525 -0.07051945 -0.089018404
000270 53 b4 56 bc cb 04 f4 3c 7f bf 00 bd 40 5a 8c bd
       -0.013104516 0.029787442 -0.031432625 -0.06853151
000280 72 9a 5f bd ca da b7 bd ce e0 85 3c 4e cd 65 bc
       -0.05459065 -0.089772776 0.016342547 -0.014025999
000290 66 64 01 3d 48 99 80 3d c7 01 ca 3d 2b f8 ad bd
       0.031589888 0.06279236 0.0986362 -0.084946
0002a0 17 2d 2c bd dd c0 ef bc d6 c0 5b bd 6f 5f e7 3b
       -0.04203519 -0.029266769 -0.0536507 0.007060937
0002b0 0a 78 c5 bd 2e ee b4 bb 79 f2 25 3d ca d9 f8 3b
       -0.09642036 -0.0055215573 0.040514443 0.007594322
0002c0 cb c1 6e bc 54 5c 16 3d 16 64 bd bd 76 af 4e bd
       -0.014572571 0.036709145 -0.092476055 -0.0504603
0002d0 46 89 8b bd 2b a9 90 bc 3d 17 75 3c de 0b 64 3a
       -0.06813292 -0.01765879 0.014959154 0.0008699278
0002e0 e5 0c a5 bd b5 6f 8d 3d 9c 1f e9 bc ea 0b bd 3d
       -0.080591 0.06906072 -0.028457455 0.09230788
0002f0 df 39 28 3d 9d 36 f5 bc e0 4c 47 3d 43 fb c4 bd
       0.041070815 -0.029933268 0.048657298 -0.09618237
000300 3f 22 f5 bb 7d dc 5a bd b1 78 84 3d 67 97 2f 3d
       -0.007480889 -0.05343293 0.064683326 0.042868998
000310 7c 47 51 bd 4b c5 ac bd ea b6 2e bb 9b 30 70 bd
       -0.051093563 -0.08436068 -0.0026659318 -0.058640104
000320 62 f1 56 3d 57 65 5d 3d 19 93 ab 3d 5e 0f a9 3d
       0.052476294 0.054051723 0.08377666 0.08254884
000330 95 12 af bd 98 ad c7 3c 70 80 2f bd 17 df 6b 3d
       -0.08548466 0.024374768 -0.042847097 0.057585802
000340 79 15 a1 3b 5e 05 db bd 52 c4 49 bd ed 26 d2 3b
       0.00491589 -0.10694383 -0.04925949 0.0064133317
000350 36 52 cb 3d 66 50 67 bd ce 30 2a 3d 89 5e d7 3d
       0.0992779 -0.05647316 0.04155045 0.10516078
000360 01 19 4d bd d7 7a db 3d b8 74 f1 3c 08 9a 74 3d
       -0.050072674 0.10716789 0.029474601 0.05971721
000370 c8 be 95 bd d4 86 9c bc 8a e3 be bd 4d 26 43 3c
       -0.07311779 -0.01910726 -0.093207434 0.011910987
000380 2e 19 96 3c ed 16 b7 bd 3c 5d b4 3d b5 e6 44 3c
       0.018322553 -0.089399196 0.088068455 0.0120178955
000390 62 3a 0a bc 43 7e e8 3d b3 69 a9 3d c0 a7 21 bd
       -0.008436771 0.113522075 0.08272114 -0.03946662
0003a0 36 a5 bb 3d 68 f2 d8 bd ac 0c 3a bd f9 44 04 bd
       0.09162371 -0.1059311 -0.04542224 -0.03229234
0003b0 32 09 37 3d 1f a9 c9 3d d6 85 d1 bd 74 9e a9 bd
       0.044686504 0.098467104 -0.10230605 -0.08282176
0003c0 3e 3d 83 3d bb e2 b4 bd 5e 8b 0f 3d eb 0c cf bd
       0.064081654 -0.08832308 0.03504502 -0.10109886
0003d0 dd 70 9a bb a0 99 5b 3d d1 fa 25 bd a4 ea 42 bd
       -0.0047131614 0.053613305 -0.0405224 -0.047587052
0003e0 d9 0c df bc 96 ae aa bd 6a bd c4 bc a1 e7 30 bd
       -0.027227806 -0.08334081 -0.0240161 -0.04318965
0003f0 5f 27 5a 3d dc 5b 68 3d 4e 82 a2 bc 87 15 55 3d
       0.053260203 0.05672823 -0.019837525 0.052022483

rnn1.bias_ih_l0 f4 [128]
000000 e1 d1 af 3d 30 af 79 3d 4c 70 50 bd e3 ff d8 3c
       0.08584953 0.060958087 -0.050888345 0.026489204
000010 9c c9 df bc 64 00 a6 3d 8d 70 c2 bd 61 e6 7b 3d
       -0.027317815 0.08105543 -0.094941236 0.061499003
000020 ea ab cc bc c0 49 66 3d a2 cd 81 3d 19 37 8d 3d
       -0.024984319 0.056222677 0.063380495 0.06895275
000030 d5 63 d2 bc a8 80 e9 bd 74 da cc 3d 7b 90 bf 3c
       -0.02568237 -0.11401492 0.10002604 0.023384323
000040 2e 8e aa 3c 1a cd a3 3d d1 4c 34 3d a3 18 47 bd
       0.02081975 0.079981044 0.04401857 -0.04860748
000050 d2 3e 1d 3c b7 f2 9f 3d ea d9 41 3d 78 a7 f2 bd
       0.009597497 0.07809966 0.04732696 -0.118483484
000060 1e 89 81 3d d3 25 aa bc 03 7d c5 bc 6c ae 3b bd
       0.06324981 -0.02076999 -0.024107462 -0.04582064
000070 d0 f6 00 be c5 6b ae 3d a2 35 2f bd 90 6f b3 bd
       -0.12594151 0.08516649 -0.042775758 -0.08761513
000080 05 0c db bd 71 9d af bd 26 bf 8c 3d 98 ee 71 3d
       -0.10695652 -0.085749514 0.06872396 0.05906543
000090 67 fa 7c bd 02 cf 6b 3d 72 b7 8a 3d da f7 55 bd
       -0.06176224 0.057570465 0.06773271 -0.052238323
0000a0 d8 ea a7 bc 7b 9e 86 bd e0 2e 45 bd a6 14 0d bd
       -0.020497724 -0.065731965 -0.048140407 -0.03444352
0000b0 c8 78 8d bd 72 7f 9b 3d 06 4d 67 bc 0d a8 dc 3b
       -0.06907803 0.07592668 -0.014117485 0.0067339004
0000c0 20 77 d6 3d 92 31 d5 3d 18 5b 63 3d e6 aa 88 3d
       0.1047194 0.104098454 0.055506796 0.06673221
0000d0 a1 5a dd 3a a5 67 c5 bd 3e 2c 4d bd 89 1e ab bd
       0.0016887971 -0.09638909 -0.05009102 -0.083554335
0000e0 9a f2 0f bd 67 49 8e bd b5 ce 5f bd 71 b8 83 3d
       -0.035143472 -0.06947594 -0.05464049 0.06431664
0000f0 b5 99 8d bd d0 24 e5 3d c2 8d 28 bd 43 65 9b bd
       -0.06914083 0.11188662 -0.041150816 -0.075876735
000100 0c 92 f1 bd 89 32 a9 bd 3f 61 87 bd 4a 19 13 3b
       -0.11795434 -0.08261592 -0.06610345 0.0022445493
000110 ad fe fa 3d 59 4d ca bd 7d d4 a1 3b bc 89 86 3d
       0.12255607 -0.09878034 0.0049386607 0.065692395
000120 f8 22 89 3d 42 38 9c bc e3 4c d3 bd 9b c0 78 3d
       0.06696123 -0.019069795 -0.10317399 0.060730558
000130 89 dc 7a bc 04 a8 9b 3c 47 24 2b 3c ea 80 c5 3a
       -0.015311369 0.019001015 0.010445661 0.0015068327
000140 ae 9d 1b bc 51 c2 f5 3c bc 71 97 3d b6 b4 7d 3d
       -0.009498043 0.029999884 0.0739474 0.061939918
000150 9e 6c bc 3d 5a 93 79 bd c9 0d 7b 3c 72 a6 77 bd
       0.092004046 -0.06093154 0.015323111 -0.06046147
000160 23 cd cd 3c c7 b6 8c 3d b3 38 ae bb d1 e8 17 bd
       0.02512223 0.068707995 -0.0053168177 -0.037087265
000170 d5 42 7a bb e8 c6 d7 3c 38 9e 97 bc be db 0c 3d
       -0.0038186808 0.026339963 -0.018508062 0.03438925
000180 dd 58 b7 bc ca a8 6b bc 3e 53 cc 3d 97 42 8a bd
       -0.02238124 -0.014383504 0.09976815 -0.06750982
000190 ef 6a 42 3d 56 03 ca 3d 57 e2 b4 3d 54 a4 be 3d
       0.04746526 0.098639175 0.088322334 0.09308687
0001a0 08 92 b6 3d 52 55 78 bd af 46 09 bd 17 c1 ee bb
       0.08914572 -0.060628243 -0.033514675 -0.0072862017
0001b0 36 89 16 3d f7 0e 62 3d 7c a1 70 bd 41 a7 09 3c
       0.03675195 0.055190053 -0.058747754 0.008401693
0001c0 39 9d 87 bd b2 26 a8 3c 1b 58 97 3c 7a 56 e9 bd
       -0.06621785 0.020526264 0.01847463 -0.11393447
0001d0 5a 14 9b bb 7d 51 88 bd a9 d2 b0 bd f9 99 de bd
       -0.0047326507 -0.06656168 -0.0863393 -0.10869212
0001e0 6e f9 03 3c f0 2e 79 3c ec 35 7b 3c f5 9a b8 bd
       0.008055074 0.015208945 0.01533268 -0.09013931
0001f0 12 e6 81 3d 09 9b 5d bc e3 23 8e bc c6 59 0b bd
       0.063427106 -0.013525733 -0.017351096 -0.03402116

rnn1.bias_hh_l0 f4 [128]
000000 e6 49 80 3d 84 8f c5 3c 95 83 f3 39 04 ab a1 bd
       0.06264095 0.024116285 0.00046446608 -0.07893947
000010 17 6e 3b bd 5f 2c 5b 3c d7 ff 99 3a f0 aa c1 3d
       -0.045759287 0.013377278 0.001174922 0.09456432
000020 7d fb c4 bd 42 e3 a9 3d b6 0f 94 3d 5c 9e b6 3d
       -0.0961828 0.08295299 0.07229559 0.089169234
000030 56 a1 e9 bc 2c 0a ff 3b 11 04 dd bc 36 b7 ed 3d
       -0.028519314 0.007783195 -0.026979478 0.1160721
000040 ad 97 ae 3d 27 4c 84 bd e5 0d f3 3d 1b d1 86 bc
       0.085250236 -0.064598374 0.118678845 -0.016457131
000050 ea 98 88 3d 5a 78 72 bb 38 94 1c 3d aa 06 06 3d
       0.06669791 -0.0036998005 0.03822729 0.0327212
000060 a3 b6 ec bc 58 38 e8 bd a6 87 b0 bd 89 8d 02 ba
       -0.028895682 -0.11338872 -0.08619623 -0.0004980197
000070 40 89 ca bd c0 65 90 3d 05 c5 05 bd a2 cc 03 3d
       -0.098894596 0.07050657 -0.032658596 0.032177575
000080 35 0e 8b bd e7 dc ba bd ed ed 88 3d ec 31 bb 3d
       -0.06789819 -0.09124165 0.06686006 0.09140381
000090 e7 7e d9 3d be 46 8f 3d ea 14 d0 bd 68 51 03 bd
       0.10619908 0.06995915 -0.10160239 -0.032060057
0000a0 09 dc 88 3d 4a ab 3b 3d 81 f0 95 3d 0d 88 2a 3d
       0.066825934 0.04581765 0.07321263 0.041633654
0000b0 fd 95 e6 bd b5 68 47 bd e5 f6 b2 bd 11 11 08 bd
       -0.11259077 -0.04868384 -0.08738498 -0.0332194
0000c0 b9 6e f8 3d 78 4d b5 3c 8f ad a0 bd 4d da 1c bc
       0.12130494 0.022131667 -0.07845604 -0.009573531
0000d0 41 43 c9 bd 82 cc 4d bd 6e 75 10 3d 3d 93 62 bd
       -0.09827281 -0.050243862 0.03526824 -0.0553162
0000e0 e9 ba 7d 3d a1 21 83 bc 48 cc 71 3d f0 c8 98 3d
       0.06194583 -0.016007246 0.05903271 0.07460201
0000f0 0d 7b d1 bc ff 1d c3 3d 01 5d f2 3c 45 9a 48 bd
       -0.02557137 0.09527206 0.029585363 -0.048975248
000100 65 b3 e9 bd f2 ce 1f 3d 9d 02 08 bc 0e a3 e1 3c
       -0.1141117 0.039015718 -0.008301404 0.02754357
000110 fc 84 1b bd b2 98 38 bb 75 b3 ce 3d c3 8d a1 bc
       -0.03796862 -0.0028167185 0.100928225 -0.019720918
000120 13 3b 93 bc bb bf c1 3d 79 01 f3 bd 07 ee c8 3d
       -0.017972505 0.09460398 -0.11865515 0.09811025
000130 fd 0e 1e bd a9 13 c4 3d 25 05 cc 3b b8 cc 87 3d
       -0.038588513 0.095740624 0.006226199 0.06630844
000140 5d f0 94 3d 9f 44 c6 bd 0f a5 a3 bc 7d 2a a7 3d
       0.07272408 -0.09681057 -0.019976167 0.08162401
000150 fe fd 9f 3d 7d ca 9c bd e2 80 93 bc 2e e8 1f 3d
       0.07812117 -0.07655809 -0.018005792 0.039039783
000160 ed 86 eb bc fa 74 b5 3d 90 07 f8 bc 6e ec f7 bd
       -0.028750861 0.08860202 -0.030277044 -0.12105642
000170 b4 26 a2 bd 77 5d ba 3d fb d1 c6 bd 61 71 a5 3c
       -0.07917538 0.09099858 -0.09708019 0.020195665
000180 f6 0f f8 bd 88 63 36 3c 5a f7 c5 3c 7e 21 98 bd
       -0.12112419 0.011132129 0.024165798 -0.07428263
000190 2d 50 9f bc 38 9b a6 bc ff 16 3a 3d e3 5b fb 3d
       -0.01944741 -0.020337686 0.045432087 0.122733854
0001a0 55 af 55 bb cc 1c 0b 3c e8 34 89 3d ca d8 d1 bc
       -0.0032605727 0.008490752 0.06699544 -0.025616068
0001b0 61 76 82 bd e3 75 c3 bb 16 bf a0 bd 71 ad ba 3d
       -0.06370235 -0.005964981 -0.07848947 0.091151126
0001c0 17 be 08 3d c5 ce ae bd 56 a4 5d 3b 07 93 e3 bc
       0.03338441 -0.08535532 0.0033819876 -0.027780069
0001d0 78 23 c0 3c c8 4b 23 3d bf 05 5e bb 76 5d ba 3c
       0.023454413 0.039867193 -0.0033877937 0.022749644
0001e0 1b f1 02 bd 1c 94 55 bd f1 5b fa bd bb 9a 44 bd
       -0.031968217 -0.0521432 -0.12224568 -0.047999125
0001f0 9c 41 0b 3c 44 7d 78 bd cc 93 bd 3c eb ae 83 bd
       0.008499529 -0.060666338 0.023141764 -0.06429847

rnn2.weight_ih_l0 f4 [128, 128]
000000 9c da aa bc df 8d f8 bc 8e e5 12 3d bc 14 b3 3d
       -0.020856194 -0.030341087 0.03586345 0.08744189
000010 92 5e 9f 3d 55 ba 65 ba 04 f8 48 3d 5d 10 5b bc
       0.0778171 -0.00087634224 0.04906465 -0.0133706005
000020 a9 2f c0 3d ae db 13 3d e7 fc 9f bd 4e e7 b7 bd
       0.093840905 0.036098175 -0.07811909 -0.08979665
000030 47 4e b6 3d 40 55 5c 3c 2b 89 af 3c f2 d3 16 3d
       0.08901649 0.01344806 0.021427711 0.03682322
000040 36 53 22 bc 6c 66 a6 bd 41 95 11 bd 17 b4 b9 3d
       -0.009907534 -0.08125004 -0.03554273 0.090675525
000050 1c 4b 67 bd b2 98 23 bb 7b 3a 3d bc d2 8b 4c 3d
       -0.056468114 -0.002496284 -0.011549587 0.04993803
000060 50 74 00 be 3f f2 f5 3c fd 78 bc bc a8 b0 f2 3b
       -0.1254437 0.030022739 -0.02300691 0.007406313
000070 98 7b 56 3c 37 40 50 bd a4 dc d4 bd 00 3a a8 bc
       0.0130909905 -0.05084249 -0.10393646 -0.020535469
000080 3e ba 1a 3d 9c dc f2 3d 64 36 38 3b 11 a7 82 bd
       0.03777527 0.11858484 0.0028108591 -0.06379522
000090 d9 46 ae bc 95 05 be bc 75 36 5d 3d a9 ad b5 3d
       -0.021274017 -0.023196021 0.054007012 0.08871014
0000a0 63 da c2 bc b3 d9 03 3d 42 e9 01 be ed 00 8d 3d
       -0.023785776 0.032190036 -0.12686637 0.06884942
0000b0 46 3d f0 3c b4 33 a5 bd 5c 80 de 3d c1 4a 71 3d
       0.029326092 -0.08066502 0.10864326 0.05890918
0000c0 b6 08 ba bd f1 20 61 bd fd e6 28 3d 9e e9 f5 bd
       -0.09083693 -0.054963056 0.041235913 -0.120074496
0000d0 34 e2 1e 3d 92 a0 82 3d 42 72 e8 3d 3a 83 e7 bc
       0.038789943 0.063782826 0.11349918 -0.028260816
0000e0 f9 02 e3 3d 8c 46 25 3d 39 aa 9a bd 0e 90 89 bc
       0.11084551 0.040350482 -0.07551999 -0.016792323
0000f0 27 9d a3 3d 27 3c 8c bd b1 08 01 3e ef df 01 3e
       0.07988959 -0.06847411 0.12600972 0.1268308
000100 f9 59 af 3d 0d 9d 1b 3d e5 8a 9a 3c 8a 10 ad bd
       0.08562083 0.037991572 0.018865058 -0.0845042
000110 4b 03 00 be 05 d5 d8 3d 36 13 4c bd 02 1f da bd
       -0.12501256 0.10587505 -0.04982301 -0.106504455
000120 16 e2 f9 bc 7a 2c c5 3c ab a4 6d 3d e4 7a 76 bc
       -0.030503314 0.02406906 0.058018368 -0.015043948
000130 c8 ee 07 3e 33 5c 27 bd 35 0e 8c bc 91 fd e0 bd
       0.13274682 -0.040859412 -0.017096618 -0.10985864
000140 a5 cf b8 bd 1a 14 aa bb c5 71 1e bd 89 3a cb bc
       -0.0902398 -0.0051903846 -0.038682718 -0.024808185
000150 3f e5 54 bd c9 09 fd bc cc 49 96 bc 01 ee 41 bd
       -0.05197644 -0.030888455 -0.018345736 -0.04734612
000160 d7 db 9d bd 8e cc be bc 9d c3 bc bc 06 d5 51 bc
       -0.07707947 -0.023290899 -0.023042494 -0.012807136
000170 b1 1b 36 bc 0d 00 19 bd 3b 83 74 3d 72 0c 2e 3c
       -0.011115001 -0.037353564 0.059695464 0.010623084
000180 6b ca b0 3d 58 69 df bc 5d 24 4c bc 3b de da 3c
       0.08632358 -0.027271912 -0.012459842 0.026717296
000190 60 fc a1 bd f0 89 5d bd 75 15 84 bd 83 24 3b 3d
       -0.07909465 -0.054086626 -0.06449405 0.045689117
0001a0 1f 42 1c 3d 88 91 db bc 74 2d c7 bd 1f 50 c5 3d
       0.038148995 -0.026802793 -0.09725466 0.096344225
0001b0 8c d7 45 bc 6d 95 99 bc ce ef 02 3d e2 12 7c bd
       -0.012075316 -0.01874801 0.031966977 -0.061541446
0001c0 36 3b 05 bc cb bf e4 bc 70 58 ed 3d 00 ca 8c 3d
       -0.008131793 -0.027923485 0.11589134 0.06874466
0001d0 ac 00 0f be c0 57 b5 3c ae 2b c3 bc 18 4d 32 3d
       -0.139651 0.022136569 -0.023824539 0.043530554
0001e0 1d 7e ff 3d 16 21 ad 3d 25 42 c8 3d bd df e9 bc
       0.12475226 0.08453576 0.09778241 -0.02854907
0001f0 82 e3 60 ba f1 19 e7 bc d7 fb b8 bd e8 3f c0 3d
       -0.0008578823 -0.028210612 -0.0903241 0.09387189
000200 0b b4 59 3d 20 29 17 3d 77 d6 81 bd d7 b1 d3 bd
       0.053150218 0.036904454 -0.06339734 -0.10336655
000210 c0 7b 04 3d 48 b0 e9 bc c4 80 17 3d cb 37 b1 bc
       0.03234458 -0.02852644 0.036988035 -0.02163305
000220 87 dc 07 3d 55 b9 ce 3d b3 89 f9 3c 13 7f 6d bd
       0.033169296 0.10093943 0.030461168 -0.057982516
000230 6d b6 c6 bd 01 05 ee bd c6 c6 3d 3d 7c b9 79 3d
       -0.09702764 -0.11622048 0.046332143 0.060967907
000240 04 a4 1d bc 47 44 c7 3d df d8 d2 3d 55 34 06 bc
       -0.009621624 0.0972982 0.10295271 -0.008191188
000250 42 0f 92 3d ae d9 db bb 28 f5 4e bc f8 7d 4b bd
       0.071318164 -0.006709299 -0.012631692 -0.04968068
000260 46 20 ea 3d db 25 84 bd f2 82 50 bd e4 70 0e bd
       0.11431937 -0.06452533 -0.05090613 -0.03477563
000270 e0 02 95 bd f8 eb 4b 3b 94 1f 87 3d 16 77 7f bd
       -0.07275939 0.003111599 0.0659782 -0.06236943
000280 5f c5 fa bd 8b 93 bd bd 0f 48 64 bc 6e ca 50 3d
       -0.12244677 -0.09256657 -0.013933196 0.050974302
000290 28 b7 10 bd 43 51 01 3e aa 18 16 bd 95 55 7d bc
       -0.03533092 0.12628655 -0.036644615 -0.015462299
0002a0 81 e8 84 3d ea 16 20 3c f9 6a a3 3d b1 0d 55 bd
       0.06489659 0.009771088 0.07979388 -0.05201501
0002b0 16 00 46 3d 64 0c 5f 3b 0e a2 5a 3d 02 44 b3 3c
       0.048339926 0.0034034485 0.053377204 0.021883015
0002c0 f1 9a c7 3d cb b0 29 3d 2b c1 ab bd bb 16 a2 3d
       0.097463496 0.04142837 -0.08386453 0.07914492
0002d0 a9 8d 72 3d fb 1e f5 bd 03 d7 52 bd 71 aa d8 bd
       0.05921713 -0.119688 -0.051474582 -0.10579384
0002e0 02 e2 c7 bd 2e e2 9c 3c 27 52 c8 3d 24 c5 3d bd
       -0.097599044 0.01915082 0.09781294 -0.046330586
0002f0 b5 fc ed bd 8a 0c 6c 3d 83 fc db bd 10 0b 82 bd
       -0.11620466 0.057629146 -0.10741522 -0.06349766
000300 3d de 65 3d 42 70 37 bd 63 51 1f 3d 1e 65 45 3d
       0.056120146 -0.04478479 0.038895976 0.048192136
000310 34 59 67 3d 32 e8 99 bc 88 80 a8 bb 45 54 1a 3d
       0.056481555 -0.018787477 -0.0051422752 0.037678022
000320 68 19 cd 3d 37 e5 48 3d 8d b1 70 3d 56 44 d3 bc
       0.100146115 0.04904672 0.058763076 -0.025789421
000330 f0 6f 16 bc 83 7e a9 3c 0c 91 68 3c 1b 43 9d 3c
       -0.009181961 0.020690208 0.014194738 0.019197037
000340 96 a9 05 3e ca e4 58 bd 82 cf e9 3d 2b fc 32 3d
       0.13052973 -0.052952565 0.11416532 0.043697517
000350 d9 0a 8f 3d db 73 56 bc 37 fd 16 3c 17 8e d4 3d
       0.06984491 -0.0130891455 0.009215645 0.10378664
000360 0b 94 d3 3b c1 e9 18 3e 40 a8 4d bd 61 6a 66 bb
       0.006456857 0.1493292 -0.050209284 -0.0035158622
000370 22 b2 a8 bb c4 8c 95 bd 3f 3f d0 bd f7 0c 8b 39
       -0.005148188 -0.073022395 -0.10168313 0.00026521806
000380 20 2a 06 be 52 aa fb 3c 63 1a e9 3d 8e 73 8f bc
       -0.13102007 0.030720863 0.11381986 -0.017511155
000390 33 4f 49 bd c1 51 76 3d 84 14 9b bc 25 84 03 3e
       -0.049147796 0.06013656 -0.018930681 0.12843378
0003a0 24 12 12 bd e3 7f 03 bd 23 91 7d 3d 45 a3 06 3d
       -0.03566183 -0.032104384 0.06190599 0.03287055
0003b0 d1 49 ff bd db f9 57 3d 30 1e c8 bd 69 da 8e 3b
       -0.12465251 0.052728515 -0.09771383 0.0043595326
0003c0 ab fc b2 bd 5d 0e cb bd 0f 4f 39 bd c9 f4 c7 bc
       -0.08739599 -0.09914849 -0.04524141 -0.024408715
0003d0 ad 36 ba 3c cf 76 05 bb a6 3f 85 3b 14 5b 00 be
       0.02273115 -0.0020365005 0.0040664254 -0.12534744
0003e0 7c 4a c8 bd f7 d1 16 3b dc aa ff bd 66 8e b3 bd
       -0.09779832 0.0023013332 -0.12483761 -0.08767395
0003f0 9e b1 25 3d bd 01 9d bc fc b5 ab 3d 72 b0 11 be
       0.040452592 -0.019165868 0.0838432 -0.14227465

rnn2.weight_hh_l0 f4 [128, 128]
000000 03 9d 7d 3d 89 d8 2f 3d 11 e6 04 3d 7f e7 7f 3c
       0.061917316 0.042931113 0.03244597 0.015619158
000010 89 81 ba 3d 47 24 cd 3d 7b 7f fb bd 0d ed f2 bd
       0.09106738 0.10016685 -0.12280174 -0.1186162
000020 9d 88 83 bd 83 60 94 3a 88 48 9f 3c 19 bf 06 bd
       -0.06422541 0.0011320267 0.019443765 -0.03289709
000030 03 b4 3e bd fd 24 72 3d 6d a1 2e 3d 5f 10 28 bd
       -0.04655839 0.059117306 0.042634416 -0.041031238
000040 21 c5 ae 3d f7 b3 03 bd af d5 25 bd a8 c6 e3 bb
       0.08533693 -0.03215405 -0.040486988 -0.006951172
000050 ad 74 31 3d 02 44 fc 3c a9 90 41 3d f9 25 c6 3d
       0.04332416 0.030794147 0.0472571 0.096752115
000060 4f 35 0a 3d 31 1e b9 3d 05 a5 64 bd 14 6a 85 bc
       0.033742245 0.09038962 -0.055821437 -0.016285934
000070 b7 e8 db 3d c1 2f 9b bd a1 44 74 3d bc 39 1a bc
       0.10737746 -0.07577468 0.059635762 -0.009413179
000080 55 fa a0 bd a5 f5 3d 3d 0b 06 af bc d5 15 b2 bd
       -0.07860247 0.046376843 -0.021365186 -0.086955704
000090 a3 77 a3 3d 31 60 a8 bc fb 01 c3 3d 5f ac d6 bd
       0.07981803 -0.02055368 0.09521862 -0.10482096
0000a0 49 5a d9 bd 83 e7 f9 3d 7b ca 5f 3d c3 29 d5 bc
       -0.10612924 0.122023605 0.05463646 -0.02602089
0000b0 4f 85 d9 3c 81 de a5 3d 9b 7e 44 bd 1f 48 3e 3b
       0.026552824 0.0809908 -0.047972303 0.0029034687
0000c0 5d 52 11 bd d5 31 8f 3d 9b c0 ae 3d 21 7e 87 3d
       -0.03547894 0.069919266 0.0853283 0.06615854
0000d0 0c ec c0 3c 23 b1 06 bd 85 39 cf bd 47 11 33 bd
       0.023550056 -0.032883774 -0.10118393 -0.04371765
0000e0 8a 5c 9c 3c 93 ff e2 3d 85 62 8b bd 1f 65 3e bd
       0.019087095 0.11083903 -0.068059005 -0.046483155
0000f0 d1 95 f7 3d f5 a1 49 3c 46 14 bc bc 7b 99 a9 bd
       0.12089122 0.01230668 -0.022958886 -0.08281227
000100 27 1a ab bd 77 92 f1 3d e3 d9 90 3d 97 a5 f2 bc
       -0.083545975 0.11795514 0.070728086 -0.029619975
000110 2b 1c ab 3c dd 4f d5 bd 6b 4f 8f bd fb 20 08 bd
       0.020887455 -0.10415623 -0.0699757 -0.033234578
000120 0e e3 2d 3c b5 79 ad bd b5 c4 53 3c 4b 3f dd 3c
       0.010613216 -0.084704794 0.012925317 0.02700772
000130 1a 09 e6 3b 69 74 8b 3d de 69 2c 3c eb a7 a8 3d
       0.007020128 0.06809313 0.010523288 0.08235153
000140 a0 c8 7f 3d 69 fa b3 3c 7f 53 a2 bd 9d 4d f0 3c
       0.06244719 0.02196999 -0.07926082 0.029333884
000150 cd 33 e5 3d 16 ca 04 be 13 dc e1 bc 37 e4 de bd
       0.11191521 -0.12967715 -0.02757076 -0.10883372
000160 6b 86 e7 bd fd 2e e6 bc f0 3e 04 be d1 1f 46 3d
       -0.11304935 -0.028098578 -0.12914634 0.048370186
000170 a5 83 db 3c ec db c4 3b 1b 3e 46 3d 47 fe ba 3c
       0.026796171 0.006007662 0.048399072 0.022826327
000180 c6 3e c4 bc db 91 b0 3d d4 9e 0a be c3 9b 3b 3d
       -0.023955714 0.0862157 -0.1353715 0.045802843
000190 4b b9 fb bd e3 ca 22 3d f2 02 f2 bc 63 2d 51 bd
       -0.12291201 0.03974427 -0.02954242 -0.051068675
0001a0 01 fd 01 3e 85 ac bd bd 0a 57 ec bc a2 c7 6f bc
       0.1269417 -0.09261421 -0.028850097 -0.0146349985
0001b0 09 b9 0c bd 89 1a be bc fb 21 f8 bc f1 1c fb 3d
       -0.03435615 -0.023206012 -0.03028964 0.122613795
0001c0 fd 50 d0 3d ca b4 02 bb 5e 5b 93 bc 7e b6 f3 3c
       0.10171697 -0.0019944184 -0.017987903 0.029750105
0001d0 51 f0 e2 bd 99 e3 3b bd 7b 4a d7 3d a8 5b 81 3c
       -0.11080993 -0.04587135 0.10512253 0.015790775
0001e0 d7 18 28 bc 5b 53 80 bd e6 4f b0 3c 6f 9d 61 3b
       -0.0102598285 -0.06265899 0.021522474 0.0034426113
0001f0 6a 38 d9 3c d7 26 c5 3d ef 02 d4 bc 95 16 44 3d
       0.026516158 0.09626549 -0.025880305 0.0478731
000200 fd a6 75 bd 7e 0a cb 3c c6 79 2c bc 61 3e 4a bc
       -0.059973706 0.024785277 -0.01052708 -0.012343974
000210 93 37 ba bd 62 97 c0 bc b9 8a a5 bc 41 5a 0d 3a
       -0.09092631 -0.023509685 -0.02020775 0.0005392172
000220 aa cd d9 3d 07 04 ee 3d 0f e2 de 3d 81 5f 43 3d
       0.106349304 0.11621862 0.10882961 0.0476985
000230 63 34 3c bd 4c 0f f9 bd ad 43 08 3d 14 4e 04 3d
       -0.045948397 -0.12161121 0.033267666 0.032301024
000240 71 f8 07 be 12 c2 e8 3d 99 0b fd bc 9d 99 f1 bd
       -0.13278367 0.11365141 -0.03088932 -0.117968775
000250 f8 87 f6 bd 03 91 59 bd 43 13 81 b9 4f 13 ed 3c
       -0.12037653 -0.05311681 -0.00024619148 0.028939871
000260 26 e1 f5 3d bd b5 42 bb 4e 9a 77 3a 6b be 2d 3d
       0.12005834 -0.0029710375 0.00094452954 0.042417925
000270 d0 9e 62 bd ef 41 b3 3d 31 74 4a bd 3c 1f 2b 3d
       -0.055327237 0.0875281 -0.049427215 0.041777834
000280 b6 80 0d 3d 69 b8 c9 3a 77 22 b5 bd 3b 03 1c bd
       0.034546576 0.0015390042 -0.08844464 -0.03808902
000290 ee c8 c2 36 f1 a2 24 bd 66 69 9d bd 92 0e aa 3d
       5.805042e-06 -0.040194456 -0.07686119 0.0830356
0002a0 0d 34 cc 3c dd 89 4e bd 72 ee cf bd a7 b0 92 bd
       0.024927163 -0.050424445 -0.10152902 -0.071626
0002b0 a9 20 e2 3d a2 e0 a4 bd ae 9d ba bd 19 99 9f ba
       0.11041386 -0.08050658 -0.09112106 -0.0012176364
0002c0 ab 4d eb 3c 68 bd ec bd c1 69 ff 3a e0 7d 8c bd
       0.028723558 -0.11559564 0.0019486473 -0.06859946
0002d0 de 31 50 3d 06 31 d3 3b 14 0e 29 bd a7 11 93 3c
       0.050828807 0.006445053 -0.04127319 0.017952753
0002e0 b1 1b 8d 3d b7 4e ce 3c 3d 2f cd 3c 12 3b d7 3c
       0.06890047 0.025184019 0.025046939 0.026273284
0002f0 64 4d 89 bc 5f c9 80 3c 8f c7 a6 3d e3 ce 82 3d
       -0.016760536 0.015721021 0.081435315 0.06387117
000300 8a 58 8a bc ef d7 cf 3c a0 16 1c bd 36 45 e1 bc
       -0.016887922 0.02537152 -0.038107514 -0.027498823
000310 2e e6 f4 3c 8d 5a b1 3d b3 c7 62 3d bd 4a 28 3c
       0.029894914 0.08659849 0.05536623 0.010271725
000320 5d 77 ee bd 52 8b cb 3d 18 91 9a 3d 73 5f 9e 3d
       -0.116438605 0.099386826 0.07547206 0.07733049
000330 f3 d5 78 bd f9 38 fb bc b6 f2 3a bc 32 8a b3 bd
       -0.060750913 -0.030666815 -0.011410406 -0.08766593
000340 c3 43 aa bc 26 f9 f1 3d e5 01 29 3c ea a4 a0 3d
       -0.020784264 0.118150994 0.010315393 0.07843955
000350 90 65 ce bb 59 9d be 3d fa 5f 2c bc a1 67 01 3e
       -0.0062987283 0.093073554 -0.0105209295 0.12637188
000360 c5 fd c8 bc 17 f4 00 3c be 88 94 3d 57 e1 11 3d
       -0.02453507 0.007870696 0.07252644 0.03561529
000370 83 a0 b2 3c 26 8f 42 3c d0 79 4e bd a2 e9 66 bd
       0.021805054 0.01187495 -0.05040914 -0.056375153
000380 62 a6 e3 3c 65 62 05 be 15 1b 87 3d 0c f1 d6 bc
       0.027789298 -0.13025816 0.06596962 -0.026237987
000390 6c e0 4f bd 32 3b fc 3c 43 6f 58 bd f9 7a a7 bd
       -0.050751135 0.030789945 -0.052840482 -0.08177752
0003a0 41 37 c5 bd 41 a5 a6 3d 20 a7 2b bd 55 11 5c 3d
       -0.096296795 0.081369884 -0.04190743 0.053727467
0003b0 40 01 f9 bc a0 9b 6d 3d 44 e5 48 bd 27 36 06 be
       -0.030396104 0.058009744 -0.04904677 -0.13106595
0003c0 cf 24 11 bd ef 0b 92 3c 7f 54 ba bd a4 eb 76 3d
       -0.035435494 0.017827956 -0.090981476 0.06028332
0003d0 64 c8 1d 3d e5 69 13 bc 2c 73 51 bd a5 f4 3f bd
       0.038521186 -0.008997415 -0.051135227 -0.04686417
0003e0 da 90 e4 bd 8b 01 fa 3d 18 09 a0 bc ac 1f da 3b
       -0.11160441 0.122073255 -0.019535586 0.0066566076
0003f0 38 52 db 3d f8 7c 8e bd 21 fa 54 bd 71 6b f9 bd
       0.10709041 -0.0695743 -0.051996354 -0.12178696

rnn2.bias_ih_l0 f4 [128]
000000 7d 68 4c 3b da 29 a1 3d 25 95 77 bd b5 b3 07 bd
       0.003119021 0.07869311 -0.06044497 -0.033130366
000010 e5 9c a8 bd 1f 4d d6 bc 41 7f 5b 3d 50 67 d0 3c
       -0.0823305 -0.026159821 0.053588156 0.025439888
000020 8c 69 1f 3d 4d ec 8f 3d a5 2d f4 3d b9 40 bd 3d
       0.038919017 0.07027493 0.119227685 0.092408605
000030 cb 9d a4 3c 22 13 c5 bd 3d 1d 83 3c 9e e5 b0 3d
       0.020094773 -0.0962279 0.016005153 0.08637546
000040 6f 70 f2 b8 ca cc 5f 3d 48 ce db 3d 5e 2f ec bd
       -0.000115604016 0.05463866 0.107327044 -0.11532472
000050 ab 93 fa 3b e4 46 07 bd 0a 95 6b bd f3 40 ca bd
       0.007646998 -0.03302659 -0.05751518 -0.09875669
000060 28 4a 43 bc 30 d7 a3 3c 5e 0d d9 3c b7 b2 eb 3d
       -0.011919536 0.02000007 0.026495632 0.115086965
000070 59 89 e2 3c ae c5 87 3d 60 3e 2d bd a2 3c e1 bc
       0.027653383 0.06629501 -0.042295814 -0.027494732
000080 12 86 26 bd d5 3f de 3d fa c8 bb bd a4 96 b8 3d
       -0.040655203 0.10852019 -0.091691926 0.090131074
000090 19 05 a5 bb 71 84 bb 3d 9e 96 a4 bd b7 fd c1 3d
       -0.005036008 0.091561206 -0.080365404 0.094722204
0000a0 b4 ee 90 3d d1 11 b9 bd f3 8f 2b bd d8 88 f7 ba
       0.07076779 -0.09036601 -0.041885328 -0.0018885387
0000b0 9b f4 fa 3a 4e d4 9e bd 39 2f d4 bd 62 64 78 3d
       0.0019146384 -0.07755338 -0.103605695 0.060642608
0000c0 d0 df 44 bc 36 91 84 3b b7 c6 89 bc e4 f8 90 3b
       -0.012016252 0.004045631 -0.016818387 0.0044242013
0000d0 f2 ec 7e bd 4e 1e 64 3c 7e 07 48 bd 37 97 15 bd
       -0.062237687 0.013923241 -0.04883527 -0.036521163
0000e0 59 2b c6 3d 65 7b 58 bd f1 87 98 3d b4 e0 b3 3d
       0.09676237 -0.052852053 0.07447804 0.08783093
0000f0 76 d3 c5 bd 9c f9 51 3d b8 4e 6e bb 00 12 e1 3d
       -0.096594736 0.051263437 -0.0036362838 0.10989761
000100 ed 99 ab 3d 34 67 41 3d 36 d0 22 bd 8e 14 58 3d
       0.083789684 0.047217563 -0.039749347 0.052753977
000110 c4 5c 89 bd e8 7e 8f 3d 7b 9c 21 bd 44 d0 14 bd
       -0.06707147 0.07006627 -0.039455872 -0.03633143
000120 78 6d 0a bd 48 28 23 bd f1 c5 ae b9 48 18 e6 3d
       -0.033795804 -0.039833337 -0.00033335344 0.112351
000130 e9 6a b2 bc e6 7d 5c bd 28 39 97 3c 15 e8 7b 3d
       -0.021779494 -0.053831004 0.018459871 0.061500628
000140 55 1a d4 bc de 23 58 3d 1e 11 09 bd 85 d3 b4 3d
       -0.025891462 0.05276858 -0.03346359 0.08829407
000150 a4 d5 c2 bd b0 74 3e 3d ff e7 01 bd 23 7a e6 3d
       -0.09513405 0.046498 -0.03171539 0.112537645
000160 6a b5 06 3b 76 a1 64 3b 7c d1 1e 3c e6 39 86 bd
       0.0020554909 0.0034886277 0.0096935 -0.06554012
000170 00 ca 7d bc a1 5c ce 3c 6c f0 75 3d 2f 20 9f bd
       -0.015490055 0.025190653 0.060043737 -0.077698104
000180 35 f4 35 bb 2e c5 8e bb 5a bd ec 3d fc 42 44 bd
       -0.0027763967 -0.0043570017 0.115595534 -0.047915444
000190 76 21 11 3b 47 a6 f2 3d 4f 5b 67 bd 0d f8 b0 bd
       0.0022145188 0.11848121 -0.056483563 -0.08641062
0001a0 56 67 e1 bd 8f 42 66 3d 7a 5e cd bd a7 0b b5 3d
       -0.11006038 0.05621582 -0.100277856 0.08840113
0001b0 3e c2 8a bd d0 52 d4 3d 34 3b 8e 3d 00 81 bd bd
       -0.0677533 0.10367358 0.06944886 -0.092531204
0001c0 ab 9a 7d bd 3e ae 25 3d 6d 2d 00 3d 9e 69 af 3c
       -0.06191508 0.040449373 0.03129332 0.021412667
0001d0 38 04 28 bd 8d 82 d5 bd a0 6c b6 bc c0 15 00 bd
       -0.04101965 -0.10425291 -0.022268593 -0.031270742
0001e0 61 8f d9 bd dc 9d b7 3d 8d 9b 01 bd 7c f5 2c bd
       -0.106230505 0.08965656 -0.031642485 -0.0422263
0001f0 60 1e 42 3d b9 ae b0 3c 1a bd 01 3d ff 92 3e bc
       0.04739225 0.02156769 0.031674482 -0.011631726

rnn2.bias_hh_l0 f4 [128]
000000 6f 22 7c bd 24 a4 87 bc e4 be ab bd f1 27 ff bc
       -0.061556276 -0.01655776 -0.08386019 -0.031146975
000010 9b 0f b0 bd e9 13 c3 3c 12 88 8a 3d 96 3a 4f 3d
       -0.085967265 0.023813205 0.067642346 0.05059298
000020 ee df 3f bd af b3 c2 3c b9 74 53 bd 49 fe c0 bc
       -0.046844415 0.02376732 -0.051624987 -0.023558753
000030 8b 48 de 3b 0e 39 8f bd df 23 8e 3d ef 8d 88 3d
       0.00678355 -0.06993304 0.069404356 0.06667697
000040 14 20 e1 3c 95 81 be 3d a4 85 d3 3d 43 b6 c0 bd
       0.027481116 0.093020596 0.10328224 -0.09409764
000050 7a 1b 55 bd af 3a ed bc ee 2f 29 bd 39 64 ee 3c
       -0.052028157 -0.028958647 -0.041305475 0.029100524
000060 b3 41 c8 3d ee a9 96 bd 21 d9 d1 3d 04 70 50 bd
       0.09778156 -0.0735663 0.10246492 -0.050888076
000070 a7 6b fb bc 2b a9 84 3d 54 fd fc bd 0b 04 e2 bd
       -0.030690981 0.06477579 -0.12353006 -0.110359274
000080 81 ab fb 3c 13 1f 6c 3d d8 31 d8 bc 54 55 53 3d
       0.030721428 0.057646822 -0.026390955 0.051595047
000090 b6 9f 7e ba 40 15 9c 3d 2d 37 79 bd 57 5e 5d bd
       -0.000971313 0.076212406 -0.060843635 -0.054045048
0000a0 2d 8b 36 bc ed ed 39 3d d9 bf 1d 3d 83 8d d0 bc
       -0.0111415805 0.04539292 0.03851304 -0.025458103
0000b0 95 e7 9d 3d cd a8 d3 bd 55 bd b4 bd 7a c8 b6 3d
       0.077101864 -0.103349306 -0.08825175 0.089249566
0000c0 f2 2f c9 bd b9 c5 74 bc 43 f7 e0 bd 39 fe 4b 3d
       -0.09823598 -0.014939719 -0.109846614 0.049802992
0000d0 e0 85 0f ba 02 4b cd 3d d4 07 2f bd 6a 15 70 3d
       -0.0005474966 0.10024072 -0.042732075 0.058614172
0000e0 ab 2a a0 3d 63 dc ea ba 4d 2a cb 3d 72 b1 b0 3d
       0.07820638 -0.0017918464 0.099201776 0.08627595
0000f0 ea 8a da bd 84 97 ee 3d ff 45 1e 3d c6 2c d5 bb
       -0.10671027 0.11649993 0.038640972 -0.0065055816
000100 88 97 f6 3c e6 77 2f bd 4e de 13 3d 24 18 be 3d
       0.030101553 -0.042838953 0.03610068 0.09281948
000110 94 3a 37 bb 88 f4 bc 3c a8 f8 af 3d 8b 91 c0 bd
       -0.00279585 0.02306582 0.08592349 -0.0940276
000120 ee 8c 26 3d 8b 77 36 3d 97 46 dd 3d 54 7f 5f 3c
       0.040661745 0.0445476 0.108044796 0.013641197
000130 27 6b bb bd 1e a0 2f 3d fe da d2 3d 5f 5c 1d 3d
       -0.09151297 0.04287731 0.10295676 0.03841817
000140 fe b4 14 3d 0e 58 e3 3d ad cf d4 3d b9 fc 87 3b
       0.03630542 0.111007795 0.103911735 0.00415
000150 7f 9a 83 bd 07 ed 84 3d 51 0f 92 bd f6 f8 12 bd
       -0.06425952 0.06490522 -0.071318276 -0.03588196
000160 ef e4 ee 3d ce f7 bf 3d 92 d2 e5 3d fd fd a8 bc
       0.11664759 0.09373437 0.11221804 -0.020628924
000170 f1 1e 93 bd 39 69 aa 3d f4 3b c0 bd 95 25 da bd
       -0.07183636 0.08320851 -0.09386435 -0.106516995
000180 f1 36 2c 3d 8c 84 6e ba c0 af 44 bd 83 77 d3 bd
       0.042044584 -0.00090987305 -0.04801917 -0.103255294
000190 a2 24 c1 bc de a3 74 3c ca 96 b1 bd 70 ed 08 bd
       -0.023577038 0.014931647 -0.08671339 -0.033429563
0001a0 0d 8c 8d bd 18 eb ff 3c 78 ad ba bd 1c 34 2a 3d
       -0.06911478 0.031240031 -0.09115118 0.0415536
0001b0 f6 7a d3 3d 4d 36 82 bd a6 ab 27 3d d3 02 32 bc
       0.10326187 -0.06358013 0.04093518 -0.010864931
0001c0 8b 2d 42 bd d7 5e 3c 3b f1 c6 61 bd d6 bd 40 3d
       -0.047406714 0.0028743052 -0.055121366 0.04705604
0001d0 a6 f9 7d 3d 9f 7d ad bd dc 1e 1d bd 66 1d 3d bd
       0.06200566 -0.08471226 -0.038359508 -0.046170615
0001e0 9c d4 03 3d e4 ca 8f 3d 84 29 c1 bd 56 7e d2 3d
       0.032185182 0.0702112 -0.094317466 0.10278003
0001f0 34 87 5c bd 49 8e ee 3c e8 5e a5 bc 0b 55 26 bc
       -0.053839877 0.029120581 -0.020186856 -0.010152112

dense_layers.0.weight f4 [256, 128]
000000 34 b9 7a 3d 00 ae 87 3d 16 c5 8b 3d a1 c7 9f 3b
       0.06121178 0.06624985 0.068247005 0.0048760925
000010 8b 37 9d 3d ff 3f 50 bd 8e db d7 3c 2f 68 c0 bc
       0.076766096 -0.05084228 0.026349809 -0.023487179
000020 06 65 73 bd f7 d7 0b 3d 4e 68 dc bb 05 b0 3c 3d
       -0.059422515 0.034141507 -0.0067263013 0.046066303
000030 1c fd 85 bd 06 c5 86 bd d1 b0 59 3d 24 c3 f7 bc
       -0.065424174 -0.06580548 0.05314714 -0.030244417
000040 86 3b 98 ba 77 65 ad 3d 8b 62 2d 3c 00 44 02 bd
       -0.0011614419 0.084666185 0.0105825765 -0.03180313
000050 dd 76 e0 3c aa 53 dc 3c 79 a7 63 bd 0a 76 1e bd
       0.027400428 0.026895363 -0.055579636 -0.03868679
000060 4a 21 ac 3c 4d bb 12 bd ea ba 1e bd cc 3c b0 3b
       0.021011967 -0.035823155 -0.038752474 0.0053783413
000070 88 75 03 3d c9 f7 81 3c c1 72 38 3d dd 7a 44 bc
       0.03209451 0.015865223 0.045031313 -0.0119921835
000080 9a 73 9b bd d1 83 91 3d 20 8d ff bc 69 0c cd bc
       -0.075904086 0.0710522 -0.031195223 -0.025030332
000090 01 88 3d 3c bf ab b6 bc b9 b3 93 3d ec 67 5c 3d
       0.01156807 -0.022298692 0.07212014 0.053810045
0000a0 99 3b 4a bc e4 d6 1e bd 65 12 92 3a d3 8d 51 3d
       -0.012343311 -0.038779154 0.0011144398 0.051160645
0000b0 ea 6e 56 bd c0 2d 88 3d e3 38 20 3d 42 38 2e bc
       -0.05235187 0.06649351 0.03911675 -0.01063353
0000c0 bb 46 83 3c 68 2b 94 3d 23 2d e7 bc c2 d8 a2 bd
       0.016024938 0.072348416 -0.028219765 -0.079514995
0000d0 ad 61 8a bc db c0 c1 bd 33 5d f1 bc ec e8 98 bd
       -0.016892279 -0.094606124 -0.029463386 -0.07466301
0000e0 f8 fe b1 bc e1 95 9f 3d ae 3d 1d bd 03 23 74 bd
       -0.021728024 0.07792259 -0.0383889 -0.059603702
0000f0 a0 3a 9c 3d cc 4a ae 3a 8d c6 48 bc d9 b2 71 3d
       0.07628369 0.0013297438 -0.012254369 0.059008453
000100 23 70 70 3c f8 44 9a bd 0c 76 5a bd 1c 21 d5 bc
       0.014675173 -0.07532686 -0.053335235 -0.026016764
000110 a8 57 19 bd 13 c3 57 3d 2a 1e 8e bd 8b e0 8f 3d
       -0.03743711 0.05267627 -0.06939347 0.0702525
000120 7e 13 3a 3c 41 ac 5c 3d 4e b0 c5 3c 76 9e 78 3d
       0.011357186 0.05387521 0.02413192 0.060697995
000130 7e a3 ad 3c 9c 51 53 3d 78 c4 b4 bd a7 c0 6f ba
       0.021196123 0.0515915 -0.08826536 -0.0009145834
000140 f7 cd 96 3d d3 ec 4a 3c bf 0b 1e 3d 6a 62 60 3d
       0.073635034 0.012385565 0.03858542 0.054781355
000150 0a 42 b5 bc 67 6a 80 bd b9 d0 9a bd 5b a5 b9 bd
       -0.022126216 -0.06270295 -0.07559342 -0.09064742
000160 78 80 a6 bd e8 ad 22 3d 67 04 6c 3d 0d a6 1b 3c
       -0.08129972 0.03971663 0.057621386 0.009500039
000170 d3 18 b8 3d 10 ac ad bd 5d ac 85 3d d7 cc 09 bd
       0.0898911 -0.08480084 0.06527016 -0.033642616
000180 cc 3f 92 3c 60 54 92 3d a4 4d 92 3d 4e f9 82 3d
       0.017852686 0.071449995 0.07143715 0.06395207
000190 c6 8e d6 bc 3d e9 b7 bd fa 90 79 bd dc 0d a6 bd
       -0.026191127 -0.089800335 -0.060929276 -0.08108112
0001a0 d3 8a 77 3d 1c 5d 04 bc 5e 8a 6f bd 79 a9 1e 3c
       0.060435127 -0.00807884 -0.058481567 0.00968396
0001b0 85 ac 1c 3d e4 fd 1b bd ac 74 80 bd 57 71 a2 bd
       0.038250465 -0.038083926 -0.062722534 -0.07931774
0001c0 57 eb 7c bc 6d 00 0a bd 33 1c a6 3d 8a 12 3d bd
       -0.015436969 -0.033691812 0.08110847 -0.04616026
0001d0 d0 2f 77 bd a1 87 a6 3d ce d2 8b 3d e7 dd bc 3d
       -0.060348332 0.08131338 0.06827317 0.09222012
0001e0 a7 bc 39 3d f9 a9 7f 3c 24 c1 5c 3d 53 68 20 3d
       0.04534593 0.0156044895 0.05389513 0.03916199
0001f0 6b 12 a4 3d c1 0f 71 bc d5 83 6b 3a 97 ea 6e 3b
       0.080113254 -0.014713229 0.0008984183 0.0036455744
000200 66 83 5d bd 5c 17 6d 3c 47 d7 52 bd b5 b4 91 bd
       -0.05408039 0.014470901 -0.051474836 -0.07114545
000210 05 dc 0b 3d b3 8c 80 3d 7a ce 9e bd 1d 48 fa 3c
       0.034145374 0.06276836 -0.07754226 0.030551964
000220 d8 98 d1 3b cc fc 6a bd c7 d0 e0 3c 19 11 5f bd
       0.006396394 -0.057369992 0.027443303 -0.054459665
000230 35 3f d7 3c d5 74 4c 3d 1b 54 0b 3d f0 0d f6 3a
       0.026275257 0.049916107 0.034015756 0.0018772464
000240 1a bc 48 3c c9 8c 1b 3d d6 98 1e bd 0d af 24 3d
       0.012251878 0.03797606 -0.038719974 0.040206004
000250 84 aa 71 3c 19 a8 16 bc e0 5c 06 3d b6 9b a9 bc
       0.014750127 -0.009195351 0.032803416 -0.020704132
000260 76 f9 80 bd 24 de ba 3d de 23 ca 3c 4b 2f fa bc
       -0.06297581 0.09124401 0.024675306 -0.03054013
000270 2b c0 87 bc 22 d5 be 3c fd 09 61 bd 5b 6c 97 bc
       -0.016571125 0.023294989 -0.054941166 -0.018484285
000280 a2 6f 82 bc 85 bb 8d 3d 8b 34 16 bd 78 b3 9f 3b
       -0.015922371 0.06920532 -0.036671203 0.0048736893
000290 77 05 58 bc 0a 3d 8d 3d 5d 5a 23 3d c2 a4 11 3d
       -0.013184897 0.06896408 0.0398811 0.035557516
0002a0 9b b4 d7 3c 14 bd 9e bd b6 9a b6 bc 4f 69 05 bc
       0.026331237 -0.077509075 -0.022290569 -0.008142783
0002b0 4e 11 eb bc 78 3a aa ba cb d0 e9 bc 66 32 70 bd
       -0.028694775 -0.0012987396 -0.028541943 -0.058641814
0002c0 0b 5e 4f 3d 70 d5 23 bc 73 59 b9 3c 05 8a 6b 3d
       0.050626796 -0.009999618 0.02262566 0.057504673
0002d0 f0 9b 79 3d d1 a1 86 3d 2f 2b 98 bd 0e af 44 bd
       0.06093973 0.06573833 -0.074301116 -0.048018508
0002e0 03 72 c9 3c d8 bd b8 3d 94 e1 96 bd ca 30 85 bd
       0.024590498 0.09020585 -0.07367244 -0.065034464
0002f0 e9 c6 07 bd d7 b7 9f bd 5d 84 64 3d 65 c1 02 3d
       -0.03314868 -0.077987365 0.055790294 0.031922717
000300 53 15 49 3c 2f c8 80 3d 25 47 27 bd e7 b3 14 3d
       0.0122731505 0.06288182 -0.040839333 0.03630438
000310 c7 91 ad bc 58 3f 8f 3d 65 72 eb bb 1c 5c 00 bd
       -0.021187676 0.06994504 -0.0071852678 -0.031337842
000320 d5 96 80 3d ff ef 40 3c 54 53 79 3c 85 6a 05 3d
       0.06278769 0.0117759695 0.015217621 0.032572288
000330 ba b8 24 3c ff 40 bf 3b 73 26 a5 3d ba f7 a6 bd
       0.010053808 0.0058366056 0.08063974 -0.08152719
000340 2e da 23 bd a7 39 b8 bd 0b 38 1c 3d 64 b7 6f 3d
       -0.040002994 -0.08995371 0.038139384 0.058524504
000350 2e 1d 83 3a 32 26 98 bc 77 6f df 3c 1d bb 25 bd
       0.0010003203 -0.0185729 0.02727483 -0.04046165
000360 b7 fe 9b bc 4c 4a 90 3d 1b 05 b3 bd c8 4c fd bc
       -0.019042356 0.07045421 -0.08741208 -0.030920401
000370 a5 91 80 3d a4 8a a2 bd 8d d0 58 bb b6 97 1c 3d
       0.062777795 -0.079366 -0.003308329 0.03823062
000380 dd 77 0d 3d f5 98 4d 3d 73 31 d1 bc 55 fc 89 3d
       0.03453814 0.0501947 -0.025536275 0.06737582
000390 ef 1c 61 bd 20 02 8c bd ba 9e 2e bd c4 e5 30 bd
       -0.054959234 -0.06836343 -0.042631842 -0.04318787
0003a0 39 15 9d bb 75 7b 75 bd 1d 7d df bc 0f 06 ae 3c
       -0.0047937897 -0.05993219 -0.027281338 0.021243123
0003b0 ad 45 ac bd 6d f8 90 3c e6 fc b6 3d dc 5e 94 bd
       -0.08411727 0.017696584 0.08934955 -0.072446555
0003c0 f4 98 a5 bb e7 4c c4 3c 42 0b 93 3c e7 c7 36 3d
       -0.005053634 0.023962451 0.017949704 0.044624235
0003d0 f0 a7 37 3c 8f 35 95 bd 8a 09 a3 3d c6 23 11 3d
       0.011209473 -0.07285606 0.07960804 0.035434507
0003e0 04 1d 54 bd 0f 52 97 bd 8c da 32 3d d8 1f 8c bc
       -0.051785484 -0.07388698 0.043665454 -0.017105028
0003f0 c6 5e af bd 37 a0 78 3d 08 60 c8 bb 5a cf 60 3c
       -0.085629985 0.060699668 -0.0061149634 0.013721311
