Weights/DQNAAPL.pth (torch, 330479 bytes, 18 tensors)

rnn1.weight_ih_l0 f4 [128, 32]
0.21279936 0.21046929 0.22699454 0.29427725 0.20037362 0.18309331 0.27921188 0.28758764
0.20589308 0.15843545 0.18210888 0.24907534 0.30418062 0.27318424 0.27227148 0.26453984
0.20702915 0.29766873 0.19546734 0.1633582 0.3179521 0.32506037 0.14786704 0.3076012
0.17472532 0.21441005 0.17834742 0.16111152 0.15665768 0.2015712 0.23274307 0.297363
-0.112494886 -0.1738557 -0.2408319 -0.16154301 -0.16349636 -0.119566225 -0.21763931 -0.07829126
-0.18184395 -0.17645927 -0.1604683 -0.12582272 -0.13318479 -0.1698163 -0.15341313 -0.21204977
-0.16509463 -0.15988319 -0.21440858 -0.10264232 -0.15610263 -0.11702564 -0.17068152 -0.1888492
-0.114549704 -0.19439694 -0.15567471 -0.16658407 -0.1621525 -0.21231902 -0.04011939 -0.2319083
0.011596886 -0.07721494 -0.08045311 -0.0140605485 -0.014861887 -0.09812125 0.056665543 0.04986732
-0.064097755 -0.10813948 -0.09538401 -0.106615305 -0.06940653 -0.10532405 -0.033215467 -0.10481916
0.05808457 -0.003914087 -0.06740809 0.026367519 -0.032452114 0.07224483 -0.003062544 -0.09117339
-0.026303958 -0.10952822 0.017296283 -0.10709745 -0.12633604 -0.08959697 0.09815095 -0.15428738
0.02115523 -0.0021964824 -0.0044426783 -0.04052707 0.03717646 -0.023688579 -0.036600284 -0.011959496
0.09396744 0.009096123 0.109116405 0.03059429 -0.049989264 0.030516343 0.030586608 0.04564604
-0.017711207 0.031939507 0.10602025 0.048643317 0.068400554 0.05399752 -0.0045724944 -0.07755426
0.038683824 -0.026598139 -0.05704178 0.02449263 -0.06978723 0.06487785 0.06931675 -0.07360963
-0.19889851 -0.17603551 -0.24229054 -0.18811688 -0.057168607 -0.14894669 -0.2530507 -0.1317305
-0.19474703 -0.11634546 -0.25665233 -0.12777863 -0.16249277 -0.13491254 -0.26637134 -0.12549156
-0.13089822 -0.08738578 -0.2000175 -0.16711292 -0.21760844 -0.122683786 -0.24670117 -0.11038278
-0.26010877 -0.27714217 -0.28420222 -0.27781048 -0.2816439 -0.17872334 -0.04999337 -0.088899
0.023202673 0.10112106 0.12419871 0.061221026 -0.06891486 0.12397671 0.1324984 -0.029157724
-0.005463417 -0.0057362756 0.093853936 0.05226034 0.13339752 0.07322132 -0.013404496 0.09926295
0.050477367 0.007443351 -0.0292885 0.02525297 0.054868963 -0.08591754 0.0638602 0.00046856966
0.080655195 0.061091535 0.047714464 0.085079886 0.08983245 -0.02685266 0.034139164 0.007307223
-0.058800943 0.027736584 -0.017606627 -0.0071235322 0.012885895 -0.034595978 0.083123736 -0.0789294
-0.007846648 0.01127724 0.00069740845 -0.049484286 -0.011940438 0.053190373 -0.046398234 0.06460314
0.068212375 0.056225028 -0.02809473 -0.044213966 0.08283103 0.07085796 -0.025978988 -0.008480999
0.02298382 0.07634596 0.009150826 0.04261237 0.04872369 0.004044527 -0.061141744 0.061309382
0.026888119 0.032258365 0.009360932 -0.13256414 0.0019016098 -0.0021877228 -0.08611274 -0.09631861
3.1023686e-05 -0.087953776 0.016453968 -0.013659209 -0.06449414 -0.019601703 -0.13296027 0.012884674
-0.10512672 0.0150569705 -0.023564072 -0.030085031 -0.041915625 0.002067385 0.09139807 0.028789734
-0.10319448 0.036884427 0.017272016 -0.11712431 -0.10654238 -0.05441059 -0.01810256 -0.08363371
00000000: 13e8 593e 4385 573e 4271 683e 82ab 963e
00000010: be2e 4d3e d07c 3b3e dcf4 8e3e b03e 933e
00000020: a3d5 523e e73c 223e c07a 3a3e 9b0d 7f3e
00000030: 90bd 9b3e cede 8b3e 2b67 8b3e c471 873e
00000040: 73ff 533e 0968 983e 9728 483e 5f47 273e
00000050: 9eca a23e 506e a63e 756a 173e e87d 9d3e
00000060: 32eb 323e 4f8e 5b3e b5a0 363e 6bfa 243e
00000070: df6a 203e ae68 4e3e 3354 6e3e f73f 983e
00000080: b863 e6bd 3b07 32be a39c 76be 886b 25be
00000090: 976b 27be 23df f4bd d7dc 5ebe 2b57 a0bd
000000a0: 4d35 3abe bdb1 34be cd51 24be acd7 00be
000000b0: 9861 08be 53e4 2dbe 5518 1dbe 9323 59be
000000c0: 910e 29be 6bb8 23be ec8d 5bbe 2336 d2bd
000000d0: 5ed9 1fbe 24ab efbd 23c7 2ebe af61 41be
000000e0: 0999 eabd fe0f 47be 3169 1fbe 0495 2abe
000000f0: 4e0b 26be 286a 59be 3b54 24bd 5f79 6dbe
00000100: de00 3e3c de22 9ebd 9ac4 a4bd 375e 66bc
00000110: 467f 73bc cbf3 c8bd 211a 683d ad41 4c3d
00000120: af45 83bd 3b78 ddbd b158 c3bd 2059 dabd
00000130: 0325 8ebd 23b4 d7bd f10c 08bd 6eab d6bd
00000140: 16ea 6d3d be41 80bb 410d 8abd b200 d83c
00000150: 82ec 04bd 19f5 933d f6b4 48bb 1db9 babd
00000160: 667b d7bc 5550 e0bd efb0 8d3c e855 dbbd
00000170: 3c5e 01be 9e7e b7bd 5e03 c93d 83fd 1dbe
00000180: bc4d ad3c dcf2 0fbb e393 91bb b7ff 25bd
00000190: 5846 183d 8d0e c2bc 2eea 15bd c3f1 43bc
000001a0: 0072 c03d e807 153c 6c78 df3d e0a0 fa3c
000001b0: 8bc1 4cbd 69fd f93c c490 fa3c 58f7 3a3d
000001c0: 1817 91bc 00d3 023d 2521 d93d 373e 473d
000001d0: 9715 8c3d 812c 5d3d ddd4 95bb c5d4 9ebd
000001e0: ee72 1e3d 57e4 d9bc a4a4 69bd c5a4 c83c
000001f0: 9bec 8ebd aede 843d f1f5 8d3d a5c0 96bd
00000200: 0dac 4bbe a742 34be 031b 78be b6a1 40be
00000210: a129 6abd 7b85 18be dd8f 81be 5ce4 06be
00000220: c46b 47be 8746 eebd ef67 83be 67d8 02be
00000230: 8164 26be 8326 0abe d361 88be dc80 00be
00000240: 2f0a 06be 51f7 b2bd 63d1 4cbe a61f 2bbe
00000250: bfd4 5ebe a341 fbbd 3b9f 7cbe 5e10 e2bd
00000260: fa2c 85be 94e5 8dbe f482 91be 2d3d 8ebe
00000270: a133 90be 4003 37be d9c5 4cbd ae10 b6bd
00000280: 8813 be3c 8f18 cf3d e55b fe3d e6c2 7a3d
00000290: 3c23 8dbd 80e7 fd3d a9ad 073e 2edc eebc
000002a0: 7706 b3bb 5ef7 bbbb 7e36 c03d f00e 563d
000002b0: 5c99 083e 0ff5 953d 889e 5bbc 604a cb3d
000002c0: 5bc1 4e3d 5be7 f33b 70ee efbc 51df ce3c
000002d0: 47be 603d 89f5 afbd 23c9 823d 5baa f539
000002e0: 8d2e a53d 1e3b 7a3d 3e70 433d 5d3e ae3d
000002f0: 13fa b73d 1cfa dbbc 82d5 0b3d 6e71 ef3b
00000300: 42d9 70bd d537 e33c c63b 90bc 856c e9bb
00000310: 5c1f 533c 83b4 0dbd c73c aa3d bda5 a1bd
00000320: 3a8f 00bc 2cc4 383c 4ad2 363a 09b0 4abd
00000330: d4a1 43bc 26de 593d 130c 3ebd a74e 843d
00000340: eeb2 8b3d 374c 663d eb26 e6bc b419 35bd
00000350: 51a3 a93d fa1d 913d e3d1 d4bc e3f3 0abc
00000360: 9048 bc3c 455b 9c3d 59ed 153c 4f8a 2e3d
00000370: 7e92 473d f487 843b c46f 7abd 8c1f 7b3d
00000380: 7944 dc3c 5921 043d 985e 193c e5be 07be
00000390: 703f f93a e65f 0fbb e05b b0bd b142 c5bd
000003a0: 6e1f 0238 1c21 b4bd 79ca 863c e0ca 5fbc
000003b0: 8115 84bd c093 a0bc bd26 08be 3d1a 533c
000003c0: ae4c d7bd 83b1 763c 7109 c1bc e274 f6bc
000003d0: b8af 2bbd f77c 073b e92e bb3d 73d8 eb3c
000003e0: a157 d3bd 2014 173d 0b7e 8d3c dfde efbd
000003f0: e432 dabd a4dd 5ebd d24b 94bc 2748 abbd

rnn1.weight_hh_l0 f4 [128, 128]
-0.16870184 0.107259 0.041413303 0.019749649 -0.10048122 0.101095505 -0.041099727 -0.19383228
0.031505086 0.1250594 -0.0797855 0.010032192 -0.0939869 0.0119095165 -0.1388884 0.032029174
0.055527203 -0.10049389 0.0040646084 -0.062428538 -0.003296525 -0.10239701 -0.029138505 0.14143722
0.055156592 -0.11671518 -0.0688017 0.002178109 -0.016947867 0.061420914 -0.14143452 -0.08921974
0.007012671 -0.07408142 0.06395669 -0.15414742 0.03991431 0.06458121 0.0127437115 -0.060290094
0.009755679 0.05769046 -0.009912673 0.08366365 0.027079105 -0.11367434 0.022966946 0.11521475
-0.091825165 -0.059004568 0.04648878 -0.13407345 0.029609006 0.15472232 -0.035382386 0.0077119432
0.002615093 0.11408439 0.00036257767 -0.088368684 0.0070067993 -0.12162568 -0.0437203 -0.025604205
0.011585502 0.09303814 0.07932071 -0.012652189 0.13657571 0.01452881 0.22003588 -0.08789947
-0.053129748 -0.113037445 0.11724184 -0.046642523 0.12057831 -0.022347381 -0.025793644 -0.08973769
0.13480541 -0.11200765 0.13071567 0.09503341 0.028967137 -0.020301957 0.027378755 -0.028901849
0.110748075 0.028672798 0.024780512 -0.014010845 0.033289563 -0.0018634204 0.087046914 -0.07140592
-0.01861141 -0.03825436 0.0062338975 0.08380621 0.16923127 -0.050011557 -0.113036506 0.07154167
0.13995175 -0.10568502 -0.12329348 0.010026813 -0.045389213 0.0074112066 -0.104402505 0.054828484
0.17179303 0.04105433 -0.0846411 0.18840998 -0.08341382 -0.06305407 -0.030884903 -0.015316726
0.07173912 -0.028462183 0.03758996 -0.0061002793 0.12736681 -0.014987902 0.027577756 -0.11792537
-0.018989967 -0.16399236 -0.14373161 -0.06585298 -0.13837162 -0.06698701 0.1009821 -0.06986107
0.011305744 0.044909187 -0.12206136 -0.22028412 -0.12872504 0.037464514 -0.110661894 0.15030941
0.09797207 -0.0011170778 -0.16134563 -0.10041446 0.10664523 -0.0579249 0.08248844 0.046050224
-0.039319903 -0.08496998 -0.037205376 0.095407024 0.0026721868 -0.03050415 -0.031948272 0.108708486
-0.072967775 0.008937499 0.09750929 -0.09223663 -0.07670761 0.019765105 0.0889325 -0.05014297
-0.13236867 -0.09568793 -0.24861732 -0.1260937 0.22647429 -0.20404321 -0.017041747 -0.047679834
-0.21915293 -0.2523635 -0.013777803 -0.06564772 0.03331909 -0.00507622 0.00892144 -0.022704415
-0.08536246 0.10511026 0.031835027 -0.08516188 0.06503626 0.04375356 -0.21600723 -0.033289727
0.03093538 0.09123045 0.21251993 -0.0464754 0.028725853 -0.028844599 0.09120334 -0.14289977
-0.090806775 -0.09034169 0.052137226 -0.11578875 0.08691592 0.06549433 0.11337812 -0.112350434
0.14637421 -0.060526982 0.021899555 0.07558952 0.015274794 0.085246995 -0.11307271 0.019911122
0.04764113 -0.08996696 -0.0987354 -0.21980849 0.11370193 0.04312918 0.066652454 -0.05846273
-0.14129555 0.03935723 -0.08255233 0.083964646 -0.12517367 -0.04695959 0.03491002 -0.007512856
0.116347805 -0.10101467 0.057060827 0.05767181 -0.18716255 -0.06419666 0.015142117 -0.1086435
0.06760783 0.011578147 -0.062201872 0.2037978 -0.11498095 -0.09111064 -0.064578466 0.060573023
0.11725157 0.013038494 -0.054876436 0.09695648 -0.10121064 -0.14370604 -0.14888436 0.044239026
00000000: 2dc0 2cbe 9baa db3d ffa0 293d 04ca a13c
00000010: 19c9 cdbd 290b cf3d 3058 28bd f87b 46be
00000020: 7a0b 013d 920f 003e 9566 a3bd 105e 243c
00000030: 347c c0bd 2220 433c c338 0ebe 0631 033d
00000040: 7e70 633d becf cdbd 6830 853b 11b5 7fbd
00000050: 830a 58bb 86b5 d1bd e0b3 eebc ebd4 103e
00000060: e1eb 613d 5e08 efbd e8e7 8cbd 9bbe 0e3b
00000070: 41d6 8abc 7f94 7b3d 36d4 10be d7b8 b6bd
00000080: 8cca e53b 00b8 97bd bafb 823d d2d8 1dbe
00000090: 307d 233d 2743 843d 00cb 503c bff2 76bd
000000a0: 49d6 1f3c d54c 6c3d c468 22bc d957 ab3d
000000b0: 00d5 dd3c 18ce e8bd 2d25 bc3c b6f5 eb3d
000000c0: d50e bcbd c6ae 71bd 056b 3e3d 8d4a 09be
000000d0: 968e f23c 876f 1e3e 1fed 10bd 78b4 fc3b
000000e0: fb61 2b3b 14a5 e93d 5a18 be39 a4fa b4bd
000000f0: 4b99 e53b e216 f9bd 0f14 33bd e9bf d1bc
00000100: 1ed1 3d3c c88a be3d e572 a23d 204b 4fbc
00000110: 81da 0b3e 3f0a 6e3c 1651 613e a304 b4bd
00000120: 949e 59bd 2d80 e7bd 7d1c f03d 3b0c 3fbd
00000130: c3f1 f63d db11 b7bc 314d d3bc 65c8 b7bd
00000140: 6e0a 0a3e 4464 e5bd 54da 053e e0a0 c23d
00000150: 7d4c ed3c 4a50 a6bc 6949 e03c 92c3 ecbc
00000160: e3cf e23d 37e3 ea3c 8000 cb3c be8d 65bc
00000170: a35a 083d 033e f4ba a745 b23d 443d 92bd
00000180: f576 98bc 9bb0 1cbd b945 cc3b 97a2 ab3d
00000190: f64a 2d3e ebd8 4cbd af7f e7bd 7084 923d
000001a0: 834f 0f3e 6371 d8bd 4b81 fcbd 8047 243c
000001b0: 0aea 39bd b5d9 f23b fbd0 d5bd d593 603d
000001c0: 83ea 2f3e 9628 283d 5058 adbd 8cee 403e
000001d0: ddd4 aabd 7e22 81bd 5602 fdbc 01f3 7abc
000001e0: f6eb 923d 8629 e9bc eef7 193d dae4 c7bb
000001f0: 726c 023e d18f 75bc bfea e13c db82 f1bd
00000200: d990 9bbc 9ded 27be 612e 13be eddd 86bd
00000210: 4ab1 0dbe 7c30 89bd b4cf ce3d 5213 8fbd
00000220: ba3b 393c b2f2 373d 4efb f9bd 2992 61be
00000230: 7fd0 03be 6474 193d b4a2 e2bd b6ea 193e
00000240: 95a5 c83d e96a 92ba ca37 25be 19a6 cdbd
00000250: d068 da3d a942 6dbd b3ef a83d 299f 3c3d
00000260: e80d 21bd be04 aebd aa64 18bd c264 c33d
00000270: db1f 2f3b d7e3 f9bc 31dc 02bd 8ea2 de3d
00000280: 2170 95bd 966e 123c f3b2 c73d 8fe6 bcbd
00000290: e118 9dbd 6eea a13c 3e22 b63d b762 4dbd
000002a0: a78b 07be 09f8 c3bd 8a95 7ebe b51e 01be
000002b0: e0e8 673e b4f0 50be 229b 8bbc ee4b 43bd
000002c0: a069 60be ca35 81be 4bbc 61bc 5072 86bd
000002d0: 9979 083d 6b56 a6bb 3b2b 123c 9cfe b9bc
000002e0: 83d2 aebd 0c44 d73d 7265 023d 5a69 aebd
000002f0: bb31 853d ef36 333d 0031 5dbe cf5a 08bd
00000300: 326c fd3c 08d7 ba3d d39e 593e fd5c 3ebd
00000310: 7b52 eb3c 824b ecbc d1c8 ba3d 5154 12be
00000320: e7f8 b9bd 1005 b9bd d88d 553d a722 edbd
00000330: f900 b23d e421 863d ca32 e83d fc17 e6bd
00000340: 1fe3 153e 24eb 77bd b266 b33c aece 9a3d
00000350: 2143 7a3c fa95 ae3d aa92 e7bd a61c a33c
00000360: 5823 433d 9940 b8bd c935 cabd 7a15 61be
00000370: 8fdc e83d 39a8 303d 1581 883d 9e76 6fbd
00000380: c8af 10be 0c35 213d 3211 a9bd a8f5 ab3d
00000390: 872d 00be b358 40bd cffd 0e3d 672e f6bb
000003a0: c247 ee3d c8e0 cebd 9db8 693d 4739 6c3d
000003b0: 8aa7 3fbe 8a79 83bd a416 783c 7c80 debd
000003c0: f975 8a3d 45b2 3d3c 64c7 7ebd 5fb0 503e
000003d0: 227b ebbd 3798 babd b741 84bd 6b1b 783d
000003e0: 9721 f03d 689f 553c 1dc6 60bd 1e91 c63d
000003f0: 8647 cfbd ad27 13be 2475 18be fb33 353d

rnn1.bias_ih_l0 f4 [128]
0.3253838 -0.13785401 -0.0020171744 0.041037217 -0.13512976 0.13155735 0.008030359 -0.097228326
-0.09581686 0.08343429 0.003347438 -0.15130775 -0.07850349 0.1501468 -0.10363056 -0.025319356
0.06690959 -0.07088375 -0.11377636 0.07229894 0.057277348 0.07401078 -0.0034969542 0.038512334
-0.08127579 -0.020877056 0.17820689 -0.15637682 0.0559971 -0.0024520848 0.011044478 0.08196221
0.07723363 0.0004281331 -0.022108162 -0.118476816 0.043365054 0.15438302 -0.06030791 -0.0732938
0.005995907 -0.10496981 0.017142558 -0.08268047 0.0540642 -0.044853203 0.029317131 0.1353203
-0.04995935 0.057752322 -0.0049654813 -0.0007793053 -0.10159237 0.010456341 0.14346315 -0.06988105
-0.006417517 -0.02238727 -0.02748508 -0.041369252 0.17720559 0.00011673669 -0.0353871 -0.0981478
0.022778066 0.01747236 -0.10109826 0.05060355 0.09961956 0.07831274 -0.11019099 -0.042101398
-0.008993926 -0.09776566 0.1006506 -0.11335466 0.03735303 0.063179836 0.07626765 -0.15150975
0.013114098 -0.07694616 0.043610096 0.11119594 0.04522045 -0.002190341 -0.034937117 0.16823757
0.09642381 -0.0071931244 -0.25765732 -0.11753818 -0.08249182 -0.07052947 -0.016085349 0.02202811
-0.011778883 -0.06867651 0.041664988 -0.09556336 0.07684816 -0.008147344 -0.054221887 0.0248886
0.00580923 -0.047634512 0.03532694 0.055183273 0.02373173 0.0401594 -0.040592015 -0.012282676
-0.06185207 0.06469269 -0.08110567 0.1008807 0.057303533 0.05879085 -0.057732765 0.06426566
-0.070936635 -0.017111812 0.08963485 -0.013303215 0.08310001 -0.22384134 -0.00388851 -0.018995734
00000000: b598 a63e 9a29 0dbe 9232 04bb a416 283d
00000010: 755f 0abe f8b6 063e c491 033c a51f c7bd
00000020: a13b c4bd 99df aa3d b160 5b3b 6bf0 1abe
00000030: 70c6 a0bd 15c0 193e 423c d4bd 8a6a cfbc
00000040: e507 893d 802b 91bd 9503 e9bd 7711 943d
00000050: a79b 6a3d f792 973d 282d 65bb 1cbf 1d3d
00000060: ec73 a6bd 5c06 abbc de7b 363e 3f21 20be
00000070: 375d 653d 28b3 20bb e6f3 343c cedb a73d
00000080: aa2c 9e3d 0d77 e039 2d1c b5bc f9a3 f2bd
00000090: 8e9f 313d 9516 1e3e 6d05 77bd 0f1b 96bd
000000a0: 5079 c43b 69fa d6bd 8d6e 8c3c 6154 a9bd
000000b0: 6c72 5d3d feb7 37bd 7b2a f03c 6891 0a3e
000000c0: 2da2 4cbd b38d 6c3d 7ab5 a2bb 4b4a 4cba
000000d0: a90f d0bd 1351 2b3c 01e8 123e cc1d 8fbd
000000e0: 094a d2bb 8265 b7bc 6428 e1bc ce72 29bd
000000f0: 6275 353e 89d0 f438 10f2 10bd b701 c9bd
00000100: 1199 ba3c 3222 8f3c 9b0c cfbd ab45 4f3d
00000110: 5705 cc3d 6e62 a03d d0ab e1bd 8472 2cbd
00000120: 435b 13bc 5d39 c8bd e721 ce3d 7d26 e8bd
00000130: 7eff 183d 6e64 813d 3732 9c3d 5f25 1bbe
00000140: 84dc 563c f395 9dbd 80a0 323d b2ba e33d
00000150: 1439 393d d38b 0fbb 391a 0fbd 7846 2c3e
00000160: d979 c53d 4db4 ebbb a9eb 83be dbb7 f0bd
00000170: 79f1 a8bd c171 90bd 6cc5 83bc 4c74 b43c
00000180: 37fc 40bc 45a6 8cbd e8a8 2a3d b9b6 c3bd
00000190: 9162 9d3d 707c 05bc c517 5ebd 2de3 cb3c
000001a0: 5a5b be3b 681c 43bd fbb2 103d db07 623d
000001b0: 0c69 c23c 2f7e 243d d043 26bd 473d 49bc
000001c0: 9958 7dbd 9a7d 843d bb1a a6bd 8a9a ce3d
000001d0: 1cb7 6a3d adce 703d 3179 6cbd b79d 833d
000001e0: 3a47 91bd 122e 8cbc 7a92 b73d baf5 59bc
000001f0: 5730 aa3d aa36 65be 5fd6 7ebb f19c 9bbc

rnn1.bias_hh_l0 f4 [128]
0.22515827 -0.12092767 -0.09931029 -0.0027133487 -0.11330217 -0.015091723 0.01556649 -0.1098362
-0.047340117 -0.016331352 -0.15492718 -0.13668294 -0.033401508 0.055263873 0.018960249 -0.02338132
0.016590271 -0.08802637 -0.048640512 0.07236553 0.015611505 -0.025489252 -0.031288214 0.070389375
-0.03038864 0.074769884 0.09072816 -0.054530177 -0.010839089 0.024218613 -0.0072816033 0.116541244
0.00019480471 -0.09755333 -0.0075170468 0.039231192 0.04916312 0.23827708 0.047772203 0.021229964
-0.115983225 -0.19056663 0.037485823 -0.0530248 -0.026017323 -0.09139862 -0.09712561 0.047444515
0.029560057 -0.054797113 0.10927823 0.07139082 0.0009278975 0.019512868 0.17034702 -0.06680155
-0.07884224 0.030005574 -0.005794601 -0.07585015 0.16407414 0.01824019 -0.051593762 -0.0064963945
0.09564012 0.11833083 -0.024492094 -0.024329558 0.18342286 -0.06882663 -0.1448796 0.042245094
-0.027147602 -0.068155944 0.053806677 -0.019644504 0.06373775 -0.046529725 0.062420234 -0.04973519
0.051380023 0.020321567 0.12883797 -0.00263117 0.05209281 0.08873051 0.06710922 0.03093788
0.098303966 0.015497993 -0.12718715 -0.04688418 -0.007732065 0.0017684889 -0.031215006 -0.101347774
-0.10439152 -0.02981022 -0.08553483 -0.056163866 0.035432063 -0.082474716 -0.024990605 0.01625726
0.043245133 -0.028498007 0.08819869 0.050664406 0.15619414 0.051554672 -0.006279465 0.039404638
0.020950915 0.03105495 -0.0051628565 0.079229675 0.045495003 0.034922417 0.08063394 -0.07773276
-0.10306341 -0.13609731 0.0891098 0.11643085 0.0024585025 -0.20877376 -0.043523185 0.047890205
00000000: e48f 663e eda8 f7bd 3163 cbbd 70d2 31bb
00000010: f80a e8bd 4643 77bc 970a 7f3c cdf1 e0bd
00000020: b6e7 41bd 54c9 85bc 3ba5 1ebe 9df6 0bbe
00000030: 05d0 08bd 5f5c 623d 8652 9b3c 2f8a bfbc
00000040: 52e8 873c 2b47 b4bd 463b 47bd 6134 943d
00000050: 66c7 7f3c d6ce d0bc 1228 00bd 4e28 903d
00000060: 99f1 f8bc f420 993d b0cf b93d 095b 5fbd
00000070: 6f96 31bc 1d66 c63c 849a eebb 2dad ee3d
00000080: 7e44 4c39 0aca c7bd 8f51 f6bb e3b0 203d
00000090: 455f 493d e8fe 733e c9ac 433d 76ea ad3c
000000a0: 9d88 edbd e623 43be bc8a 193d 8830 59bd
000000b0: 4822 d5bc 332f bbbd cbe9 c6bd 2e55 423d
000000c0: ef27 f23c f072 60bd 44cd df3d 5a35 923d
000000d0: 263e 733a 73d9 9f3c 736f 2e3e 40cf 88bd
000000e0: 0a78 a1bd 40ce f53c a3e0 bdbb 5357 9bbd
000000f0: 0d03 283e 736c 953c fb53 53bd b5df d4bb
00000100: f8de c33d 6f57 f23d a5a3 c8bc c84e c7bc
00000110: 34d3 3b3e faf4 8cbd 515b 14be 3109 2d3d
00000120: a664 debc 5895 8bbd 6464 5c3d 83ed a0bc
00000130: f088 823d f495 3ebd 5cac 7f3d 20b7 4bbd
00000140: dc73 523d 6a79 a63c 1aee 033e b56f 2cbb
00000150: 455f 553d 57b8 b53d 8f70 893d 7071 fd3c
00000160: 9753 c93d 4beb 7d3c 593d 02be a009 40bd
00000170: 435d fdbb a4cc e73a 9db6 ffbc 6c8f cfbd
00000180: 39cb d5bd 9034 f4bc e32c afbd 150c 66bd
00000190: 3621 113d 81e8 a8bd 19b9 ccbc f22d 853c
000001a0: cf21 313d a774 e9bc 84a1 b43d 7b85 4f3d
000001b0: 5bf1 1f3e fe2a 533d f8c3 cdbb c266 213d
000001c0: 41a1 ab3c f366 fe3c 2e2d a9bb 2b43 a23d
000001d0: f858 3a3d cf0a 0f3d 6823 a53d 5a32 9fbd
000001e0: e912 d3bd 185d 0bbe 337f b63d 4c73 ee3d
000001f0: d41e 213b cac8 55be 5e45 32bd 8528 443d

rnn2.weight_ih_l0 f4 [128, 128]
-0.12863961 0.035496876 -0.14843126 0.015443454 0.03604793 -0.069762066 0.031931836 0.040818788
-0.0377268 -0.0021200846 0.16567321 -0.072478585 -0.025937526 0.07349258 -0.1129207 0.15556328
0.007366804 -0.09835618 -0.07826201 0.025698075 0.052072473 -0.00027613644 -0.032940645 0.098190814
0.080672115 -0.021979831 0.0941408 0.06396604 0.049142554 0.02877241 0.035392806 0.053676344
-0.083009616 -0.014823314 0.13170686 0.02178273 0.19132881 0.015402137 -0.050793182 0.01660841
0.109220065 0.0019835145 -0.10806379 0.09400472 -0.046588615 -0.047080293 0.036563013 -0.106717736
0.045504045 0.015626436 0.09573964 -0.10690545 0.096325934 0.03322314 0.061114784 -0.06442693
-0.080295525 0.08705269 0.09930239 0.07197294 0.12891991 -0.031616222 0.05018475 -0.0984084
0.08633655 0.08317496 -0.12753236 0.024019977 -0.014202109 0.007688205 0.09287511 -0.030294567
0.031350587 0.043924592 0.009464494 0.09099566 0.06709831 -0.12313409 0.08917298 0.1161408
-0.12388593 0.1234629 -0.08575626 -0.079755284 -0.0073835626 -0.085499346 -0.047297657 0.1334159
-0.04615767 -0.08366839 0.034677673 -0.12119802 -0.21951635 -0.016992886 0.07232018 -0.06979795
0.009549266 0.061883003 0.046557277 0.15692347 -0.11432416 -0.12921372 0.059861884 0.096059985
-0.02335542 -0.051793195 0.06821916 -0.16542193 0.0937957 -0.0030535774 -0.16018018 -0.051055253
0.062103387 0.1175091 -0.037921883 0.027729074 0.05396975 0.016795222 0.094122395 -0.16857114
-0.0770724 -0.002364546 0.04327389 0.0072381184 -0.037039526 -0.043233342 0.003623668 0.03793577
0.0617397 -0.3387225 -0.27614474 -0.1967285 -0.14685103 0.02643409 0.0498697 0.014761377
-0.10340872 0.066682965 -0.04137617 -0.06413153 -0.20154591 0.022616798 -0.13369025 -0.09817933
0.108645305 -0.18722093 -0.19973423 -0.13317508 0.32627612 0.11677046 0.3446679 0.010392023
0.212733 -0.2436855 0.19924235 -0.2870468 -0.14797008 0.0076333196 -0.003077995 0.02208422
-0.10671612 -0.14494601 -0.14956145 0.0072710733 -0.103020996 0.07744943 0.069187015 -0.007524555
-0.18819252 -0.27250293 -0.117010474 -0.21735618 0.17252217 -0.22205567 -0.17408074 0.15685816
-0.17351484 -0.11786056 -0.22905646 0.21772069 -0.117439054 -0.11620906 -0.16130592 0.31335118
0.010636489 0.13259436 0.18151583 -0.20011206 -0.017108534 0.046534784 -0.19455796 -0.28298703
-0.31574124 -0.38004997 -0.053826258 -0.055176675 0.31658182 -0.14502414 0.015286614 0.16758066
0.21493149 -0.19322087 0.28627822 -0.26800692 0.4369814 -0.274902 0.08933818 -0.2211766
0.23820677 -0.2517075 0.010968728 0.05615856 -0.077628136 0.28930914 0.042389657 0.10959134
0.26881668 -0.31159332 -0.16057086 -0.038232606 0.13501367 -0.18618914 0.14428039 0.26309752
-0.47873685 -0.11003416 0.12215773 -0.10556947 -0.023338947 0.17188095 0.35041896 -0.08237035
0.2951141 -0.33285704 0.16360368 0.30954733 -0.08185141 0.15760726 0.21582623 -0.29532138
-0.020888882 -0.012033011 -0.004602621 0.27878642 -0.21977712 -0.017848901 -0.20881885 0.3101637
0.048090156 -0.21188107 -0.15463926 0.24835686 -0.07677257 -0.023963854 -0.0439605 0.31857365
00000000: 1aba 03be 2c65 113d 5dfe 17be 8a06 7d3c
00000010: ffa6 133d 6adf 8ebd f5ca 023d 9a31 273d
00000020: 6b87 1abd 1ef1 0abb 3da6 293e a76f 94bd
00000030: ef7a d4bc 4783 963d f842 e7bd fb4b 1f3e
00000040: 3b65 f13b f76e c9bd d547 a0bd c584 d23c
00000050: f249 553d 68c6 90b9 c5ec 06bd 4418 c93d
00000060: 6c37 a53d 0c0f b4bc e4cc c03d a100 833d
00000070: b449 493d 1eb4 eb3c 0cf8 103d badb 5b3d
00000080: f200 aabd 7cdd 72bc 2ade 063e b271 b23c
00000090: b3eb 433e 3f59 7c3c 830c 50bd 5c0e 883c
000000a0: c5ae df3d dafd 013b 8c50 ddbd 8c85 c03d
000000b0: b4d3 3ebd 44d7 40bd 19c3 153d d48e dabd
000000c0: 7362 3a3d 0303 803c 2513 c43d 3ff1 dabd
000000d0: 8846 c53d fd14 083d 7f53 7a3d 44f2 83bd
000000e0: fb71 a4bd ae48 b23d 0d5f cb3d 8c66 933d
000000f0: 9503 043e 0380 01bd 868e 4d3d 588a c9bd
00000100: 38d1 b03d a257 aa3d d897 02be 8bc5 c43c
00000110: f6af 68bc 57ed fb3b 4e35 be3d 502c f8bc
00000120: 7969 003d 46ea 333d f710 1b3c ef5b ba3d
00000130: d76a 893d ba2d fcbd 53a0 b63d 3adb ed3d
00000140: e8b7 fdbd 1eda fc3d faa0 afbd bd56 a3bd
00000150: d0f1 f1bb 481a afbd 30bb 41bd 2d9e 083e
00000160: d30f 3dbd 555a abbd 2d0a 0e3d ab36 f8bd
00000170: e5c8 60be aa34 8bbc 9a1c 943d 3af2 8ebd
00000180: 8674 1c3c 0879 7d3d d8b2 3e3d 8cb0 203e
00000190: c922 eabd 9a50 04be bc31 753d 19bb c43d
000001a0: de53 bfbc 1a25 54bd 7db6 8b3d 5e64 29be
000001b0: f617 c03d 871e 48bb 4606 24be 501f 51bd
000001c0: 1f60 7e3d 9ca8 f03d fa53 1bbd 1528 e33c
000001d0: 620f 5d3d 2296 893c 3ec3 c03d ea9d 2cbe
000001e0: 22d8 9dbd 80f6 1abb f63f 313d bd2d ed3b
000001f0: c2b6 17bd 7215 31bd 107b 6d3b 8a62 1b3d
00000200: c5e2 7c3d 096d adbe d862 8dbe 3273 49be
00000210: 1e60 16be 4e8c d83c 2c44 4c3d b4d9 713c
00000220: f3c7 d3bd 1491 883d 0f7a 29bd 6457 83bd
00000230: 0d62 4ebe dd46 b93c 19e6 08be 3f12 c9bd
00000240: 6e81 de3d d8b6 3fbe 2187 4cbe 0c5f 08be
00000250: aa0d a73e 5a25 ef3d 5078 b03e 4e43 2a3c
00000260: aed6 593e b188 79be 3006 4c3e ccf7 92be
00000270: 7885 17be ed20 fa3b 30b8 49bb f7e9 b43c
00000280: fb8d dabd ba6c 14be a326 19be 2f42 ee3b
00000290: acfc d2bd cf9d 9e3d ecb1 8d3d 8b90 f6bb
000002a0: 8ab5 40be 8185 8bbe 30a3 efbd 9e92 5ebe
000002b0: a7a9 303e 9062 63be 3942 32be 6d9f 203e
000002c0: e0ad 31be e160 f1bd c78d 6abe 2cf2 5e3e
000002d0: e383 f0bd 04ff edbd 612d 25be 916f a03e
000002e0: ab44 2e3c d1c6 073e 49df 393e 2dea 4cbe
000002f0: 3227 8cbc 429b 3e3d 343a 47be ade3 90be
00000300: d6a8 a1be e995 c2be ec78 5cbd f000 62bd
00000310: 0317 a23e 3581 14be b574 7a3c 449a 2b3e
00000320: 0017 5c3e b1db 45be 0f93 923e 3438 89be
00000330: 07bc df3e f4bf 8cbe f0f6 b63d 1e7c 62be
00000340: 7aec 733e cedf 80be 2eb6 333c 8506 663d
00000350: 80fb 9ebd 5420 943e c7a0 2d3d 6d71 e03d
00000360: 57a2 893e 2989 9fbe b06c 24be cb99 1cbd
00000370: 0641 0a3e 5ea8 3ebe 3dbe 133e b8b4 863e
00000380: ff1c f5be 9759 e1bd d52d fa3d ce34 d8bd
00000390: 5231 bfbc 8f01 303e 1d6a b33e c9b1 a8bd
000003a0: 3219 973e 3d6c aabe b987 273e fd7c 9e3e
000003b0: b6a1 a7bd cc63 213e 8d01 5d3e 5d34 97be
000003c0: 291f abbc 1b26 45bc 95d1 96bb 18bd 8e3e
000003d0: 410d 61be dc37 92bc 9cd4 55be c7cd 9e3e
000003e0: 2ffa 443d 5af7 58be c159 1ebe 4351 7e3e
000003f0: f03a 9dbd d84f c4bc ed0f 34bd 161c a33e

rnn2.weight_hh_l0 f4 [128, 128]
0.12249211 -0.0050743297 -0.08443215 0.21913497 -0.21938369 0.08028829 -0.17842105 -0.120920695
-0.118997455 -0.09001935 -0.13324365 0.24216378 -0.040497694 -0.10415933 0.07887076 -0.12628514
-0.02146571 -0.20903528 -0.010999742 0.21417435 0.065445475 -0.17490521 -0.18051083 0.13228461
-0.16636142 -0.19718012 0.09186841 0.057533063 0.1373407 0.085707776 -0.2098794 -0.17010137
-0.16824776 -0.113511615 -0.18728866 0.034724135 0.14320982 0.20375256 -0.20197092 0.12565951
0.22021076 0.21719985 0.22713664 -0.102791734 -0.019531282 -0.19084325 0.109002285 -0.15023933
0.08415777 -0.19640571 0.081019014 -0.08484191 -0.19256179 0.21666239 -0.20663781 -0.017135799
-0.023232345 0.21042322 0.06862503 0.14635383 0.147008 0.042286046 0.06645534 0.16498902
-0.18874963 -0.12169953 0.08160223 -0.04841805 -0.12072471 0.06549785 0.1619389 -0.14711827
0.118818894 -0.059573215 0.20396325 -0.03681744 -0.07715154 -0.08259827 0.06861787 0.20782173
0.06796647 0.12795143 -0.09590902 -0.14406858 -0.17887866 -0.06394103 -0.15110579 0.006142447
0.16871592 0.2355295 -0.08139388 0.020736769 0.046459086 0.20707743 -0.17047368 0.17133377
0.15382211 0.04221831 0.068861894 0.01092503 0.096492976 0.10980127 0.13438268 0.16953227
-0.08106025 -0.19613436 0.100655034 0.030080618 0.025420584 -0.15738516 0.05766651 -0.14564268
-0.11722657 0.10982243 -0.045928385 0.14412393 -0.13291459 -0.09451743 0.2253156 -0.21515062
-0.14843577 0.13504493 -0.0636808 -0.007459813 0.09155711 -0.17736588 -0.12504107 0.108540915
-0.02673807 -0.15095434 0.09558003 0.02970816 -0.0075496174 0.08318811 -0.14556663 -0.1046025
-0.09097737 0.0112836445 0.20454875 -0.055293612 -0.049625427 -0.12183321 -0.00405232 0.050896578
0.06651955 -0.11598149 0.0443888 0.075929314 0.08555995 -0.030142894 -0.083361484 0.031204753
-0.021208098 -0.06543817 0.04128433 -0.0047654556 0.019655105 -0.14483844 -0.057390664 -0.1046642
-0.09556731 -0.014283108 0.08028524 0.04466404 0.05398498 0.023258554 -0.15280133 0.18822049
0.05776303 0.16966744 0.041979775 0.025749676 0.094819345 -0.0061299093 0.22241518 -0.02993352
0.08953988 -0.13681428 0.024559624 -0.00583032 -0.089642845 -0.00921402 -0.07231671 -0.0987652
0.11893616 0.3471128 0.020755619 0.11436873 0.030859191 0.110319905 0.029103823 -0.05419766
-0.027842311 -0.0895325 0.09842862 0.04159163 -0.042734254 -0.17563973 0.0591325 0.021787887
-0.016537018 -0.019534644 0.020181466 0.058240674 0.005840364 0.03870047 0.06141434 0.02301354
0.09444775 0.06177111 -0.06334544 -0.08447684 -0.11419093 0.2217178 -0.07367491 -0.0038211222
0.105202846 0.026087275 -0.03754246 0.024380492 -0.074656226 0.05806364 -0.16502534 -0.07199121
0.08174768 -0.15237772 0.03212693 -0.2770561 -0.022390854 0.056688253 -0.08321278 0.024154946
-0.10748314 -0.027586812 0.2694148 0.21215035 0.105479784 -0.1443489 -0.049774054 -0.1873314
-0.07289876 -0.07825802 -0.063526124 0.033941563 -0.014999936 0.024089484 0.14614867 -0.042626493
-0.09557916 0.09609893 0.13301201 0.18608736 -0.027943948 0.024285078 -0.0023229981 0.09700888
00000000: 25dd fa3d 9046 a6bb c3ea acbd eb64 603e
00000010: 1ea6 60be 306e a43d 02b4 36be 45a5 f7bd
00000020: f0b4 f3bd 115c b8bd 0671 08be c8f9 773e
00000030: e9e0 25bd 7d51 d5bd fe86 a13d e450 01be
00000040: dbd8 afbc 580d 56be 4338 34bc 8550 5b3e
00000050: 4708 863d 5a1a 33be d5d7 38be 9e75 073e
00000060: a65a 2abe 96e9 49be 8125 bc3d caa7 6b3d
00000070: 0aa3 0c3e 8f87 af3d a0ea 56be 0e2f 2ebe
00000080: 2449 2cbe c778 e8bd 99c8 3fbe e53a 0e3d
00000090: 98a5 123e 83a4 503e 77d1 4ebe e3ac 003e
000000a0: ee7e 613e a369 5e3e 8296 683e 7984 d2bd
000000b0: 1100 a0bc 6a6c 43be 973c df3d 57d8 19be
000000c0: e95a ac3d 941e 49be 4ced a53d 98c1 adbd
000000d0: eb2e 45be bfdc 5d3e dd98 53be 6060 8cbc
000000e0: c251 bebc 2f79 573e 488b 8c3d c7dd 153e
000000f0: 4489 163e 2234 2d3d bd19 883d e2f2 283e
00000100: 9547 41be 9a3d f9bd 121f a73d 0152 46bd
00000110: 843e f7bd bd23 863d 50d3 253e 2ca6 16be
00000120: 5257 f33d 0b03 74bd bedb 503e e2cd 16bd
00000130: a001 9ebd 4829 a9bd 8787 8c3d 38cf 543e
00000140: 0132 8b3d b305 033e f36b c4bd b786 13be
00000150: f82b 37be 84f3 82bd 7abb 1abe 9446 c93b
00000160: dec3 2c3e a52e 713e d6b1 a6bd 28e0 a93c
00000170: e24b 3e3d 1b0c 543e a790 2ebe 1f72 2f3e
00000180: 8b83 1d3e 1bed 2c3d 7707 8d3d e6fe 323c
00000190: 1c9e c53d 7ddf e03d 9d9b 093e de99 2d3e
000001a0: eb02 a6bd 72d7 48be 3a24 ce3d a16b f63c
000001b0: d43e d03c 9329 21be b833 6c3d 5b23 15be
000001c0: 7c14 f0bd 95ea e03d 671f 3cbd 3995 133e
000001d0: c31a 08be 5b92 c1bd 22b9 663e 7250 5cbe
000001e0: 8cff 17be 3849 0a3e 146b 82bd 7271 f4bb
000001f0: 4b82 bb3d 679f 35be c40a 00be b34a de3d
00000200: cc09 dbbc c693 1abe 76bf c33d 875e f33c
00000210: c862 f7bb 875e aa3d 6b0f 15be d639 d6bd
00000220: 5852 babd 09df 383c 3a75 513e 8e7b 62bd
00000230: 0844 4bbd b183 f9bd 53c9 84bb ee78 503d
00000240: 673b 883d b487 edbd 08d1 353d d480 9b3d
00000250: 0e3a af3d 3bee f6bc 6db9 aabd 1ca1 ff3c
00000260: 9bbc adbc 7304 86bd c219 293d 8a27 9cbb
00000270: be03 a13c 8750 14be 7912 6bbd 2f5a d6bd
00000280: cbb8 c3bd b203 6abc 976c a43d a4f1 363d
00000290: 5b1f 5d3d b988 be3c f477 1cbe dfbc 403e
000002a0: ed98 6c3d 4dbd 2d3e fcf2 2b3d fcf0 d23c
000002b0: a530 c23d 68dd c8bb cec0 633e 2437 f5bc
000002c0: af60 b73d 0b19 0cbe 4431 c93c 450c bfbb
000002d0: ab96 b7bd 67f6 16bc c91a 94bd 6945 cabd
000002e0: cd94 f33d c5b8 b13e b007 aa3c 273a ea3d
000002f0: 6acc fc3c 67ef e13d 246b ee3c 5efe 5dbd
00000300: 8f15 e4bc d15c b7bd f294 c93d fc5b 2a3d
00000310: 1d0a 2fbd e7da 33be ec34 723d 837c b23c
00000320: a478 87bc 1e07 a0bc 9a53 a53c c68d 6e3d
00000330: 8660 bf3b 6284 1e3d 9a8d 7b3d e486 bc3c
00000340: d26d c13d b403 7d3d 41bb 81bd 3202 adbd
00000350: efdc e9bd fe09 633e dfe2 96bd cb6b 7abb
00000360: 9774 d73d fbb4 d53c 1fc6 19bd 99b9 c73c
00000370: 5de5 98bd 24d4 6d3d 67fc 28be 2170 93bd
00000380: 546b a73d e808 1cbe 8797 033d 4cda 8dbe
00000390: 066d b7bc f131 683d 766b aabd 98e0 c53c
000003a0: 1f20 dcbd bdfd e1bc bdf0 893e f13d 593e
000003b0: c905 d83d 33d0 13be e1df 4bbd cdd3 3fbe
000003c0: f24b 95bd be45 a0bd fc19 82bd 4f06 0b3d
000003d0: 4bc2 75bc 4f57 c53c ffa7 153e 1e99 2ebd
000003e0: 02bf c3bd 84cf c43d 4d34 083e af8d 3e3e
000003f0: b5ea e4bc 80f1 c63c 713d 18bb 97ac c63d

rnn2.bias_ih_l0 f4 [128]
0.063961335 0.08341785 0.013434992 0.012663489 -0.059629936 0.065697625 -0.07257836 -0.06693098
0.09548283 0.008079926 -0.22902255 0.07343464 0.15142384 0.21080028 0.1636108 -0.07663101
0.17314304 -0.2408487 -0.18701363 0.021302512 -0.059856102 0.03299759 -0.16823559 -0.004531464
0.010491293 -0.014282462 0.10573827 0.10129801 0.14041503 0.027885647 -0.03277372 0.12485598
0.11738683 -0.071026534 -0.16458105 0.031851 0.038281724 -0.03855263 -0.2667094 -0.11281002
0.012843168 0.34283206 -0.005471127 0.06631372 -0.017607557 0.103240825 -0.0068887244 0.054277968
-0.07421367 0.034347247 -0.20351505 -0.25763395 0.017584013 -0.051359337 -0.11416239 0.11060908
0.12148554 -0.025753751 -0.28912202 -0.02361596 0.08064065 -0.060477532 0.04516992 -0.005301922
0.06008476 -0.24950266 -0.0043545743 0.18628491 0.08955426 0.0671983 0.08632611 -0.08991725
0.020487823 0.06165947 -0.033111807 -0.0056241956 -0.022040905 -0.018221177 0.011935763 0.15666716
0.15119849 -0.023519984 -0.11682075 0.02520769 -0.14427648 0.11687327 -0.020937774 0.080983095
0.055132877 0.0684279 0.08115781 0.14058502 -0.0068782237 -0.22126682 0.06219161 -0.08952353
0.123056926 0.05645148 0.16065435 0.06176404 -0.2991816 -0.07625376 -0.05813534 0.10045446
-0.16741538 0.0036791884 -0.012533376 -0.22103974 0.22802599 -0.04809994 0.28752825 0.07312458
-0.1106483 -0.18546376 0.14727196 0.052211348 -0.023951605 0.02325654 -0.013697807 0.016138135
0.197091 -0.030315723 -0.023025021 -0.030527467 -0.006248581 -0.061545342 0.04145953 -0.022314532
00000000: 29fe 823d fad6 aa3d 711e 5c3c 867a 4f3c
00000010: 853e 74bd 7a8c 863d f7a3 94bd 1c13 89bd
00000020: 818c c33d aa61 043c e384 6abe e764 963d
00000030: da0e 1b3e 07dc 573e 9789 273e b8f0 9cbd
00000040: 694c 313e 0ba1 76be 8080 3fbe 9b82 ae3c
00000050: ac2b 75bd 7b28 073d f345 2cbe ad7c 94bb
00000060: ace3 2b3c fd00 6abc 4e8d d83d 5575 cf3d
00000070: f5c8 0f3e 7170 e43c bc3d 06bd 7eb4 ff3d
00000080: 8268 f03d 5c76 91bd ef87 28be 3276 023d
00000090: 4ccd 1c3d 5de9 1dbd 228e 88be f108 e7bd
000000a0: 276c 523c af87 af3e 2447 b3bb 7dcf 873d
000000b0: b93d 90bc ed6f d33d cfba e1bb 9352 5e3d
000000c0: 56fd 97bd b3af 0c3d 4066 50be 99e8 83be
000000d0: 590c 903c 2b5e 52bd f9cd e9bd 0387 e23d
000000e0: 69cd f83d 88f9 d2bc cd07 94be 4276 c1bc
000000f0: ed26 a53d 4ab7 77bd 1804 393d bfbb adbb
00000100: 701b 763d a07d 7fbe d1b0 8ebb 79c1 3e3e
00000110: 3968 b73d 439f 893d becb b03d 8926 b8bd
00000120: 14d6 a73c a48e 7c3d 3fa0 07bd 2c4b b8bb
00000130: 218f b4bc 9444 95bc 388e 433c 5b6d 203e
00000140: c7d3 1a3e fbac c0bc b83f efbd 5c80 ce3c
00000150: 37bd 13be 415b ef3d b285 abbc 77da a53d
00000160: 03d3 613d ed23 8c3d 1136 a63d 85f5 0f3e
00000170: b962 e1bb c593 62be a1bc 7e3d 1d58 b7bd
00000180: 4505 fc3d ab39 673d 9382 243e 4afc 7c3d
00000190: 552e 99be ee2a 9cbd 531f 6ebd 11bb cd3d
000001a0: f06e 2bbe 8a1e 713b ca58 4dbc 3e58 62be
000001b0: a57f 693e 7104 45bd e736 933e 57c2 953d
000001c0: 939b e2bd 36ea 3dbe 76ce 163e 91db 553d
000001d0: 2836 c4bc 8084 be3c c46c 60bc 1f34 843c
000001e0: 39d2 493e ae58 f8bc f89e bcbc bd14 fabc
000001f0: e6c0 ccbb f816 7cbd 78d1 293d f7cc b6bc

rnn2.bias_hh_l0 f4 [128]
0.09657776 -0.05735977 -0.1037049 0.03999 0.022958826 0.10128862 -0.10189683 -0.023743292
0.0142585635 -0.028661577 -0.2960972 0.15968451 0.16566402 0.25694868 0.2160452 -0.0775019
0.017088965 -0.24548264 -0.17998524 0.09147661 -0.029798705 -0.025732033 -0.12354614 -0.1042162
0.034498017 -0.02125437 0.08366913 0.07566931 0.057121538 0.074498475 0.07932767 0.12272461
0.24696924 -0.0558439 -0.13417003 0.0022458772 0.022544753 0.087260164 -0.27386338 -0.18876189
-0.083186075 0.20310044 -0.027738467 -0.046452157 0.124293804 0.046540074 -0.06719219 -0.086222954
-0.07605152 0.051449887 -0.09322912 -0.26671144 -0.09784212 -0.032476548 -0.08903685 0.12918626
0.17896385 -0.14043006 -0.36659518 -0.061776865 0.13664779 0.06650569 0.06888524 0.055767376
0.013516457 -0.16301006 0.03106003 0.15560876 0.032111816 0.0067697675 0.029995382 -0.03216681
0.14608037 0.021430863 0.026336001 -0.03182982 -0.055829644 -0.09281626 0.05838047 0.01867305
0.12013589 -0.09786954 -0.057450935 -0.11147939 -0.18095316 0.12789412 -0.08531893 -0.019708997
0.051811244 0.041923184 0.10310031 0.12329349 -0.15644445 -0.18284546 0.02965362 -0.07296042
0.09528205 0.0081308335 0.1410694 0.018517822 -0.2855512 -0.041679043 -0.16031738 0.043504708
-0.06908833 -0.12529686 0.037151128 -0.2966256 0.11575296 -0.033772 0.31785792 0.00095546735
-0.08979923 -0.195292 0.25234652 0.1440502 0.026275042 0.033373 -0.005472663 -0.024710964
0.0282012 0.049703285 0.057459503 -0.0263639 0.011536977 0.022026243 0.039275423 0.017129783
00000000: 90ca c53d 14f2 6abd 3c63 d4bd 8ecc 233d
00000010: 2614 bc3c 6870 cf3d 49af d0bd 4b81 c2bc
00000020: c09c 693c afcb eabc 0d9a 97be 5684 233e
00000030: d4a3 293e c78e 833e f43a 5d3e 51b9 9ebd
00000040: 28fe 8b3c cd5f 7bbe 0d4e 38be 1758 bb3d
00000050: 6a1c f4bc fccb d2bc c205 fdbd 4e6f d5bd
00000060: cb4d 0d3d a51d aebc b95a ab3d 83f8 9a3d
00000070: 46f8 693d a892 983d 8c76 a23d 0a57 fb3d
00000080: 81e5 7c3e 93bc 64bd de63 09be 912f 133b
00000090: c6af b83c 75b5 b23d d237 8cbe cc4a 41be
000000a0: 765d aabd 90f9 4f3e c83b e3bc 9e44 3ebd
000000b0: c08d fe3d cea0 3e3d 0f9c 89bd a995 b0bd
000000c0: e6c0 9bbd 1ebd 523d e9ee bebd 678e 88be
000000d0: 7361 c8bd 2106 05bd f458 b6bd 6749 043e
000000e0: 4d42 373e e6cc 0fbe 5db2 bbbe bd09 7dbd
000000f0: 66ed 0b3e 2334 883d b413 8d3d 556c 643d
00000100: 2174 5d3c 1cec 26be 9b71 fe3c e757 1f3e
00000110: ae87 033d edd4 dd3b e0b8 f53c 58c1 03bd
00000120: 1896 153e c78f af3c 99be d73c fc5f 02bd
00000130: a0ad 64bd 7416 bebd 5c20 6f3d 39f8 983c
00000140: ce09 f63d d36f c8bd ac51 6bbd 4e4f e4bd
00000150: c94b 39be adf6 023e b1bb aebd c374 a1bc
00000160: 0738 543d a5b7 2b3d 4126 d33d 4c81 fc3d
00000170: f932 20be d73b 3bbe 26ec f23c 466c 95bd
00000180: 3c23 c33d 3037 053c 7f74 103e b0b2 973c
00000190: c433 92be a5b7 2abd 3d2a 24be fe31 323d
000001a0: 2f7e 8dbd d24d 00be c82b 183d 50df 97be
000001b0: e30f ed3d 8254 0abd 46be a23e 5478 7a3a
000001c0: a9e8 b7bd a0fa 47be 9033 813e e581 133e
000001d0: c23e d73c 20b2 083d 0654 b3bb a66e cabc
000001e0: 3406 e73c ac95 4b3d a85a 6b3d 1bf9 d7bc
000001f0: 9705 3d3c 6170 b43c 44df 203d c253 8c3c

dense_layers.0.weight f4 [128, 128]
-0.052118033 0.020175656 0.13905412 -0.10205971 0.105740465 -0.083744206 -0.105275616 0.085892126
0.060818225 0.09753989 0.12325374 0.0316033 0.08911441 -0.032414775 -0.06370625 0.025411364
0.045661923 0.066361874 0.071823165 0.031458188 0.044868372 0.06118956 0.1611016 -0.12234707
-0.026704835 -0.039209146 0.012221821 -0.12806419 -0.033481646 -0.14327225 -0.043380268 0.06514903
0.07072371 0.055120606 -0.012859539 -0.10852238 0.019675335 0.025246711 0.04046643 0.09202924
0.013903159 0.10501729 0.018275643 -0.031395454 0.13187177 -0.04323177 -0.072301514 -0.0014193514
0.02528593 0.0048803715 -0.07893591 0.13585675 -0.06511029 0.04484958 0.111463465 0.026820514
-0.09399553 0.12193741 0.055286292 -0.04385863 0.08155051 0.031646334 0.10169783 0.01730761
-0.11815663 0.07711868 -0.095702805 0.08808592 0.11125117 -0.1673238 -0.09661205 0.034137264
0.050277885 -0.04521807 -0.016292071 0.09906478 0.018106451 -0.043440163 -0.063677646 -0.035243794
0.045672767 0.04871644 0.06591962 0.03619469 0.01902393 0.13844442 -0.027009476 0.07279162
-0.034381285 -0.103039876 0.16902941 0.042043254 -0.06271904 0.09315252 0.077392295 -0.065482914
0.0061009577 0.0435137 -0.071530774 0.0037459785 -0.17424703 0.058081847 -0.23741081 -0.0515604
0.036597658 -0.012484676 0.0044288184 0.29368886 0.09900747 0.062276393 -0.023867043 0.053577464
-0.09370068 -0.051742226 -0.06112759 -0.02874109 0.002807561 -0.042386074 -0.05724597 0.09578349
-0.08575558 -0.053038295 0.14180605 0.12210017 0.053529967 -0.03897563 -0.0015048481 -0.00894782
-0.012930442 -0.3638825 -0.32399377 -0.009427421 -0.037436016 -0.06691209 -0.058769677 -0.0018876124
0.0036320093 0.060821947 0.26824668 -0.023011055 -0.0013476214 -0.02962291 -0.7450699 0.43343854
-0.13533923 -0.038711503 0.20356418 -0.07184922 -0.058350094 0.010707778 -0.247177 0.46670493
0.11317119 0.0024989198 -0.06871841 0.27022743 -0.07099434 0.0409686 -0.010593171 -0.04724882
0.036368277 0.028244711 -0.17407793 0.09731173 0.0019637526 -0.11319224 0.104748674 -0.08208472
-0.024387224 -0.53854126 -0.031625263 -0.11182996 -0.44081685 0.07663455 0.12756658 0.028565971
-0.009158682 0.062571935 0.38798112 -0.011426595 -0.012070337 0.02969153 -0.06713779 0.042092096
-0.026507974 -0.018813396 0.14020273 -0.26387033 -0.29505154 0.024837913 -0.11953398 0.25562966
0.3381287 -0.07607113 -0.02042748 -0.038903955 -0.29211062 0.37529123 0.039196994 0.029031903
-0.04556428 -0.012162049 -0.07875608 -0.19664684 -0.0037101982 0.115330465 -0.08090194 -0.017195534
0.024585195 -0.011487051 0.14062752 0.014333512 -0.093130276 -0.0016084566 0.028905801 -0.26469797
-0.15802838 0.051692054 -0.1686439 0.06839068 -0.07834097 -0.017974678 -0.031733252 0.32870543
0.02546427 -0.3272628 -0.08918315 0.05771917 0.16239032 -0.01628545 0.11827725 0.10501211
0.21031556 -0.034051545 -0.2905914 -0.012349998 0.12607715 -0.015180896 -0.0146304555 0.13116442
0.3509665 0.06077933 0.019583024 -0.037680343 0.042535458 0.091607206 -0.046085518 -0.048053063
-0.012734737 -0.27673465 -0.31276688 -0.07748807 -0.3317182 -0.02328994 -0.18882546 0.045019675
00000000: b879 55bd 6b47 a53c 3464 0e3e ae04 d1bd
00000010: 758e d83d 1582 abbd be9a d7bd 36e8 af3d
00000020: 881c 793d fec2 c73d 756c fc3d 7672 013d
00000030: 9e81 b63d 5bc5 04bd 6c78 82bd 7e2b d03c
00000040: ff07 3b3d bce8 873d 0618 933d 4dda 003d
00000050: e6c7 373d e7a1 7a3d d1f7 243e 1a91 fabd
00000060: 19c4 dabc c599 20bd 083e 483c 4223 03be
00000070: 0d24 09bd f6b5 12be 82af 31bd db6c 853d
00000080: 98d7 903d 25c6 613d d1b0 52bc fb40 debd
00000090: 2b2e a13c 31d2 ce3c 21c0 253d d479 bc3d
000000a0: 13ca 633c 4e13 d73d cdb6 953c 8598 00bd
000000b0: 6509 073e cc13 31bd d112 94bd 8809 baba
000000c0: 7024 cf3c 86eb 9f3b 26a9 a1bd 081e 0b3e
000000d0: 8b58 85bd 31b4 373d f546 e43d b2b6 db3c
000000e0: ba80 c0bd 52ba f93d e173 623d 1ba5 33bd
000000f0: f403 a73d 969f 013d f446 d03d b0c8 8d3c
00000100: 1afc f1bd 66f0 9d3d d5ff c3bd 6466 b43d
00000110: a7d7 e33d ee56 2bbe 8adc c5bd 84d3 0b3d
00000120: 2ff0 4d3d 9536 39bd f376 85bc 7ae2 ca3d
00000130: fb53 943c 50ee 31bd 6d69 82bd cc5b 10bd
00000140: 5e13 3b3d e48a 473d de00 873d e240 143d
00000150: 13d8 9b3c 60c4 0d3e fa42 ddbc c613 953d
00000160: 64d3 0cbd 9206 d3bd 0c16 2d3e 8c35 2c3d
00000170: d772 80bd c0c6 be3d da7f 9e3d e81b 86bd
00000180: 8bea c73b 6c3b 323d ba7e 92bd 177f 753b
00000190: d06d 32be 3be7 6d3d d21b 73be ff30 53bd
000001a0: 6de7 153d 878c 4cbc 9f1f 913b 635e 963e
000001b0: 6ec4 ca3d 8815 7f3d d184 c3bc 0b74 5b3d
000001c0: 24e6 bfbd a8ef 53bd ec60 7abd 6f72 ebbc
000001d0: 0fff 373b 059d 2dbd c07a 6abd 222a c43d
000001e0: 9fa0 afbd af3e 59bd 9b35 113e a70f fa3d
000001f0: 3d42 5b3d e9a4 1fbd 533e c5ba e199 12bc
00000200: 34da 53bc cf4e babe 83e2 a5be 7875 1abc
00000210: 8256 19bd 3509 89bd 79b8 70bd c369 f7ba
00000220: 0107 6e3b 6f20 793d a157 893e ae81 bcbc
00000230: aca2 b0ba bfab f2bc e7bc 3ebf a8eb dd3e
00000240: 5e96 0abe f48f 1ebd 2173 503e af25 93bd
00000250: 8200 6fbd ad6f 2f3c f81b 7dbe f3f3 ee3e
00000260: 4cc6 e73d ebc4 233b 3dbc 8cbd 405b 8a3e
00000270: 7b65 91bd b1ce 273d fb8e 2dbc fb87 41bd
00000280: e7f6 143d 7461 e73c 7c41 32be 5f4b c73d
00000290: 4db2 003b 55d1 e7bd 7986 d63d 091c a8bd
000002a0: b7c7 c7bc d7dd 09bf 7e89 01bd 1b07 e5bd
000002b0: bfb2 e1be 93f2 9c3d d0a0 023e 2f03 ea3c
000002c0: 4c0e 16bc b725 803d 76a5 c63e 9d36 3bbc
000002d0: aac2 45bc a73b f33c 8a7f 89bd c368 2c3d
000002e0: 4027 d9bc 8d1e 9abc 4e91 0f3e 031a 87be
000002f0: ff10 97be e178 cb3c 3bce f4bd e4e1 823e
00000300: 341f ad3e 2ecb 9bbd 8857 a7bc c159 1fbd
00000310: 868f 95be 2c26 c03e 078d 203d 50d4 ed3c
00000320: 9ca1 3abd 5543 47bc de4a a1bd ca5d 49be
00000330: cc26 73bb 6132 ec3d ebaf a5bd a6dd 8cbc
00000340: e466 c93c 2f34 3cbc a900 103e 1bd7 6a3c
00000350: 16bb bebd d9d2 d2ba dccb ec3c 7e86 87be
00000360: 31d2 21be 0cbb 533d fdb0 2cbe 6a10 8c3d
00000370: 3b71 a0bd a23f 93bc bafa 01bd 144c a83e
00000380: 729a d03c fd8e a7be a8a5 b6bd f06a 6c3d
00000390: a649 263e 1069 85bc 583b f23d 9710 d73d
000003a0: f65c 573e a279 0bbd 65c8 94be a557 4abc
000003b0: 5e1a 013e 4bb9 78bc 94b4 6fbc f74f 063e
000003c0: e2b1 b33e bff3 783d 946c a03c b456 1abd
000003d0: a939 2e3d 8f9c bb3d 2bc4 3cbd 4ad3 44bd
000003e0: 5ca5 50bc 2ab0 8dbe fb22 a0be 11b2 9ebd
000003f0: f8d6 a9be 8bca bebc 765b 41be 8d66 383d

dense_layers.0.bias f4 [128]
-0.45912525 0.011263874 0.15190578 -0.3376715 -0.48745155 -0.40998814 -0.36584345 -0.30627453
-0.7803584 -0.40023658 -0.58644974 -0.35805035 -0.1621721 -0.34211716 -0.22991116 -0.43427855
-0.42225382 -0.36196476 -0.63382083 -0.24406831 -0.3969453 -0.39282274 -0.27840903 -0.32131237
-0.26432982 -0.1194249 -0.1458411 -0.3169345 -0.55825764 -0.31843325 -0.46013218 -0.39537013
-0.56071115 0.17202486 -0.34351784 -0.15870838 -0.31393865 -0.09733436 -0.058970388 -0.26602146
-0.26247644 0.060040522 -0.1299388 -0.10243532 -0.1569488 -0.5332332 0.10807893 -0.21050096
0.10140318 -0.5553637 -0.42456937 -0.18252951 -0.13993716 -0.19401427 -0.3478894 -0.27214906
-0.34875464 0.33166027 -0.046764486 -0.34401157 -0.2904827 -0.29343817 -0.31835568 -0.008711316
-0.27210104 -0.4955253 -0.31308118 -0.003858949 -0.19615747 -0.6258547 -0.36920282 -0.4018153
-0.51415795 -0.6641907 0.32490483 -0.39555505 0.06866667 -0.29199517 -0.5997484 0.3176539
-0.26087087 0.21413162 -0.3343651 -0.4073014 -0.5181177 -0.33797905 0.06717158 -0.6625974
-0.38546848 -0.5841257 -0.53576463 -0.10636881 0.00022576378 -0.33461416 -0.31945372 -0.15210019
0.19628033 -0.28003842 -0.34422478 0.13813841 -0.21919464 -0.21737966 -0.3873033 -0.09174079
-0.3733458 -0.18931276 -0.200357 -0.47655615 -0.5379864 -0.4881488 -0.06034165 0.0765817
-0.4827974 -0.329699 -0.2594196 -0.19302806 -0.35225147 -0.27766013 -0.4491389 -0.57980824
-0.41942486 -0.33929247 -0.347779 -0.04784928 -0.5458343 -0.26995978 -0.1497914 -0.3622832
00000000: 7712 ebbe 1d8c 383c 308d 1b3e 47e3 acbe
00000010: 4093 f9be f7e9 d1be d54f bbbe 04d0 9cbe
00000020: 91c5 47bf cfeb ccbe 9221 16bf 6052 b7be
00000030: 7110 26be fb29 afbe d56d 6bbe c259 debe
00000040: a731 d8be 7253 b9be 1542 22bf 0bed 79be
00000050: 6a3c cbbe 1020 c9be a18b 8ebe 0e83 a4be
00000060: 3d56 87be 0b95 f4bd 5f57 15be 3d45 a2be
00000070: f9e9 0ebf af09 a3be 7296 ebbe f46d cabe
00000080: c48a 0fbf 4927 303e 92e1 afbe 7384 22be
00000090: 91bc a0be 3d57 c7bd ef8a 71bd f733 88be
000000a0: 5063 86be 0ded 753d ad0e 05be 9cc9 d1bd
000000b0: 30b7 20be f981 08bf 7c58 dd3d 908d 57be
000000c0: 78ac cf3d 512c 0ebf 2861 d9be 04e9 3abe
000000d0: b04b 0fbe adab 46be 8f1e b2be 1f57 8bbe
000000e0: f88f b2be 60cf a93e 1e8c 3fbd 4922 b0be
000000f0: 26ba 94be 873d 96be 84ff a2be e8b9 0ebc
00000100: d450 8bbe 7eb5 fdbe 2d4c a0be 6ce6 7cbb
00000110: 81dd 48be 0338 20bf 2708 bdbe bcba cdbe
00000120: db9f 03bf 6708 2abf ed59 a63e 3186 cabe
00000130: 1ca1 8c3d 6480 95be 1c89 19bf 88a3 a23e
00000140: de90 85be 5245 5b3e e731 abbe cf89 d0be
00000150: 5da3 04bf 970b adbe 4191 893d fc9f 29bf
00000160: 205c c5be 4389 15bf df27 09bf e4d7 d9bd
00000170: 01bb 6c39 8c52 abbe 708f a3be 27c0 1bbe
00000180: b6fd 483e 3261 8fbe 3b3e b0be 2874 0d3e
00000190: 8f74 60be c698 5ebe 9e4c c6be 98e2 bbbd
000001a0: 2e27 bfbe 34db 41be 632a 4dbe 2bff f3be
000001b0: 7ab9 09bf a4ee f9be ce28 77bd ded6 9c3d
000001c0: 3931 f7be 4fce a8be a5d2 84be 26a9 45be
000001d0: 4e5a b4be 7829 8ebe 89f5 e5be 506e 14bf
000001e0: dbbe d6be beb7 adbe 1710 b2be 9bfd 43bd
000001f0: ccbb 0bbf 2b38 8abe eb62 19be 2f7d b9be
